bilstm_best_trial_0.pth (torch, 163223 bytes, 10 tensors)

lstm.weight_ih_l0 f4 [256, 8]
-9.4385185e-05 -9.098486e-05 -8.356148e-05 -8.968994e-05 -8.541273e-05 -9.009361e-05 -8.449492e-05 -8.431781e-05
-0.0009459241 -0.0009467639 -0.0009173722 -0.0009290337 -0.0009348951 -0.00094356714 -0.0009144457 -0.0009107257
-0.0021505472 -0.00215036 -0.0021416591 -0.0021327105 -0.0021181519 -0.0021349848 -0.0021196066 -0.002122888
-0.0009229476 -0.0009263112 -0.0009421343 -0.00092511653 -0.0009196937 -0.0009361472 -0.00093200465 -0.00092018326
-0.0016667802 -0.0016581123 -0.0016408075 -0.001633449 -0.0016136474 -0.0016410467 -0.001623423 -0.0016081913
-0.0015397082 -0.001533731 -0.0015376969 -0.0015197594 -0.0015153649 -0.0015230248 -0.0015242264 -0.0015189077
-0.0027579737 -0.0027582042 -0.0027368923 -0.0027397692 -0.0027308248 -0.0027618317 -0.0027306143 -0.0027194796
-0.0032251847 -0.0032186212 -0.0031865672 -0.0031797932 -0.0031909328 -0.0032183304 -0.0031708975 -0.0031627961
-0.0039940267 -0.0039883275 -0.0039317543 -0.0039427136 -0.003943525 -0.003988898 -0.0039181076 -0.0039099096
-0.0042479713 -0.004227388 -0.0042213504 -0.004195502 -0.004193418 -0.004231437 -0.0042105056 -0.004191146
-0.0011872728 -0.0012015104 -0.0012092624 -0.0011958199 -0.0011946855 -0.0012044092 -0.0012089879 -0.0011939522
-0.0026514416 -0.0026399214 -0.0026185112 -0.0026108962 -0.0026112956 -0.0026393868 -0.0026105242 -0.002599228
-0.00020916788 -0.00020630125 -0.00020608328 -0.00020271611 -0.00020196568 -0.00020371345 -0.00020174531 -0.00019605442
-0.0005892631 -0.0005782711 -0.000582613 -0.00057617825 -0.0005744504 -0.0005774528 -0.00058163697 -0.00057380216
-0.0037831608 -0.0037715798 -0.0037130674 -0.0037257907 -0.0037183755 -0.0037694667 -0.0037021735 -0.0036855093
-0.00025196982 -0.0002520685 -0.00024694222 -0.00025084044 -0.00025093672 -0.00025394812 -0.0002454773 -0.00024327949
-0.0013527322 -0.0013455935 -0.0013312892 -0.0013409677 -0.0013529222 -0.001359745 -0.0013392201 -0.0013415953
-0.001221306 -0.0012249774 -0.0012443466 -0.0012286498 -0.0012241278 -0.0012221853 -0.0012340546 -0.001228913
-0.00018523415 -0.00018067339 -0.0001792879 -0.00017668228 -0.00017218963 -0.0001750745 -0.00017245908 -0.00017234501
-0.00036428883 -0.000365747 -0.00036775772 -0.00036668306 -0.0003695877 -0.00036964187 -0.0003681406 -0.00037361245
-0.0017241741 -0.0017203152 -0.0016945836 -0.0017038406 -0.0016929093 -0.0017166985 -0.0016865662 -0.0016844675
-0.0009820827 -0.0009596265 -0.00096461485 -0.00094836176 -0.00093912747 -0.00094860303 -0.0009474075 -0.0009377205
-0.0008759206 -0.0008706541 -0.00085881655 -0.0008706167 -0.00087326637 -0.0008850334 -0.00087019586 -0.0008729155
-0.0001279369 -0.00012458081 -0.00012583664 -0.00012486055 -0.00012151328 -0.00012480267 -0.00012205138 -0.000121535144
-0.0031527425 -0.00314455 -0.003114459 -0.003113226 -0.003102585 -0.003138718 -0.003101258 -0.0030881125
-0.002351512 -0.0023167285 -0.0023244023 -0.002295337 -0.0022861084 -0.002316229 -0.0023031137 -0.0022871918
-0.0011396592 -0.0011167505 -0.0011425029 -0.0010954131 -0.0010792832 -0.001091843 -0.001089286 -0.0010594587
-0.00026810076 -0.00027086778 -0.00027461152 -0.0002696705 -0.00028043668 -0.00028003272 -0.0002753979 -0.000267918
-0.0007149457 -0.0007177644 -0.00073111843 -0.0007184939 -0.0007241423 -0.0007211544 -0.0007241592 -0.0007204089
-0.0024209 -0.002407704 -0.0024030362 -0.0023884505 -0.0023864296 -0.0024067608 -0.0023960893 -0.0023923717
-0.0003196246 -0.00032175359 -0.0003180894 -0.00032841068 -0.0003263273 -0.000326975 -0.0003247974 -0.00032176118
-0.0010566434 -0.0010571623 -0.0010606073 -0.0010477281 -0.0010388542 -0.0010404587 -0.0010462904 -0.0010397017
00000000: a9f0 c5b8 20cf beb8 ba3d afb8 eb17 bcb8
00000010: 9c1f b3b8 a3f0 bcb8 dd32 b1b8 c8d3 b0b8
00000020: e4f7 77ba 4030 78ba ce7b 70ba 658a 73ba
00000030: c013 75ba b859 77ba 6ab7 6fba c4bd 6eba
00000040: 32f0 0cbb 0eed 0cbb 145b 0cbb f2c4 0bbb
00000050: b1d0 0abb 1aeb 0bbb 19e9 0abb 2720 0bbb
00000060: f7f1 71ba b1d3 72ba 90f9 76ba 8583 72ba
00000070: 9917 71ba c667 75ba c651 74ba 7438 71ba
00000080: dd77 daba 0455 d9ba 5d10 d7ba 7419 d6ba
00000090: 0681 d3ba 6418 d7ba 09c9 d4ba f2c9 d2ba
000000a0: 09d0 c9ba 7907 c9ba 8c8c c9ba aa32 c7ba
000000b0: 359f c6ba 3ba0 c7ba 8dc8 c7ba 1616 c7ba
000000c0: 1fbf 34bb fdc2 34bb 6f5d 33bb b38d 33bb
000000d0: a3f7 32bb d9ff 34bb 1bf4 32bb 4c39 32bb
000000e0: 9f5d 53bb 81ef 52bb bad5 50bb 1464 50bb
000000f0: f81e 51bb a0ea 52bb d5ce 4fbb ea46 4fbb
00000100: 53e0 82bb 84b0 82bb f2d5 80bb e131 81bb
00000110: af38 81bb 4db5 82bb 7863 80bb b31e 80bb
00000120: 9132 8bbb e785 8abb 4153 8abb 6c7a 89bb
00000130: f168 89bb dea7 8abb 48f8 89bb e255 89bb
00000140: 449e 9bba 007c 9dba 1d80 9eba 0fbd 9cba
00000150: fe96 9cba 44dd 9dba e776 9eba 637e 9cba
00000160: cfc3 2dbb 8802 2dbb 549b 2bbb 921b 2bbb
00000170: 4522 2bbb 90f9 2cbb 5415 2bbb cf57 2abb
00000180: 1354 5bb9 9252 58b9 0f18 58b9 3190 54b9
00000190: c0c6 53b9 ea9b 55b9 988b 53b9 f593 4db9
000001a0: c778 1aba 1e97 17ba 7fba 18ba ab0a 17ba
000001b0: b796 16ba 3460 17ba ff78 18ba 366b 16ba
000001c0: e8ee 77bb 9c2c 77bb ef56 73bb 652c 74bb
000001d0: fdaf 73bb 2809 77bb 2aa0 72bb 9688 71bb
000001e0: d11a 84b9 1028 84b9 0678 81b9 3c83 83b9
000001f0: 2890 83b9 5724 85b9 68b3 80b9 d718 7fb9
00000200: 294e b1ba a05e b0ba a77e aeba 69c3 afba
00000210: 8954 b1ba 7939 b2ba c588 afba 78d8 afba
00000220: 3b14 a0ba 6c8f a0ba 5819 a3ba a50a a1ba
00000230: ea72 a0ba bc31 a0ba 00c0 a1ba 7a13 a1ba
00000240: 6a3b 42b9 2573 3db9 3bff 3bb9 ca43 39b9
00000250: cd8d 34b9 3494 37b9 22d6 34b9 83b7 34b9
00000260: 05fe beb9 bbc1 bfb9 9bcf c0b9 5e3f c0b9
00000270: 39c5 c1b9 7ecc c1b9 ff02 c1b9 6ae1 c3b9
00000280: affd e1ba 337c e1ba ca1c deba 6753 dfba
00000290: 9ce4 ddba d802 e1ba c50f ddba 5ac9 dcba
000002a0: 3ab9 80ba 728f 7bba 35de 7cba 7b9b 78ba
000002b0: c72f 76ba acab 78ba 715b 78ba 5cd1 75ba
000002c0: 099e 65ba 9c3c 64ba 3422 61ba 193a 64ba
000002d0: eaeb 64ba 9601 68ba db1d 64ba 5ed4 64ba
000002e0: cd26 06b9 e8a1 02b9 04f3 03b9 00ed 02b9
000002f0: f2d4 feb8 76dd 02b9 d6f5 ffb8 afe0 feb8
00000300: 3e9e 4ebb cb14 4ebb f41b 4cbb 4407 4cbb
00000310: bd54 4bbb f3b2 4dbb 7a3e 4bbb ee61 4abb
00000320: d31b 1abb 41d4 17bb 0055 18bb 5d6d 16bb
00000330: 89d2 15bb e0cb 17bb d6ef 16bb b6e4 15bb
00000340: 9e60 95ba ee5f 92ba 09c0 95ba f793 8fba
00000350: bc76 8dba 2c1c 8fba 5fc6 8eba 89dd 8aba
00000360: e08f 8cb9 4203 8eb9 bcf9 8fb9 9062 8db9
00000370: 9307 93b9 5bd1 92b9 4863 90b9 5877 8cb9
00000380: 326b 3bba 5a28 3cba 87a8 3fba 4f59 3cba
00000390: 5ed4 3dba da0b 3dba 80d5 3dba d3d9 3cba
000003a0: f6a7 1ebb 92ca 1dbb 427c 1dbb 8d87 1cbb
000003b0: a565 1cbb bfba 1dbb b507 1dbb 56c9 1cbb
000003c0: 4a93 a7b9 09b1 a8b9 3dc5 a6b9 892e acb9
000003d0: e916 abb9 d76d abb9 9249 aab9 0eb2 a8b9
000003e0: 127f 8aba 7b90 8aba 1304 8bba ec53 89ba
000003f0: 2a2a 88ba 0060 88ba ae23 89ba 9a46 88ba

lstm.weight_hh_l0 f4 [256, 64]
2.1329984e-06 3.0534366e-06 -7.141156e-07 2.9718992e-06 -6.3336943e-06 2.8733205e-06 4.58633e-06 5.7881025e-06
6.0045463e-06 -5.9136446e-06 -3.1723798e-06 -5.803563e-06 -1.648984e-06 1.8078949e-06 6.8606255e-06 1.2318949e-06
-3.1674458e-06 2.3981913e-06 9.0618585e-07 -2.0103641e-08 3.2024586e-06 3.6971683e-06 -4.3023945e-07 7.0401416e-07
-5.0138015e-06 -2.7185695e-06 -2.3966156e-06 3.4797831e-06 1.9269296e-06 -4.434247e-06 -4.9044993e-06 -2.5634677e-09
2.2904646e-06 3.2319758e-06 2.51538e-06 -4.7360318e-06 -5.3955373e-06 6.0917864e-07 1.3153891e-06 -4.3814316e-06
-4.1070844e-06 -2.4803535e-06 -7.777349e-06 9.3605695e-07 5.7355905e-06 -3.6415688e-06 -2.1632231e-06 -1.1533288e-06
-2.3435498e-06 1.5408668e-06 3.1290786e-06 4.3420687e-07 1.1807696e-06 -3.860524e-06 1.206581e-06 -4.5931756e-06
1.3963032e-06 1.4965707e-06 -9.782777e-07 3.992379e-06 -5.924414e-06 2.109895e-06 9.231742e-06 2.5650115e-07
-2.3253838e-06 -1.3678227e-05 1.3033043e-05 -2.207062e-05 1.902727e-05 -1.3147462e-05 -2.4311907e-05 -3.0314572e-05
-3.4153694e-05 1.3239781e-05 1.9236744e-05 1.5661702e-05 7.720749e-06 -1.3738416e-05 -3.1156524e-05 -8.399055e-06
8.196171e-06 -1.6945727e-05 -1.1003393e-06 -9.622916e-06 -2.2472725e-05 -1.051336e-05 -5.189948e-06 5.5377104e-06
2.3956622e-05 -5.7322827e-06 2.6741309e-05 -2.051696e-05 -1.798056e-05 9.328328e-06 8.107327e-06 -3.133174e-06
-1.050569e-05 -4.4538538e-06 -1.0777732e-05 1.5927122e-05 2.3899473e-05 6.9641824e-06 1.7486644e-05 2.1813488e-05
7.981789e-06 3.413889e-06 3.0719824e-05 -2.6147886e-06 -1.7378341e-05 1.7866614e-05 9.952023e-06 -9.399576e-07
2.220591e-05 -6.569211e-06 -2.6370682e-05 1.2759819e-05 -7.281681e-06 1.3464377e-05 1.4030425e-05 3.6145075e-06
-6.359938e-06 -7.801631e-06 7.5133503e-06 -1.14928625e-05 1.919802e-05 -1.737761e-05 -3.944234e-05 -5.4157235e-06
-2.8837687e-05 -6.881472e-05 5.4932952e-05 -4.3972443e-05 9.8360026e-05 -6.7919435e-05 -9.591819e-05 -0.0001257547
-0.00013553456 0.000106748645 5.7516714e-05 0.00010173303 9.503534e-06 -1.4074169e-05 -0.00013586262 -1.4079679e-05
7.182142e-05 -6.5870416e-05 -2.6903968e-05 -3.1685053e-05 -8.984756e-05 -6.689594e-05 3.229175e-05 -5.350222e-06
0.00010856592 5.2819316e-05 3.7138783e-05 -5.3866082e-05 -5.022607e-05 8.766103e-05 1.3210683e-05 -1.5143512e-05
-2.949813e-05 -4.7713507e-05 -2.98362e-05 5.9545215e-05 0.0001075005 3.1604857e-05 -6.50497e-07 9.576235e-05
7.403624e-05 5.0165778e-05 0.00014136275 -2.3591423e-05 -7.9514066e-05 8.166372e-05 3.3857137e-05 1.8710449e-05
8.894324e-05 -4.974707e-05 -8.4849766e-05 1.9046904e-05 -1.3430823e-05 5.2516974e-05 -1.4718434e-05 7.897352e-05
-4.669159e-05 -3.1774194e-05 3.0330037e-05 -6.942953e-05 0.00011038161 -9.409499e-06 -0.00017615117 -3.311305e-05
-1.8375104e-05 -1.50451415e-05 2.3571956e-05 -2.691251e-05 5.6200883e-05 -2.7188888e-05 -3.6159207e-05 -3.97573e-05
-4.4542205e-05 5.285971e-05 3.7142156e-05 3.8767033e-05 2.7728536e-05 -3.36415e-05 -5.1722665e-05 1.066498e-05
7.1881977e-06 -3.6972524e-05 -2.1707501e-05 -4.753494e-06 -3.2261265e-05 -4.6776244e-05 -1.2782382e-05 -1.7776665e-05
4.2424377e-05 1.9500898e-05 4.84823e-05 -1.3454728e-05 -6.1066708e-06 3.2639888e-05 2.782491e-05 -1.6090979e-05
-2.7726026e-06 -2.8481414e-05 -9.38365e-06 1.5611584e-05 5.3905955e-05 2.7867447e-05 4.8263832e-06 2.5598376e-05
1.808903e-05 9.920276e-06 6.35928e-05 -1.2404405e-05 -3.6739122e-05 2.6171294e-05 2.4630132e-05 2.7415126e-05
2.6770518e-05 -2.8213768e-05 -2.397555e-05 -1.2544887e-05 5.545831e-06 1.7885946e-05 -6.316702e-06 5.3923603e-05
-2.7250702e-05 -3.706545e-07 -1.0678037e-05 -3.562303e-05 4.0135386e-05 -2.2602237e-05 -6.980922e-05 -1.988275e-05
00000000: a224 0f36 a4e9 4c36 a6b1 3fb5 d770 4736
00000010: 0586 d4b6 45d3 4036 46e4 9936 6c37 c236
00000020: a97a c936 d26d c6b6 12e5 54b6 3abc c2b6
00000030: a952 ddb5 cca6 f235 5334 e636 9657 a535
00000040: 4e90 54b6 9df0 2036 9e40 7335 60b0 acb2
00000050: d2e9 5636 de1c 7836 a9fb e6b4 7cfb 3c35
00000060: 3a3c a8b6 ab70 36b6 8bd5 20b6 3886 6936
00000070: 6650 0136 e4c9 94b6 5491 a4b6 0029 30b1
00000080: e2b5 1936 ece4 5836 e6cd 2836 34ea 9eb6
00000090: 500b b5b6 7086 2335 6d8c b035 3604 93b6
000000a0: 96cf 89b6 2674 26b6 767b 02b7 5845 7b35
000000b0: 5974 c036 ad61 74b6 e42b 11b6 13cc 9ab5
000000c0: e145 1db6 c8cf ce35 29fd 5136 f01c e934
000000d0: ef7a 9e35 a689 81b6 cff1 a135 141f 9ab6
000000e0: 9d68 bb35 c7dd c835 5e4d 83b5 46f6 8536
000000f0: 54ca c6b6 b897 0d36 08e2 1a37 40b5 8934
00000100: ca0d 1cb6 8a7b 65b7 7ea8 5a37 4c24 b9b7
00000110: c09c 9f37 eb93 5cb7 6cf1 cbb7 0c4c feb7
00000120: 4040 0fb8 6d20 5e37 985e a137 4061 8337
00000130: 5d88 0137 0c7e 66b7 10ae 02b8 abe9 0cb7
00000140: 4982 0937 ac26 8eb7 5faf 93b5 1c72 21b7
00000150: cf83 bcb7 8a62 30b7 5025 aeb6 92d0 b936
00000160: 74f6 c837 ef57 c0b6 8652 e037 d61b acb7
00000170: f5d4 96b7 dd80 1c37 b404 0837 8543 52b6
00000180: 9841 30b7 5072 95b6 02d2 34b7 3c9b 8537
00000190: ba7b c837 dfad e936 48b0 9237 1cfc b637
000001a0: 86e9 0537 2b1a 6536 29d9 0038 ba79 2fb6
000001b0: b4c7 91b7 43e0 9537 9df7 2637 6551 7cb5
000001c0: d446 ba37 186d dcb6 9c36 ddb7 0113 5637
000001d0: 2a55 f4b6 0fe5 6137 3764 6b37 c490 7236
000001e0: 7467 d5b6 c0e3 02b7 301b fc36 78d1 40b7
000001f0: 6f0b a137 22c6 91b7 e46e 25b8 b6b8 b5b6
00000200: 76e8 f1b7 9f50 90b8 cf67 6638 0d6f 38b8
00000210: a346 ce38 f86f 8eb8 b027 c9b8 05dd 03b9
00000220: 481e 0eb9 3ede df38 1a3e 7138 8159 d538
00000230: 5e71 1f37 1820 6cb7 5876 0eb9 c337 6cb7
00000240: d59e 9638 e923 8ab8 d5af e1b7 91e5 04b8
00000250: 8b6c bcb8 7c4a 8cb8 0171 0738 0f86 b3b6
00000260: e2ad e338 4f8a 5d38 77c5 1b38 44ee 61b8
00000270: d5a9 52b8 a8d6 b738 74a3 5d37 e410 7eb7
00000280: c072 f7b7 fd1f 48b8 c048 fab7 30c0 7938
00000290: e471 e138 758f 0438 d09d 2eb5 05d4 c838
000002a0: e743 9b38 1869 5238 c63a 1439 32e6 c5b7
000002b0: cac0 a6b8 e042 ab38 d301 0e38 62f4 9c37
000002c0: 0a87 ba38 82a7 50b8 5ff1 b1b8 eac6 9f37
000002d0: f254 61b7 ac45 5c38 31ef 76b7 969e a538
000002e0: b7d6 43b8 4845 05b8 426d fe37 b29a 91b8
000002f0: ad7c e738 7edd 1db7 38b5 38b9 dee2 0ab8
00000300: 3c24 9ab7 646a 7cb7 64bc c537 2dc2 e1b7
00000310: 3db9 6b38 b113 e4b7 a7a9 17b8 13c1 26b8
00000320: d4d2 3ab8 aeb5 5d38 16c9 1b38 c999 2238
00000330: 949a e837 491a 0db8 caf0 58b8 beed 3237
00000340: 2632 f136 f212 1bb8 8118 b6b7 3480 9fb6
00000350: 4550 07b8 9c31 44b8 ea73 56b7 191f 95b7
00000360: d4f0 3138 dc95 a337 7959 4b38 9ebb 61b7
00000370: e7e7 ccb6 d0e6 0838 8a69 e937 1dfb 86b7
00000380: f310 3ab6 5feb eeb7 786e 1db7 9ff5 8237
00000390: 1419 6238 e3c4 e937 51f2 a136 18bc d637
000003a0: e5bd 9737 436f 2637 205d 8538 841c 50b7
000003b0: 5518 1ab8 6d8a db37 ce9c ce37 89f9 e537
000003c0: 4091 e037 9bac ecb7 1a1f c9b7 e177 52b7
000003d0: 5316 ba36 c709 9637 0ff4 d3b6 072c 6238
000003e0: 7098 e4b7 5efe c6b4 d225 33b7 f069 15b8
000003f0: 0b57 2838 ef99 bdb7 8a66 92b8 e1c9 a6b7

lstm.bias_ih_l0 f4 [256]
-0.00034213366 -0.0027064234 -0.004206359 -0.0024014774 -0.0024253125 -0.0032418256 -0.0040177763 -0.005233596
-0.005625286 -0.009029042 -0.0031012609 -0.0058807554 -0.0014123005 -0.0023532005 -0.0057567097 -0.00042525487
-0.004267065 -0.0020736353 -0.0005556644 -0.0006426083 -0.0024132042 -0.0018113768 -0.0038405277 -0.00034255214
-0.0051496695 -0.0057102814 -0.003834771 -0.00062034756 -0.0009293003 -0.005497077 -0.0013968346 -0.002708495
-0.00043177762 -0.0010226923 -0.00034147734 -0.00076364464 -0.004012233 -0.0027446067 -0.004692633 -0.0038881998
-0.004220124 -0.0018675507 -0.005167315 -0.0008001874 -0.0021160597 -0.0044494285 -0.0011107982 -0.00064548623
-0.0031400432 -0.0029353076 -0.0017520582 -0.0013748888 -0.0010813684 -0.00072423014 -0.00673064 -0.007553294
-0.0007603005 -0.00084662205 -0.0010090346 -0.004133212 -0.005990555 -0.0035391022 -0.00722485 -0.0023520866
-0.0003326176 -0.0026790225 -0.0041968264 -0.002357352 -0.0024626865 -0.0032381571 -0.00405499 -0.0052283187
-0.0056689368 -0.008886403 -0.0030295288 -0.0058318945 -0.0013981711 -0.0023080418 -0.005795043 -0.00040795933
-0.0042058555 -0.0020575896 -0.00055516645 -0.0006370007 -0.002451312 -0.0018180929 -0.0037878708 -0.00033877656
-0.0051570935 -0.0056920955 -0.003800465 -0.0006007122 -0.0009222471 -0.0054639545 -0.0013237539 -0.0026555753
-0.00042026796 -0.0010229023 -0.0003161577 -0.0007070888 -0.004036831 -0.0026575532 -0.0046327254 -0.0038643593
-0.0041771415 -0.0018278453 -0.005256896 -0.00079637155 -0.002111072 -0.0044040047 -0.0011115994 -0.00063845253
-0.003188077 -0.002923724 -0.0017698088 -0.0013554033 -0.0010463474 -0.0007074984 -0.006693737 -0.0074559315
-0.0007617589 -0.000835893 -0.0009928688 -0.0041151023 -0.005938064 -0.0035132857 -0.0073098037 -0.002319186
0.00058574876 0.0025221626 -0.0009269512 -5.8642065e-05 -0.002338134 0.000928593 0.00072340306 0.0022050687
0.0022670808 -0.002200062 0.0002643079 -0.0023816393 -0.00037062707 -8.577778e-05 0.0025013683 -0.00020915316
-0.00051859143 0.001383043 6.904513e-05 0.0007388741 0.002161172 0.0010715183 -0.00065415923 0.00027199564
-0.0018614433 -0.0027169809 -0.0019292298 0.0005943119 4.1435414e-06 -0.0019171756 -0.00031729494 0.00031282127
2.5687077e-05 0.001040213 1.9171632e-05 -0.00095271866 -0.0014992306 0.0006645292 0.0018931858 -0.0012239147
-0.0023694097 -0.0022431465 -0.0031536825 -0.000986674 0.002149048 -0.0011483905 -0.0007039021 -5.0834115e-05
-0.0019277132 0.0011444105 0.0018545402 0.00018907126 0.0006857872 0.0005568812 0.00028271513 -0.0026683083
0.0013574504 0.00020955977 -0.0008392658 -0.0002653962 -0.0017966584 0.00090820494 0.0033113828 -0.0009204897
-0.0003424036 -0.002706767 -0.004206457 -0.002402733 -0.0024254485 -0.0032415646 -0.004017355 -0.0052346434
-0.005626913 -0.009031558 -0.0031027214 -0.00588199 -0.0014127227 -0.0023545388 -0.005758525 -0.00042550894
-0.004268157 -0.0020741774 -0.00055590336 -0.0006426873 -0.0024117262 -0.0018115153 -0.0038418905 -0.0003427391
-0.0051499666 -0.0057119047 -0.0038368427 -0.0006205095 -0.0009292227 -0.0054977173 -0.0013980836 -0.002709105
-0.00043184825 -0.0010227703 -0.00034177766 -0.0007644747 -0.004012753 -0.0027475907 -0.004694646 -0.003888608
-0.0042209257 -0.0018685985 -0.005169588 -0.00080030004 -0.00211624 -0.004449618 -0.0011107419 -0.00064566755
-0.003139007 -0.0029355313 -0.0017519258 -0.0013751609 -0.0010818769 -0.0007242092 -0.0067325463 -0.0075554964
-0.00076066854 -0.00084674224 -0.0010092608 -0.004133338 -0.0059918514 -0.0035403627 -0.007229163 -0.0023528025
00000000: 6760 b3b9 405e 31bb 7fd5 89bb 1b62 1dbb
00000010: fef1 1ebb cf74 54bb 8da7 83bb 967e abbb
00000020: 5254 b8bb 8cee 13bc 863e 4bbb 5ab3 c0bb
00000030: f11c b9ba 2738 1abb c8a2 bcbb bef4 deb9
00000040: bcd2 8bbb d4e5 07bb 02aa 11ba b774 28ba
00000050: d926 1ebb b86b edba 5db1 7bbb 9298 b3b9
00000060: 8fbe a8bb 501d bbbb c850 7bbb d29e 22ba
00000070: 4a9c 73ba d320 b4bb fe15 b7ba 0181 31bb
00000080: 3660 e2b9 dc0b 86ba 5008 b3b9 532f 48ba
00000090: 0d79 83bb dcde 33bb a9c4 99bb 2bd1 7ebb
000000a0: f748 8abb 9ac8 f4ba 9452 a9bb abc3 51ba
000000b0: 97ad 0abb 83cc 91bb 3498 91ba d935 29ba
000000c0: 2fc9 4dbb 4a5e 40bb 51a5 e5ba 9d35 b4ba
000000d0: b4bc 8dba 43da 3dba b38c dcbb 9f81 f7bb
000000e0: e74e 47ba d8ef 5dba 9541 84ba e56f 87bb
000000f0: 6b4c c4bb 48f0 67bb 6fbe ecbb 7725 1abb
00000100: 2e63 aeb9 8a92 2fbb 8885 89bb ce7d 1abb
00000110: 0665 21bb 4337 54bb b9df 84bb 5152 abbb
00000120: 7dc2 b9bb 4798 11bc 0f8b 46bb 7a19 bfbb
00000130: d642 b7ba 8442 17bb 58e4 bdbb 60e3 d5b9
00000140: 46d1 89bb a0d8 06bb 9788 11ba 65fc 26ba
00000150: 31a6 20bb 134d eeba ed3d 78bb d29d b1b9
00000160: d6fc a8bb c284 babb 3911 79bb 1d79 1dba
00000170: f5c2 71ba f90a b3bb cf81 adba 2909 2ebb
00000180: 6957 dcb9 e812 86ba f8c1 a5b9 ed5b 39ba
00000190: 6547 84bb 582a 2ebb 1ece 97bb 3141 7dbb
000001a0: 67e0 88bb 5094 efba 0a42 acbb 97c3 50ba
000001b0: e959 0abb 784f 90bb 16b3 91ba d35d 27ba
000001c0: 0eef 50bb f39b 3fbb eef8 e7ba caa7 b1ba
000001d0: 9825 89ba 6a77 39ba 2357 dbbb e350 f4bb
000001e0: c6b0 47ba d41f 5bba 2623 82ba fbd7 86bb
000001f0: 1794 c2bb 273f 66bb 1487 efbb 7cfd 17bb
00000200: ef8c 193a de4a 253b a4fe 72ba 70f6 75b8
00000210: 613b 19bb d26c 733a c2a2 3d3a ea82 103b
00000220: 4e93 143b ea2e 10bb ce92 8a39 4715 1cbb
00000230: b950 c2b9 98e3 b3b8 ffed 233b 2050 5bb9
00000240: 15f2 07ba 3947 b53a 52cc 9038 00b1 413a
00000250: 73a2 0d3b 3072 8c3a e27b 2bba a39a 8e39
00000260: acfb f3ba 600f 32bb 36de fcba 99cb 1b3a
00000270: c008 8b36 bd49 fbba 9b5a a6b9 2902 a439
00000280: 947a d737 c257 883a c4d2 a037 debf 79ba
00000290: d581 c4ba cd33 2e3a c624 f83a c36b a0ba
000002a0: 1948 1bbb c101 13bb 03ae 4ebb 4953 81ba
000002b0: 0bd7 0c3b 9785 96ba 1286 38ba b736 55b8
000002c0: 52ab fcba 0b00 963a 0b14 f33a 6e41 4639
000002d0: 66c6 333a aafb 113a 6239 9439 c9de 2ebb
000002e0: 7aec b13a 46bd 5b39 2d02 5cba e024 8bb9
000002f0: da7d ebba 9a14 6e3a c903 593b 054d 71ba
00000300: a284 b3b9 0464 31bb 52d6 89bb 2c77 1dbb
00000310: 46f4 1ebb 6e70 54bb 04a4 83bb 5f87 abbb
00000320: f861 b8bb 1af9 13bc 0757 4bbb b5bd c0bb
00000330: 1c2b b9ba 9b4e 1abb 02b2 bcbb d816 dfb9
00000340: e5db 8bbb ecee 07bb 0bba 11ba 047a 28ba
00000350: 0d0e 1ebb 5e70 edba 3ac8 7bbb aab1 b3b9
00000360: 0dc1 a8bb ee2a bbbb 8a73 7bbb b0a9 22ba
00000370: 1497 73ba 3226 b4bb e73f b7ba 3d8b 31bb
00000380: b169 e2b9 7a0e 86ba 9f30 b3b9 0767 48ba
00000390: 697d 83bb ec10 34bb 8cd5 99bb 04d8 7ebb
000003a0: b14f 8abb c3eb f4ba a665 a9bb 3acb 51ba
000003b0: 9eb0 0abb 1ace 91bb 5096 91ba 0442 29ba
000003c0: ccb7 4dbb 0b62 40bb e0a0 e5ba be3e b4ba
000003d0: c4cd 8dba dbd8 3dba b19c dcbb 1994 f7bb
000003e0: 9a67 47ba e9f7 5dba 2c49 84ba f470 87bb
000003f0: 4b57 c4bb 6e05 68bb 9de2 ecbb 7a31 1abb

lstm.bias_hh_l0 f4 [256]
-0.00034213404 -0.0027064234 -0.004206359 -0.0024014777 -0.0024253125 -0.0032418256 -0.0040177763 -0.0052335975
-0.0056252843 -0.009029042 -0.0031012609 -0.005880755 -0.0014123004 -0.0023532005 -0.0057567097 -0.00042525525
-0.004267065 -0.0020736356 -0.00055566465 -0.00064260827 -0.0024132042 -0.0018113768 -0.0038405277 -0.00034255214
-0.0051496765 -0.005710282 -0.003834771 -0.0006203479 -0.0009293003 -0.0054970775 -0.0013968343 -0.002708495
-0.00043177762 -0.0010226922 -0.00034147722 -0.0007636444 -0.004012233 -0.0027446067 -0.004692633 -0.0038881996
-0.0042201243 -0.0018675484 -0.005167315 -0.00080018764 -0.002116063 -0.0044494285 -0.0011107981 -0.00064548536
-0.0031400446 -0.0029353078 -0.0017520583 -0.0013748887 -0.0010813684 -0.00072423014 -0.00673064 -0.007553293
-0.0007603003 -0.00084662205 -0.0010090343 -0.004133213 -0.005990554 -0.0035391022 -0.0072248466 -0.0023520866
-0.0003326176 -0.002679022 -0.0041968264 -0.0023573523 -0.0024626856 -0.0032381578 -0.00405499 -0.0052283173
-0.0056689396 -0.0088864025 -0.0030295292 -0.0058318945 -0.0013981711 -0.0023080423 -0.005795043 -0.00040795933
-0.0042058546 -0.0020575896 -0.00055516674 -0.0006370007 -0.0024513118 -0.0018180935 -0.0037878708 -0.0003387762
-0.0051570935 -0.005692097 -0.003800465 -0.0006007119 -0.0009222473 -0.0054639555 -0.0013237533 -0.0026555753
-0.00042026796 -0.0010229023 -0.00031615797 -0.0007070888 -0.004036831 -0.002657555 -0.0046327254 -0.003864359
-0.0041771415 -0.0018278464 -0.005256896 -0.0007963715 -0.0021110713 -0.0044040056 -0.0011115997 -0.00063845253
-0.0031880746 -0.0029237235 -0.0017698088 -0.0013554032 -0.0010463478 -0.0007074983 -0.006693737 -0.0074559315
-0.00076175854 -0.00083589327 -0.0009928688 -0.004115102 -0.005938063 -0.0035132857 -0.007309802 -0.0023191853
0.0005402971 0.0025104494 -0.0009314285 -0.00015266024 -0.0023903823 0.00090250105 0.0008132342 0.0022561483
0.0022096885 -0.00228329 0.00025848125 -0.0024283181 -0.0002644462 -8.0499594e-05 0.0026013188 -0.00030890096
-0.00068007346 0.0012912061 0.00011932914 0.00048691538 0.002402265 0.001179894 -0.00071565196 0.00013625038
-0.0017313145 -0.00265701 -0.0018666218 0.00060431135 0.00020947409 -0.0018558172 -0.0004009789 0.0003009522
-0.00012186347 0.0010311111 0.00012688035 -0.00078685133 -0.0014903807 0.000487695 0.0017807196 -0.0011992044
-0.002451289 -0.0022959895 -0.0032231912 -0.0010987805 0.0021119392 -0.0011533155 -0.00072747417 -2.9999603e-05
-0.0018671163 0.0011694063 0.0018193536 0.00023452123 0.0006255494 0.0004333895 0.000113054746 -0.0024146552
0.0013828706 0.00023329511 -0.00080973055 -0.00024568962 -0.0018136963 0.0009785625 0.003241299 -0.0009217129
-0.0003424036 -0.002706767 -0.004206457 -0.002402733 -0.0024254469 -0.003241565 -0.004017355 -0.0052346406
-0.005626914 -0.009031558 -0.0031027214 -0.005881991 -0.001412723 -0.0023545388 -0.005758525 -0.0004255094
-0.004268157 -0.0020741774 -0.000555903 -0.0006426874 -0.002411724 -0.0018115155 -0.0038418905 -0.0003427391
-0.0051499684 -0.0057119047 -0.0038368425 -0.0006205095 -0.000929223 -0.005497717 -0.0013980847 -0.0027091054
-0.0004318482 -0.0010227703 -0.00034177827 -0.0007644753 -0.0040127537 -0.0027475907 -0.004694646 -0.0038886077
-0.0042209257 -0.0018685999 -0.00516959 -0.00080029987 -0.0021162399 -0.00444962 -0.0011107419 -0.00064566836
-0.0031390039 -0.0029355313 -0.0017519258 -0.0013751606 -0.0010818768 -0.0007242092 -0.0067325463 -0.0075554946
-0.00076066854 -0.00084674224 -0.0010092608 -0.0041333386 -0.0059918505 -0.0035403627 -0.0072291647 -0.0023528014
00000000: 7460 b3b9 405e 31bb 7fd5 89bb 1c62 1dbb
00000010: fef1 1ebb cf74 54bb 8da7 83bb 997e abbb
00000020: 4e54 b8bb 8cee 13bc 863e 4bbb 59b3 c0bb
00000030: f01c b9ba 2738 1abb c8a2 bcbb cbf4 deb9
00000040: bcd2 8bbb d5e5 07bb 06aa 11ba b674 28ba
00000050: d926 1ebb b86b edba 5db1 7bbb 9298 b3b9
00000060: 9ebe a8bb 511d bbbb c850 7bbb d89e 22ba
00000070: 4a9c 73ba d420 b4bb fb15 b7ba 0181 31bb
00000080: 3660 e2b9 db0b 86ba 4c08 b3b9 4f2f 48ba
00000090: 0d79 83bb dcde 33bb a9c4 99bb 2ad1 7ebb
000000a0: f848 8abb 87c8 f4ba 9452 a9bb afc3 51ba
000000b0: a5ad 0abb 83cc 91bb 3398 91ba ca35 29ba
000000c0: 35c9 4dbb 4b5e 40bb 52a5 e5ba 9c35 b4ba
000000d0: b4bc 8dba 43da 3dba b38c dcbb 9d81 f7bb
000000e0: e44e 47ba d8ef 5dba 9341 84ba e76f 87bb
000000f0: 694c c4bb 48f0 67bb 68be ecbb 7725 1abb
00000100: 2e63 aeb9 8892 2fbb 8885 89bb cf7d 1abb
00000110: 0265 21bb 4637 54bb b9df 84bb 4e52 abbb
00000120: 83c2 b9bb 4698 11bc 118b 46bb 7a19 bfbb
00000130: d642 b7ba 8642 17bb 58e4 bdbb 60e3 d5b9
00000140: 44d1 89bb a0d8 06bb 9c88 11ba 65fc 26ba
00000150: 30a6 20bb 184d eeba ed3d 78bb c69d b1b9
00000160: d6fc a8bb c584 babb 3911 79bb 1879 1dba
00000170: f8c2 71ba fb0a b3bb ca81 adba 2909 2ebb
00000180: 6957 dcb9 e812 86ba 01c2 a5b9 ed5b 39ba
00000190: 6547 84bb 602a 2ebb 1ece 97bb 3041 7dbb
000001a0: 67e0 88bb 5994 efba 0a42 acbb 96c3 50ba
000001b0: e659 0abb 7a4f 90bb 19b3 91ba d35d 27ba
000001c0: 04ef 50bb f19b 3fbb eef8 e7ba c9a7 b1ba
000001d0: 9b25 89ba 6877 39ba 2357 dbbb e350 f4bb
000001e0: c0b0 47ba d91f 5bba 2623 82ba fad7 86bb
000001f0: 1594 c2bb 273f 66bb 1087 efbb 79fd 17bb
00000200: b9a2 0d3a 5a86 243b 1c2b 74ba 6c13 20b9
00000210: f6a7 1cbb d295 6c3a 392f 553a e3db 133b
00000220: 6cd0 103b 40a3 15bb c484 8739 6b24 1fbb
00000230: 5ea5 8ab9 e4d1 a8b8 e37a 2a3b fcf3 a1b9
00000240: f546 32ba b03d a93a 5840 fa38 ad48 ff39
00000250: 526f 1d3b aca6 9a3a 979a 3bba 6fde 0e39
00000260: 46ed e2ba 3b21 2ebb 6fa9 f4ba a66a 1e3a
00000270: 46a6 5b39 e43e f3ba 7a3a d2b9 1fc9 9d39
00000280: f490 ffb8 5926 873a 2f0b 0539 b344 4eba
00000290: e158 c3ba 51b1 ff39 0967 e93a 9f2e 9dba
000002a0: cea5 20bb 5078 16bb 2d3c 53bb f504 90ba
000002b0: 7668 0a3b d92a 97ba f7b3 3eba a8a7 fbb7
000002c0: 07ba f4ba c446 993a 6077 ee3a d0e9 7539
000002d0: e9fb 233a 8e38 e339 ce17 ed38 313f 1ebb
000002e0: 7041 b53a aea0 7439 1944 54ba e7cf 80b9
000002f0: 8db9 edba 1c43 803a f96b 543b 1b9f 71ba
00000300: a284 b3b9 0464 31bb 52d6 89bb 2c77 1dbb
00000310: 3ff4 1ebb 7070 54bb 04a4 83bb 5987 abbb
00000320: fa61 b8bb 1af9 13bc 0757 4bbb b7bd c0bb
00000330: 1e2b b9ba 9b4e 1abb 02b2 bcbb e816 dfb9
00000340: e5db 8bbb ecee 07bb 05ba 11ba 057a 28ba
00000350: 040e 1ebb 6070 edba 3ac8 7bbb aab1 b3b9
00000360: 11c1 a8bb ee2a bbbb 8973 7bbb b0a9 22ba
00000370: 1a97 73ba 3126 b4bb f03f b7ba 3f8b 31bb
00000380: af69 e2b9 7a0e 86ba b430 b3b9 1267 48ba
00000390: 6b7d 83bb ec10 34bb 8cd5 99bb 03d8 7ebb
000003a0: b14f 8abb cfeb f4ba aa65 a9bb 37cb 51ba
000003b0: 9db0 0abb 1ece 91bb 5096 91ba 1242 29ba
000003c0: bfb7 4dbb 0b62 40bb e0a0 e5ba bc3e b4ba
000003d0: c3cd 8dba dbd8 3dba b19c dcbb 1594 f7bb
000003e0: 9a67 47ba e9f7 5dba 2c49 84ba f570 87bb
000003f0: 4957 c4bb 6e05 68bb a1e2 ecbb 7531 1abb

lstm.weight_ih_l0_reverse f4 [256, 8]
-0.00025884883 -0.00025581784 -0.00026481433 -0.0002579997 -0.0002557127 -0.00025935433 -0.00025987186 -0.0002638654
-0.00030054568 -0.0002996559 -0.00030919287 -0.00029970164 -0.00029834243 -0.00029876365 -0.00030308805 -0.00030404938
-0.00047303288 -0.00047411435 -0.0004748848 -0.00047217077 -0.00047463473 -0.00047672327 -0.00047351271 -0.0004714213
-0.00030775103 -0.0003125314 -0.00030612168 -0.0003002581 -0.0003031259 -0.00031233334 -0.00030016762 -0.00030158574
-0.0001642286 -0.00016315724 -0.00017041934 -0.00016219025 -0.00016477217 -0.00015943458 -0.000166114 -0.00016164742
-0.0009768339 -0.0009932038 -0.00096802437 -0.00097415893 -0.000974472 -0.0009926966 -0.0009628885 -0.00097582786
-0.00020680476 -0.0002076081 -0.00021271822 -0.00020846809 -0.00020606449 -0.00020739029 -0.00020939419 -0.00020640431
-0.0005387558 -0.00053553074 -0.0005363365 -0.00053808704 -0.0005354675 -0.0005387944 -0.00053895166 -0.0005304128
-0.0003761345 -0.0003746528 -0.000379937 -0.00037524157 -0.00037788262 -0.0003736376 -0.00037560082 -0.00037209538
0.00014860302 0.0001575654 0.00015074559 0.00015804241 0.00015883657 0.00016023459 0.00015792083 0.00016092125
-0.00073141285 -0.0007234098 -0.00073419366 -0.00072579127 -0.0007211901 -0.0007256204 -0.0007278421 -0.0007199029
-0.00036147778 -0.0003525725 -0.0003602692 -0.00035442636 -0.00034956387 -0.00035240268 -0.00035504796 -0.0003485815
-2.3242963e-05 -3.6488815e-05 -2.0485524e-05 -3.7924867e-05 -4.558496e-05 -4.6561057e-05 -3.826038e-05 -4.630286e-05
-0.00023731845 -0.00023753622 -0.00024354295 -0.00023684755 -0.00023635848 -0.00023364954 -0.00023921725 -0.00023541239
-0.00016695632 -0.00016984352 -0.0001699695 -0.00017282095 -0.0001723522 -0.00017496556 -0.00017264149 -0.00017165545
-0.00053366285 -0.00053587055 -0.00053814915 -0.00053538446 -0.00054019614 -0.0005405936 -0.00053776486 -0.0005346682
-0.00022044004 -0.00021219217 -0.00021671942 -0.00021333319 -0.00020855616 -0.00021027972 -0.00021282984 -0.00020670296
1.650544e-05 1.2414048e-05 1.4567256e-05 1.27642525e-05 1.2526843e-05 1.3033884e-05 1.4063109e-05 1.0886309e-05
-0.00043882016 -0.00043562005 -0.0004206295 -0.000426522 -0.00041312215 -0.0004162023 -0.00041190098 -0.00040505538
-0.00028127676 -0.00028397216 -0.00028417117 -0.00027799397 -0.00027869453 -0.0002821416 -0.00027948117 -0.00027833667
-0.00060579245 -0.00059725146 -0.00059104624 -0.00059001776 -0.0005762972 -0.000583378 -0.00058069435 -0.00057234534
-6.6990004e-05 -6.701306e-05 -7.053824e-05 -6.669322e-05 -6.657415e-05 -6.835332e-05 -6.585336e-05 -6.552703e-05
-0.0001348961 -0.00013469928 -0.00012923402 -0.00012967338 -0.00012598604 -0.00012992097 -0.0001239792 -0.00012044456
-1.8537754e-05 -1.2733189e-05 -1.6692695e-05 -1.2510591e-05 -1.0334528e-05 -1.1214293e-05 -1.19683955e-05 -1.024705e-05
-3.2732318e-05 -2.632648e-05 -3.4167108e-05 -2.9221741e-05 -3.1290805e-05 -3.3754754e-05 -2.8981485e-05 -2.7902242e-05
-2.978294e-05 -3.0642535e-05 -3.005582e-05 -3.2040407e-05 -3.0224153e-05 -3.2517433e-05 -3.1183423e-05 -3.0832496e-05
-0.0003266746 -0.00032563214 -0.0003367504 -0.00031772378 -0.00031719232 -0.00032260764 -0.00032465736 -0.00032594355
-0.00022805703 -0.00022507254 -0.00021563847 -0.00021966835 -0.0002118055 -0.00021133352 -0.00021086163 -0.0002050098
-0.00022889797 -0.00023070996 -0.00023494862 -0.00023043534 -0.00022997639 -0.00022719719 -0.0002315156 -0.00022942384
-0.0006632492 -0.0006593331 -0.0006623209 -0.00066031463 -0.0006588455 -0.0006620097 -0.00066157425 -0.0006542238
-0.0010321125 -0.0010189577 -0.0010331132 -0.0010144134 -0.0010039042 -0.0010125177 -0.0010139236 -0.0010090319
-0.00067942694 -0.0006802044 -0.000699715 -0.0006750524 -0.0006709864 -0.0006707586 -0.00068241305 -0.00067741843
00000000: 1ab6 87b9 4a1f 86b9 c7d6 8ab9 2244 87b9
00000010: 2d11 86b9 f3f9 87b9 693f 88b9 6a57 8ab9
00000020: 8f92 9db9 221b 9db9 2a1b a2b9 4621 9db9
00000030: d86a 9cb9 61a3 9cb9 cae7 9eb9 d168 9fb9
00000040: 6601 f8b9 8d92 f8b9 f5f9 f8b9 b08d f7b9
00000050: 65d8 f8b9 b7f0 f9b9 cd41 f8b9 1929 f7b9
00000060: a559 a1b9 41db a3b9 f57e a0b9 f66b 9db9
00000070: dfec 9eb9 acc0 a3b9 d15f 9db9 271e 9eb9
00000080: c734 2cb9 3015 2bb9 98b2 32b9 9d11 2ab9
00000090: b1c6 2cb9 e52d 27b9 e32e 2eb9 e67f 29b9
000000a0: 1b09 80ba 642e 82ba 04c3 7dba b35e 7fba
000000b0: b573 7fba 5f1d 82ba 5a6a 7cba b3ce 7fba
000000c0: bbd9 58b9 60b1 59b9 1d0d 5fb9 3a98 5ab9
000000d0: 0413 58b9 e876 59b9 d390 5bb9 3c6e 58b9
000000e0: 4a3b 0dba dc62 0cba ef98 0cba 690e 0dba
000000f0: 9e5e 0cba e13d 0dba 6f48 0dba 670b 0bba
00000100: eb33 c5b9 0c6d c4b9 4832 c7b9 12bc c4b9
00000110: 8c1e c6b9 cae4 c3b9 4aec c4b9 cc15 c3b9
00000120: 52d2 1b39 2438 2539 7611 1e39 30b8 2539
00000130: 5e8d 2639 a504 2839 8d97 2539 f8bc 2839
00000140: 49bc 3fba 36a3 3dba e776 40ba 0743 3eba
00000150: 400e 3dba 9037 3eba a8cc 3eba deb7 3cba
00000160: ba84 bdb9 7bd9 b8b9 83e2 bcb9 4dd2 b9b9
00000170: ab45 b7b9 b0c2 b8b9 bb25 bab9 d1c1 b6b9
00000180: e2f9 c2b7 910b 19b8 54d8 abb7 8411 1fb8
00000190: 7a32 3fb8 8e4a 43b8 c579 20b8 5135 42b8
000001a0: b0d8 78b9 2513 79b9 905f 7fb9 485a 78b9
000001b0: ffd6 77b9 d2ff 74b9 64d6 7ab9 08d9 76b9
000001c0: ff10 2fb9 0618 32b9 d739 32b9 4537 35b9
000001d0: 71b9 34b9 f676 37b9 1907 35b9 69fe 33b9
000001e0: 82e5 0bba aa79 0cba 9412 0dba 0b59 0cba
000001f0: f39b 0dba 9fb6 0dba caf8 0cba fa28 0cba
00000200: ec25 67b9 e77f 5eb9 2d3f 63b9 31b2 5fb9
00000210: deaf 5ab9 887e 5cb9 132b 5fb9 67be 58b9
00000220: 2a75 8a37 ee45 5037 e365 7437 0c26 5637
00000230: 622a 5237 1bac 5a37 98f0 6b37 57a4 3637
00000240: 7211 e6b9 ef63 e4b9 f087 dcb9 d09e dfb9
00000250: 5198 d8b9 ba35 dab9 6af4 d7b9 9d5d d4b9
00000260: 5478 93b9 19e2 94b9 cffc 94b9 b8bf 91b9
00000270: bf1d 92b9 68ec 93b9 5487 92b9 b7ed 91b9
00000280: 0bce 1eba de90 1cba 71f0 1aba 6cab 1aba
00000290: a712 17ba d6ed 18ba bd39 18ba 7209 16ba
000002a0: fc7c 8cb8 5d89 8cb8 eeed 93b8 a6dd 8bb8
000002b0: ba9d 8bb8 e958 8fb8 c11a 8ab8 8e6b 89b8
000002c0: e572 0db9 103e 0db9 fe82 07b9 eff8 07b9
000002d0: 1f1b 04b9 653b 08b9 6a00 02b9 2e97 fcb8
000002e0: 8681 9bb7 a1a0 55b7 4a07 8cb7 94e4 51b7
000002f0: 7662 2db7 0625 3cb7 decb 48b7 bfea 2bb7
00000300: 0f4a 09b8 afd7 dcb7 a74e 0fb8 3621 f5b7
00000310: 3f3e 03b8 e493 0db8 441d f3b7 9c0f eab7
00000320: 60d6 f9b7 2c86 00b8 6220 fcb7 2063 06b8
00000330: e089 fdb7 5463 08b8 f2ca 02b8 2452 01b8
00000340: 8645 abb9 9bb9 aab9 e08d b0b9 2a94 a6b9
00000350: d54c a6b9 aa23 a9b9 c636 aab9 67e3 aab9
00000360: 9822 6fb9 7301 6cb9 031d 62b9 c656 66b9
00000370: 1b18 5eb9 6999 5db9 bd1a 5db9 e6f7 56b9
00000380: 5504 70b9 bcea 71b9 8a5c 76b9 04a1 71b9
00000390: d125 71b9 c83b 6eb9 ffc2 72b9 7e91 70b9
000003a0: e6dd 2dba 18d7 2cba 9a9f 2dba f718 2dba
000003b0: 60b6 2cba b88a 2dba 7f6d 2dba 3780 2bba
000003c0: f347 87ba 8c8e 85ba 8769 87ba 11f6 84ba
000003d0: 6f95 83ba 75b6 84ba a1e5 84ba 7e41 84ba
000003e0: 921b 32ba bf4f 32ba 146d 37ba 00f6 30ba
000003f0: 23e5 2fba d9d5 2fba f7e3 32ba c894 31ba

lstm.weight_hh_l0_reverse f4 [256, 64]
1.680684e-39 1.032373e-38 -8.04129e-39 1.3011236e-38 4.98897e-39 -6.094471e-39 8.67603e-40 1.3476668e-38
-1.1629824e-38 1.0544468e-38 5.127877e-38 1.869097e-38 -8.22486e-39 -2.6565648e-38 3.055531e-39 -1.5307578e-38
1.8436856e-38 -2.1053847e-38 -2.5688985e-38 -4.418025e-38 1.4275187e-38 6.063538e-39 -9.196251e-39 -5.004042e-39
9.446038e-39 -8.859967e-39 -1.9774221e-38 8.854216e-39 6.737673e-39 -6.319462e-39 1.097544e-38 -5.836988e-39
-1.8973333e-38 1.3396241e-38 -1.2794046e-38 -4.844107e-39 2.34051e-39 -1.651873e-39 1.3389054e-38 1.1483052e-38
-1.3215308e-38 -4.807104e-38 -2.0312146e-38 -9.97095e-39 -1.681493e-38 3.4438e-41 -6.166537e-39 -2.621408e-38
2.6313044e-38 3.570716e-39 -2.3969255e-38 -2.4031092e-38 -1.0689065e-38 5.3604946e-38 8.479399e-39 4.141556e-39
-2.1181177e-38 6.2741177e-38 -1.6762366e-38 3.597068e-38 -4.272593e-39 5.862555e-39 3.572016e-39 -7.870892e-39
1.2367294e-38 -1.229265e-38 -1.4381846e-38 3.652501e-39 7.753006e-39 5.177988e-39 -2.4923298e-38 -2.3738764e-38
1.0725433e-38 -1.4622908e-38 3.668821e-39 -7.23205e-40 -5.882146e-39 1.6864229e-38 1.3575707e-38 -2.3365598e-38
-2.3324445e-38 -4.403011e-39 1.0920013e-38 -1.865607e-38 -2.476763e-38 -2.3268314e-38 -7.512838e-38 1.178313e-39
-4.013602e-39 2.3991014e-38 2.3324445e-38 -2.1189908e-38 -2.3141525e-38 -6.947988e-39 1.6044792e-38 5.651846e-39
-4.525653e-39 -1.9542811e-38 -2.200401e-38 -1.8574945e-38 7.944702e-39 -1.017188e-38 2.572011e-38 -1.9131248e-38
-3.3020096e-38 6.364148e-39 1.635933e-38 1.9034109e-38 -5.492499e-39 5.180511e-39 9.288437e-39 -1.1501236e-38
-5.581058e-39 8.762312e-39 -1.5425177e-38 7.315005e-39 1.264775e-38 2.9164e-41 -1.4736355e-38 -2.4120382e-38
-8.50804e-39 1.374704e-38 -4.6835464e-38 -2.583583e-38 8.251878e-39 -1.0781557e-38 6.548444e-38 -4.703212e-39
-1.787503e-39 -1.4256774e-38 -5.365947e-39 -3.254008e-39 -2.1143828e-38 -3.3204473e-38 -4.5101553e-38 1.7840259e-38
-1.237253e-38 -4.057451e-39 1.0811812e-38 -1.955931e-38 2.512017e-38 7.010441e-39 -1.9806894e-38 -1.26324e-40
-9.72298e-39 -5.100264e-39 1.26302e-38 -2.49152e-39 -6.781994e-39 -8.650515e-39 4.610216e-39 -4.600351e-39
-5.731288e-39 -1.0736335e-38 -1.4114055e-38 9.072278e-39 2.4516846e-38 4.30718e-39 -2.51324e-40 -2.00509e-38
1.7210843e-38 -1.108534e-39 -1.0492578e-38 7.1694e-40 3.309049e-39 -1.9399727e-38 -1.3751472e-38 -7.124437e-39
-6.446679e-39 1.204793e-38 -1.9203041e-38 -2.844594e-39 1.0536306e-38 9.133114e-39 7.942631e-39 6.385234e-38
-2.374163e-38 1.4817159e-38 2.3326395e-38 -1.939187e-39 -3.099753e-39 1.4814775e-38 1.967472e-38 8.2315e-39
2.411427e-39 1.7958866e-38 2.0463917e-38 2.608546e-38 2.0548885e-38 -1.5114442e-38 9.393272e-39 -2.1526896e-38
-6.4006975e-38 -1.0169545e-38 -1.499542e-39 -2.33865e-39 5.86597e-39 1.08396e-39 -5.096562e-39 6.803223e-39
-1.9813548e-38 -9.124011e-39 -7.775842e-39 8.420852e-38 -9.179496e-39 -7.428577e-39 -2.266833e-39 -1.8196718e-38
1.463707e-38 3.739569e-38 6.393878e-39 7.243453e-38 -1.2325233e-38 -2.0812539e-38 -8.81621e-39 -2.432155e-39
-1.5350132e-38 -2.1724992e-38 6.646234e-38 2.4994008e-38 8.465772e-39 -8.704555e-39 -1.378159e-39 2.27427e-39
7.128512e-38 4.456167e-39 -1.5252695e-38 -1.4113957e-38 -2.584804e-39 1.9826596e-38 -2.2615044e-38 1.5867858e-38
3.332476e-39 -5.708593e-39 -2.358585e-38 2.3830723e-38 4.2211941e-38 -6.299173e-39 -7.31544e-39 9.88051e-39
2.0863347e-38 3.662647e-39 -6.151263e-39 -2.3183278e-38 -2.56183e-40 -8.885303e-39 -9.181016e-39 1.98556e-40
-2.44482e-40 2.0628171e-38 4.531342e-39 1.6747634e-38 1.802585e-38 2.1728086e-38 1.0111055e-38 2.144981e-38
00000000: 104d 1200 5c6a 7000 d88f 5780 08ae 8d00
00000010: 3853 3600 e85c 4280 8672 0900 78bf 9200
00000020: 38a3 7e80 b0d1 7200 1698 8b01 d286 cb00
00000030: 908f 5980 1ca3 1081 9445 2100 4daf a680
00000040: 74c2 c800 8f41 e580 38dd 0b81 488a 7081
00000050: 6a71 9b00 ad06 4200 6823 6480 3c7d 3680
00000060: b6db 6600 fc79 6080 7c52 d780 f469 6000
00000070: e45d 4900 17d0 4480 1083 7700 268f 3f80
00000080: ef99 ce80 45df 9100 9850 8b80 66bf 3480
00000090: 647c 1900 c0fc 1180 3ccb 9100 140a 7d00
000000a0: e7e6 8f80 a0dc 8281 002e dd80 f492 6c80
000000b0: 2f19 b780 0060 0000 cc25 4380 18b9 0e81
000000c0: 0843 0f01 b4e1 2600 4480 0281 74d6 0281
000000d0: c464 7480 32ed 9101 1d55 5c00 f918 2d00
000000e0: 81a4 e680 38cc aa01 a886 b680 d0d7 4301
000000f0: 4086 2e80 6bd6 3f00 54e5 2600 d8b4 5580
00000100: fcaa 8600 e8da 8580 bc9a 9c80 b0c5 2700
00000110: 3a6c 5400 2062 3800 02b2 0781 023f 0181
00000120: 25ca 7400 b83a 9f80 2ef3 2700 00e0 0780
00000130: 080d 4080 9ca2 b700 8cd3 9300 c86d fe80
00000140: 10fb fd80 cef1 2f80 8ee8 7600 8825 cb80
00000150: 0ad9 0681 985e fd80 d784 cc81 a8d4 0c00
00000160: 4ab4 2b80 989e 0201 10fb fd00 d8bc e680
00000170: 28fd fb80 2aa8 4b80 5ab6 ae00 0c8b 3d00
00000180: ae47 3180 68cd d480 3a9a ef80 6443 ca80
00000190: 9982 5600 10c3 6e80 9a08 0c01 2352 d080
000001a0: 4cc7 3381 a84c 4500 2823 b200 5a43 cf00
000001b0: dace 3b80 2869 3800 6224 6500 c43c 7d80
000001c0: b8c5 3c80 c369 5f00 1ef7 a780 42a7 4f00
000001d0: c8b8 8900 4c51 0000 f676 a080 e852 0381
000001e0: f4a4 5c80 28b1 9500 1cff 7e81 e4a9 0c81
000001f0: e1da 5900 9866 7580 fe43 b201 a436 3380
00000200: d576 1380 163e 9b80 146e 3a80 da6e 2380
00000210: 643c e680 48c8 3481 648e 7581 6243 c200
00000220: 94b9 8680 862e 2c80 efba 7500 66fb d480
00000230: 68c4 0801 4256 4c00 90ad d780 2460 0180
00000240: b6df 6980 7689 3780 dc87 8900 5821 1b80
00000250: 71d9 4980 1e32 5e80 6833 3200 e817 3280
00000260: 8068 3e80 89e8 7480 3eb0 9980 d2c9 6200
00000270: 7f7b 0501 aae6 2e00 97bc 0280 c055 da80
00000280: d468 bb00 2412 0c80 0a41 7280 89ce 0700
00000290: 4808 2400 8c3e d380 82bd 9580 0894 4d80
000002a0: b832 4680 ba30 8300 441a d180 92f9 1e80
000002b0: efba 7200 6873 6300 d37c 5600 96d2 ad01
000002c0: 0143 0181 3658 a100 8000 fe00 aa1d 1580
000002d0: dac0 2180 9151 a100 1d3d d600 13a2 5900
000002e0: 1442 1a00 038e c300 13d5 de00 d305 0e01
000002f0: eec1 df00 ea94 a480 9f48 6600 3a68 ea80
00000300: 5a3e ae81 8ebc 6e80 1d54 1080 3477 1980
00000310: f0df 3f00 a4cd 0b00 247f 3780 9e14 4a00
00000320: 1cc0 d780 085a 6380 e2ab 5480 c63c e501
00000330: b3f4 6380 dae3 5080 02af 1880 0c25 c680
00000340: 3262 9f00 fc99 4b01 889f 4500 802f c501
00000350: bc35 8680 e4a0 e280 0200 6080 dc7b 1a80
00000360: ec25 a780 7090 ec80 7eed b401 9014 0801
00000370: 212f 5c00 c2c8 5e80 bf01 0f80 bdc3 1800
00000380: 7a0e c201 fb85 3000 4f16 a680 f8af 9980
00000390: 6225 1c80 7ce4 d700 8b41 f680 22c9 ac00
000003a0: 9649 2400 3c29 3e80 e069 0081 2ebf 0101
000003b0: dcd2 6501 8897 4480 78a8 4f80 d896 6b00
000003c0: 862e e300 f8e1 2700 38fb 4280 8c71 fc80
000003d0: 22ca 0280 9cc0 6080 f0f8 6380 7e29 0200
000003e0: 84a9 0280 f39e e000 8a57 3100 975d b600
000003f0: bc48 c400 1099 ec00 8219 6e00 5891 e900

lstm.bias_ih_l0_reverse f4 [256]
-0.00074811873 -0.0007794326 -0.00081031816 -0.0014681959 -0.00022142593 -0.0015072979 -0.00038183728 -0.00080765487
-0.0014930384 -0.00019294301 -0.0011361161 -0.00072936655 -0.00073143176 -0.00021805489 -0.0005514934 -0.0006769267
-0.00054776995 -0.00013860229 -0.0010221648 -0.00073195127 -0.0011347868 -3.4295124e-05 -0.00012665166 -0.0002590126
-4.092335e-07 -0.00026076278 -0.0021554823 -0.0006736535 -0.00031580628 -0.0009426448 -0.0021898856 -0.0013874099
-7.616833e-05 -0.0010417228 -0.0011794362 -0.0009929306 -0.0009213431 -0.0007548744 -0.00037038053 -0.0005574929
-0.00052851357 -0.00034356484 -0.0011822176 -0.0023613763 -0.0020101839 -0.00068734796 -0.0011889574 -0.0038006727
-0.00048246083 -0.00032442587 -0.001506109 -0.00052392064 -0.0006065413 -0.001076079 -0.0005179094 -0.0011597902
-0.0006771294 -0.0005186667 -0.00033950922 -0.00016027101 -0.00087314955 -0.00093541335 -0.00039278928 -0.00075916713
-1.5310042e-38 -2.582878e-39 -1.5664154e-38 -4.731226e-39 2.0388369e-38 -5.5738104e-38 -2.752702e-39 -5.259191e-38
-7.840741e-39 7.440141e-38 3.865205e-38 1.4450925e-38 -2.5760633e-38 1.141621e-39 2.0369552e-38 -4.3134702e-38
1.0595515e-38 7.972042e-39 1.0841195e-38 -6.110653e-39 -1.3934725e-38 -2.046453e-39 -1.3380942e-38 -1.2636114e-38
-1.4537432e-38 7.076152e-39 -1.4204581e-38 -2.0708574e-38 7.3531343e-38 -1.0812654e-38 2.25822e-40 3.503207e-39
-1.2588865e-38 4.91092e-39 -3.218907e-39 8.09866e-40 -7.737279e-39 2.5539113e-38 3.843316e-39 -3.6828545e-38
6.616672e-39 1.845599e-38 2.0350458e-38 2.1439565e-38 -8.448944e-39 -1.6639651e-38 -2.085866e-38 7.6306856e-38
2.181874e-38 -2.3333946e-38 -1.9686476e-38 -5.788767e-39 -7.026904e-39 2.1111893e-38 -9.576364e-39 1.865223e-38
2.5561108e-38 -1.7933807e-38 5.892449e-38 1.686805e-39 -6.28617e-40 3.394718e-39 9.309095e-39 -1.9022251e-38
-8.446567e-05 -0.00010726148 -0.0009188921 -0.0019660257 0.0007556891 -0.0018068565 -0.00045247786 0.00040427435
-0.00016166644 -0.00028288 -0.000110364264 -0.00013291463 0.0013011305 0.00046045904 0.00041346048 -0.001192731
0.00011348258 0.00015556706 -0.0012148372 0.0014414984 0.0013514829 0.0009585473 0.0013411879 0.00021112183
0.000987891 0.00045646747 0.0018845951 -0.00076588866 0.00016725983 0.00010561098 0.00095358846 0.0010834057
-0.00097195985 0.00028118183 -0.0017399653 -3.748855e-05 0.0002573353 -0.0004606119 -0.0004918518 -0.00023008598
-0.00074814766 -0.000297075 0.0015583651 -0.0021064142 -0.001631324 -0.00025465875 0.0008002921 0.0011438128
0.0002661354 -0.00021941582 -0.00089173537 0.00021478193 0.0004350935 0.00028342084 0.00018740643 0.0013128611
0.00018707955 -0.0011082724 0.00091292104 -0.001116466 -0.00031633236 0.00014084543 -0.00038955163 -0.0013661642
-0.00074812555 -0.00077945867 -0.0008103248 -0.0014683449 -0.00022135561 -0.0015073699 -0.00038189755 -0.0008076267
-0.0014931918 -0.00019299658 -0.0011360955 -0.0007293634 -0.0007315384 -0.0002180182 -0.00055151776 -0.0006769435
-0.00054777105 -0.0001386469 -0.0010222112 -0.00073197955 -0.0011348152 -3.4343597e-05 -0.00012665574 -0.00025905215
-4.42094e-07 -0.0002607569 -0.002155667 -0.00067367894 -0.00031579976 -0.0009426113 -0.0021899706 -0.0013874585
-7.626318e-05 -0.0010417108 -0.0011794338 -0.0009929026 -0.00092131813 -0.00075484597 -0.0003702771 -0.0005574639
-0.00052866933 -0.0003435435 -0.0011822935 -0.0023616303 -0.0020103026 -0.0006873415 -0.0011890068 -0.0038008557
-0.00048246834 -0.00032443105 -0.0015062464 -0.00052385393 -0.0006065097 -0.001076059 -0.00051789626 -0.001159796
-0.0006771451 -0.0005186575 -0.0003394997 -0.00016027904 -0.00087313534 -0.0009356522 -0.00039278166 -0.00075915694
00000000: 661d 44ba d652 4cba 886b 54ba 7b70 c0ba
00000010: 922e 68b9 8690 c5ba 5531 c8b9 cdb8 53ba
00000020: 0eb2 c3ba bf50 4ab9 bbe9 94ba f632 3fba
00000030: 8ebd 3fba aaa5 64b9 1892 10ba c873 31ba
00000040: 3898 0fba c555 11b9 29fa 85ba 6be0 3fba
00000050: 20bd 94ba 1cd8 0fb8 cccd 04b9 15cc 87b9
00000060: a0b4 dbb4 fdb6 88b9 fe42 0dbb 1f98 30ba
00000070: cd92 a5b9 d21b 77ba 2f84 0fbb c0d9 b5ba
00000080: 90bc 9fb8 6b8a 88ba 5097 9aba 3925 82ba
00000090: 4a86 71ba c3e2 45ba a22f c2b9 b724 12ba
000000a0: f28b 0aba 7e20 b4b9 a4f4 9aba 52c1 1abb
000000b0: 4abd 03bb 242f 34ba cad6 9bba b514 79bb
000000c0: ccf2 fcb9 b417 aab9 a268 c5ba b857 09ba
000000d0: 4c00 1fba 380b 8dba 50c4 07ba 1a04 98ba
000000e0: 6381 31ba 22f7 07ba 2800 b2b9 6c0e 28b9
000000f0: 13e4 64ba 8736 75ba 49ef cdb9 d802 47ba
00000100: 2bb6 a680 0320 1c80 4a91 aa80 bc84 3380
00000110: 7a02 de00 cabb 9781 6af9 1d80 362b 8f81
00000120: cc60 5580 378a ca01 1871 5201 4d5b 9d00
00000130: 1541 0c81 606e 0c00 06ce dd00 00d9 6a81
00000140: fc5f 7300 cfce 5600 d70c 7600 048a 4280
00000150: 58bc 9780 ae48 1680 9fb4 9180 5898 8980
00000160: 724c 9e80 6f0d 4d00 98ac 9a80 147f e180
00000170: de2b c801 48bd 7580 8075 0200 8425 2600
00000180: a214 8980 a679 3500 010d 2380 94d1 0800
00000190: 6340 5480 540c 0b01 9ad9 2900 8083 4881
000001a0: 970c 4800 cbf7 c800 cc98 dd00 c974 e900
000001b0: 3800 5c80 9430 b580 7521 e380 1eba cf01
000001c0: c595 ed00 8c15 fe80 e35d d680 ba08 3f80
000001d0: 2684 4c80 5ee3 e500 0247 6880 d41a cb00
000001e0: fc2a 0b01 2848 c380 6068 a001 205e 1200
000001f0: 54d8 0680 18f7 2400 f85d 6500 4c22 cf80
00000200: 2923 b1b8 92f1 e0b8 cee1 70ba 70d8 00bb
00000210: 7019 463a 0bd4 ecba 8d3a edb9 c9f4 d339
00000220: 0185 29b9 834f 94b9 5d73 e7b8 005f 0bb9
00000230: b28a aa3a c469 f139 bac5 d839 6955 9cba
00000240: 7ffd ed38 b71f 2339 2c3b 9fba a9f0 bc3a
00000250: 3e24 b13a 0547 7b3a ccca af3a 9660 5d39
00000260: 1f7c 813a 0752 ef39 8504 f73a ebc5 48ba
00000270: 7862 2f39 777b dd38 3dfa 793a 1001 8e3a
00000280: 1fcb 7eba 966b 9339 8c0f e4ba 063d 1db8
00000290: f6ea 8639 487e f1b9 9eef 00ba 3c43 71b9
000002a0: 571f 44ba bbc0 9bb9 0e42 cc3a c40b 0abb
000002b0: 26d2 d5ba b883 85b9 b2ca 513a fdeb 953a
000002c0: 1788 8b39 fc12 66b9 59c3 69ba 1637 6139
000002d0: 431d e439 1a98 9439 8882 4439 4f14 ac3a
000002e0: c92a 4439 7343 91ba 1851 6f3a 6256 92ba
000002f0: 69d9 a5b9 e8af 1339 bc3c ccb9 dd10 b3ba
00000300: db1d 44ba 9654 4cba fa6b 54ba 7b75 c0ba
00000310: b21b 68b9 f192 c5ba 6c39 c8b9 e9b6 53ba
00000320: 34b7 c3ba 205f 4ab9 0ae9 94ba c032 3fba
00000330: b6c4 3fba d19b 64b9 bb93 10ba e974 31ba
00000340: 4b98 0fba be61 11b9 b7fb 85ba 51e2 3fba
00000350: 14be 94ba 280c 10b8 e4ce 04b9 64d1 87b9
00000360: f058 edb4 33b6 88b9 1746 0dbb d499 30ba
00000370: ed91 a5b9 9319 77ba 9c85 0fbb 62db b5ba
00000380: 7cef 9fb8 048a 88ba 3b97 9aba 4824 82ba
00000390: 9d84 71ba dbe0 45ba c021 c2b9 c522 12ba
000003a0: 6696 0aba a11d b4b9 30f7 9aba 95c5 1abb
000003b0: 48bf 03bb b52e 34ba 73d8 9bba c717 79bb
000003c0: cef3 fcb9 6618 aab9 3e6d c5ba 3e53 09ba
000003d0: 2dfe 1eba 8c0a 8dba 6ec3 07ba 4c04 98ba
000003e0: 7082 31ba 84f6 07ba e1fe b1b9 9410 28b9
000003f0: 1fe3 64ba 8e46 75ba 43ee cdb9 2902 47ba
