bilstm_best_trial_1.pth (torch, 562783 bytes, 18 tensors)

lstm.weight_ih_l0 f4 [256, 8]
00000000: 5273 50ae 87d2 46ae 1a72 58ae 40d5 85ae
00000010: dc00 6dae c38c 83ae 6514 7fae 7467 4dae
00000020: c3d4 fbb0 db40 e7b0 9f97 e2b0 6425 07b1
00000030: 3e8f 07b1 8b3e 0bb1 ebe8 fdb0 aa28 0bb1
00000040: 42f4 9933 e9d0 9733 747c a933 1292 9733
00000050: e893 9a33 db58 9d33 f839 ab33 fdd4 a233
00000060: a813 a3b1 ed93 9eb1 40e3 a3b1 709f a1b1
00000070: 5d02 a2b1 30ed 9fb1 1731 a2b1 fa1d 9eb1
00000080: 3c00 13b1 3813 0db1 ad7a 0bb1 0234 11b1
00000090: 36a4 19b1 6cc3 16b1 b225 1cb1 a7e5 1cb1
000000a0: cffd 1bb1 3ac8 1cb1 e717 1ab1 85cd 1cb1
000000b0: 10e0 1cb1 89de 1db1 978f 21b1 1b8a 1eb1
000000c0: af96 c1b0 0068 c1b0 25e4 beb0 292a c3b0
000000d0: 7500 c5b0 d404 c7b0 2d2e c0b0 f2d0 c5b0
000000e0: 3458 41ac 2cc0 42ac fe55 3fac 1bf0 40ac
000000f0: 0265 3aac c6da 42ac 8210 41ac a7fd 40ac
00000100: d69b 392e 083b 412e 2d12 202e 0ac4 242e
00000110: fbbb 162e 339f 132e 9e57 402e 2fcc 2c2e
00000120: 1cb0 18b0 1b30 18b0 cce5 16b0 2757 1ab0
00000130: 36cf 1bb0 5f9f 1bb0 eac3 1ab0 a4ed 1bb0
00000140: 6017 cb2b d433 deac 4843 552c 9c0e 86ad
00000150: 10f9 b2ad 3191 84ad 1c36 f6ac 96f1 5bad
00000160: 2046 dcad cc65 a0ad 0ad2 fdac 4732 dbad
00000170: a21b 36ad 7542 b5ad e34a aead 44bd c9ad
00000180: 20c6 33ad 1b6d 3aad 5a79 62ad 4c98 4ead
00000190: 56e2 4aad ddb7 39ad 6f0e 3dad 1730 3ead
000001a0: de73 16b1 7a60 23b1 ac37 1eb1 4a84 1fb1
000001b0: ebb4 1db1 c592 16b1 3321 22b1 db31 21b1
000001c0: 1e75 45ad fafe b8ab d0e9 c02a d2e7 27ad
000001d0: 52b0 91ad f63a 44ad 1e62 8cac 96a4 2a2c
000001e0: e7ea 38b2 deaf 40b2 5f9f 29b2 bc4f 75b2
000001f0: 8e60 61b2 35be 57b2 106c 65b2 ae54 4ab2
00000200: a916 b1ae 6ccb a7ae aa6f 95ae fac2 a5ae
00000210: 23a5 b2ae 949c b5ae 8a40 b0ae 3ae2 90ae
00000220: 2383 c0af 17a8 9caf a8a6 392f 9e99 052f
00000230: d87d 08af 9ccc c2af 4030 c9af b8e2 adaf
00000240: 8600 c2b2 e0aa c1b2 cec1 beb2 4231 c1b2
00000250: 9055 c6b2 9f94 c4b2 0117 c4b2 e7d8 c7b2
00000260: a30b cdb1 ca66 ceb1 7145 d0b1 7ff9 cab1
00000270: 71b4 cdb1 e011 d0b1 9fc6 cfb1 1944 d1b1
00000280: 55ad 6fae 6038 d6ad ee27 382e 8d4d 3eae
00000290: a5f2 76ae 2fc6 7eae 9bd0 88ae 4bec 89ae
000002a0: d62f cbb0 66e4 ccb0 af40 ceb0 ffcf cfb0
000002b0: 6413 d1b0 2db2 d1b0 1c47 d0b0 34a3 d2b0
000002c0: 2f9e 18af 6374 19af 67db 18af 0123 1aaf
000002d0: 298b 1aaf 0352 17af 3abd 19af 3e9f 1baf
000002e0: c640 78af 2e9f 0daf bb62 edae a1f8 82af
000002f0: 1297 88af 90ca 76af 3fe9 74af 7001 89af
00000300: 2014 87b0 52af 8bb0 3f21 90b0 0c8f 88b0
00000310: 5b06 8db0 d642 97b0 158e 83b0 5779 90b0
00000320: 3dba 46b2 0ce3 4db2 fecd 41b2 b141 51b2
00000330: 9ecf 4db2 fe6d 56b2 8f01 4ab2 a8f3 51b2
00000340: a77d 1032 0fef fe31 8e51 0a32 c43e 0732
00000350: d732 0f32 aaf2 1432 d37e 0e32 9064 1032
00000360: e76e 0bb2 e52d 09b2 7223 0cb2 78cf 0cb2
00000370: 27a3 0db2 141b 11b2 3e48 08b2 15aa 0fb2
00000380: b47b 9835 7cf3 9335 c12f 9c35 8d8d 9535
00000390: d227 9335 d4d4 9035 df06 9a35 bf27 9535
000003a0: e89a 9daf 4fbb a5af b285 a8af 63e5 a5af
000003b0: 7ee0 a3af 131a 9eaf 69f5 a3af f30e a6af
000003c0: dbd0 c3aa e042 08a9 083b 7529 d76d 7eaa
000003d0: 889f c6aa ca25 51aa 475d a1a9 3c41 5aa9
000003e0: 3081 3cb0 3963 40b0 9210 40b0 41e7 40b0
000003f0: c5d3 40b0 fe69 40b0 d354 41b0 b6e3 42b0
-4.739615e-11 -4.5206974e-11 -4.9214056e-11 -6.0860206e-11 -5.3888324e-11 -5.9821946e-11 -5.79984e-11 -4.670349e-11
-1.8323124e-09 -1.6825895e-09 -1.6486758e-09 -1.966634e-09 -1.972651e-09 -2.0262714e-09 -1.8474372e-09 -2.0250277e-09
7.169048e-08 7.069486e-08 7.892314e-08 7.0580555e-08 7.198088e-08 7.327045e-08 7.9733525e-08 7.582455e-08
-4.746159e-09 -4.6152224e-09 -4.7697597e-09 -4.7038426e-09 -4.715089e-09 -4.654474e-09 -4.7204014e-09 -4.601813e-09
-2.1391449e-09 -2.0529125e-09 -2.0296895e-09 -2.112984e-09 -2.2357773e-09 -2.1938957e-09 -2.2722415e-09 -2.283153e-09
-2.2699742e-09 -2.2814803e-09 -2.2423536e-09 -2.2817812e-09 -2.2828353e-09 -2.2973003e-09 -2.3510205e-09 -2.307053e-09
-1.4085425e-09 -1.4072157e-09 -1.3889162e-09 -1.42001e-09 -1.4333766e-09 -1.4480528e-09 -1.3982963e-09 -1.4393022e-09
-2.7475912e-12 -2.7675735e-12 -2.7190468e-12 -2.7418126e-12 -2.648826e-12 -2.7690502e-12 -2.7436113e-12 -2.7425646e-12
4.220254e-11 4.393555e-11 3.639593e-11 3.74634e-11 3.427301e-11 3.3565328e-11 4.3733565e-11 3.9289624e-11
-5.5547544e-10 -5.536564e-10 -5.4896243e-10 -5.6148725e-10 -5.6683136e-10 -5.661515e-10 -5.6303284e-10 -5.672638e-10
1.4430505e-12 -6.3153736e-12 3.030647e-12 -1.5240524e-11 -2.0346863e-11 -1.507114e-11 -6.997748e-12 -1.2502352e-11
-2.5042246e-11 -1.8235101e-11 -7.2140115e-12 -2.4919745e-11 -1.0351638e-11 -2.060683e-11 -1.9814766e-11 -2.2935105e-11
-1.02189646e-11 -1.0597102e-11 -1.2873558e-11 -1.1743561e-11 -1.1532627e-11 -1.0556858e-11 -1.0746611e-11 -1.0810928e-11
-2.1893736e-09 -2.3774462e-09 -2.3023672e-09 -2.3212743e-09 -2.2949347e-09 -2.1911302e-09 -2.3592974e-09 -2.3456923e-09
-1.1224159e-11 -1.3144757e-12 3.426829e-13 -9.544325e-12 -1.6562893e-11 -1.1154402e-11 -3.9899325e-12 2.4249817e-12
-1.076362e-08 -1.12158585e-08 -9.8733315e-09 -1.4279006e-08 -1.3118678e-08 -1.2557895e-08 -1.3354125e-08 -1.1777201e-08
-8.0530534e-11 -7.630416e-11 -6.795571e-11 -7.537966e-11 -8.123837e-11 -8.258741e-11 -8.015018e-11 -6.588548e-11
-3.5017775e-10 -2.849567e-10 1.688486e-10 1.2150855e-10 -1.2413837e-10 -3.5433778e-10 -3.659597e-10 -3.162961e-10
-2.258481e-08 -2.2545862e-08 -2.2207043e-08 -2.2490557e-08 -2.3089143e-08 -2.2884988e-08 -2.2827864e-08 -2.3265285e-08
-5.967608e-09 -6.007075e-09 -6.0614913e-09 -5.907338e-09 -5.986799e-09 -6.055629e-09 -6.0470735e-09 -6.0904424e-09
-5.4496258e-11 -2.4354019e-11 4.187222e-11 -4.3269877e-11 -5.6149436e-11 -5.7928936e-11 -6.22162e-11 -6.272013e-11
-1.478379e-09 -1.4907868e-09 -1.5006857e-09 -1.5120348e-09 -1.5212263e-09 -1.5257392e-09 -1.5154202e-09 -1.5325896e-09
-1.3880518e-10 -1.3956618e-10 -1.3902267e-10 -1.4018654e-10 -1.4055658e-10 -1.3762506e-10 -1.3982496e-10 -1.4153742e-10
-2.2578481e-10 -1.2880427e-10 -1.079505e-10 -2.3823524e-10 -2.4845598e-10 -2.2445534e-10 -2.2274536e-10 -2.4921176e-10
-9.828263e-10 -1.016341e-09 -1.0486828e-09 -9.935959e-10 -1.0260907e-09 -1.1005692e-09 -9.571887e-10 -1.0511866e-09
-1.15674625e-08 -1.1984195e-08 -1.1280916e-08 -1.2180338e-08 -1.1979777e-08 -1.2481449e-08 -1.1758302e-08 -1.2220802e-08
8.410473e-09 7.4195508e-09 8.051201e-09 7.8723055e-09 8.335255e-09 8.669909e-09 8.294324e-09 8.404768e-09
-8.116081e-09 -7.984885e-09 -8.157132e-09 -8.1962455e-09 -8.244377e-09 -8.446268e-09 -7.932668e-09 -8.362368e-09
1.1360885e-06 1.1023217e-06 1.1636804e-06 1.1142562e-06 1.0963943e-06 1.0790777e-06 1.1475894e-06 1.1112933e-06
-2.86682e-10 -3.0146416e-10 -3.0654018e-10 -3.0176314e-10 -2.9809039e-10 -2.875856e-10 -2.9823902e-10 -3.0205846e-10
-3.478388e-13 -3.025607e-14 5.445213e-14 -2.259784e-13 -3.5282562e-13 -1.857604e-13 -7.166017e-14 -4.8462306e-14
-6.857759e-10 -6.9990197e-10 -6.987274e-10 -7.0177825e-10 -7.0150136e-10 -6.9999817e-10 -7.0333533e-10 -7.0900386e-10

lstm.weight_hh_l0 f4 [256, 64]
00000000: b459 ffa5 b083 c226 16de 43a7 a7fb 8ea8
00000010: dfba 5fa7 a9f6 b9a6 bd94 d1a6 c21a 9c24
00000020: 5aad 99a4 aaab 7226 3aee 9d25 d2e5 ce25
00000030: c0a5 5322 19ec 00a6 9426 2725 76a4 4f27
00000040: c863 4625 11f4 b7a6 6845 1e27 661c 3a26
00000050: 1bac 2d26 781d 88a6 8a93 ca25 3102 f926
00000060: b5e6 a9a6 ba9e 4026 115b c827 0d0c 13a8
00000070: 81ab 00a9 1819 92a6 9e8e 5ea4 f4df 31a6
00000080: 737e 12a6 ea20 eba7 7423 0c28 8493 0c25
00000090: 32be 4ea7 b48b b3a5 6212 37a7 0ccf 86a6
000000a0: 0dbd 8c28 ca70 40a5 f8c7 d0a3 cd6e c824
000000b0: 5c5e 28a8 7820 8aa6 534d 1ca8 c139 b0a7
000000c0: f9ed 87a7 8242 8725 e8c1 5225 8e6d c7a2
000000d0: b70e 1d26 6644 10a6 f4ad 70a3 0c95 a0a5
000000e0: ea04 8aa5 3e6e aba7 0611 1e25 2dc6 96a7
000000f0: 45b0 4ea5 7b74 a027 f84b 3525 2fb9 a324
00000100: c432 2ea8 1aa3 e028 2c5d 3aac 31ec 2dab
00000110: b2bd c7a9 fcff 5d2a 63fc 1eaa 70e7 1ca4
00000120: 36b2 8a27 151c 1429 29f9 15a9 760c c327
00000130: e2ab b826 b851 b6a9 1f84 3326 aeec fea9
00000140: 768a 19a8 20be 2128 6cbe 41ab 5788 9329
00000150: ae8a aba8 b2e0 96a9 02e9 ba27 ed17 5ea8
00000160: 00c3 3a25 64bf b52a a116 462b ff5f cda9
00000170: 234c d8ac 3aa8 c3a8 c890 b724 8e5b 0c29
00000180: 1896 f927 2719 80aa a23d 702d 65a3 8928
00000190: 4457 442b 01a0 b228 bd42 bcaa c6a3 40ab
000001a0: 1143 e32b ec4f 3caa ac42 b126 fd2e 0028
000001b0: bc70 8daa 06c0 0ea9 16a9 e9aa 5a4e da29
000001c0: 8a49 05ab 3cee 38a9 d11e b9a8 d08f 34a7
000001d0: 629f 2f2a f1e3 b728 62e1 5926 85d2 aa28
000001e0: 2805 5da8 b8fc 05aa 249f a8a7 2c9e c1aa
000001f0: 2654 12a8 ac4b d129 de87 1228 de82 1927
00000200: deb4 a5ac 8b54 3f2e f7c2 b42f c875 572e
00000210: 5e94 9eac 5a63 a4ad a0f5 f12d a421 b42b
00000220: a6ef efac 54ee 2d2c b5d7 77ad ea85 abac
00000230: 8abf 0bab a3ef f32c 3ea2 d92b c3c2 76af
00000240: 31b0 ea2c 323f f8ad 84ca e22e ce43 11ae
00000250: 7f76 46ad e6c3 282d 9106 2c2d e00b 0c2d
00000260: f8ba 29ae 1ff1 97ae 0e79 c0ae de77 80ae
00000270: 1602 2430 94d6 e02c 38f6 502a f083 19ad
00000280: ea9e 5cad be37 bf2d c120 0db1 f038 1e2b
00000290: 9e47 5bae 6374 8f2c 0390 432e 4b11 0d2f
000002a0: 1701 86ae d1ff 922c 96f3 ca29 b61f 8f2b
000002b0: 9406 372e d027 dbac 01f6 672e 8e66 832c
000002c0: b62a 012f b2a9 afac 8f4f bfac 6903 a6ab
000002d0: 0834 8a2d 79bf 492d e4e4 0b2c 854c 2a2d
000002e0: 7061 5dac ae11 bbac 7c49 21ac 58ad b0ae
000002f0: e3b2 ecac a0ed 312b 85f0 f12b 4bb0 8a2b
00000300: ee73 d529 c848 acab 3daa a42d e637 802c
00000310: e704 312c b0b7 28ac 181a 022c 404c d1a8
00000320: c7ab b429 9da2 aaab 8263 ca2a 48b4 5a29
00000330: a147 69a9 31f2 f32b d018 72a9 0ec9 032c
00000340: f6c8 e3a9 4a2c d92a 668e 0f2d a00b 58ac
00000350: d048 ac2a 5e18 c22b 7b7c 162b 5e99 85aa
00000360: a93b 972b 5df8 e8ac b8fa f3ac 9c0f 5c2c
00000370: f078 3e2e fd86 222b 0050 51a8 c7e6 95ab
00000380: 1d8e 182a cf20 152c 3ecf aeae 1553 15ab
00000390: 2b4d 5cad d556 6eaa a790 a32c a204 322d
000003a0: e9ce 29ad 08f6 402b 4c55 36a8 a855 90a9
000003b0: 0dce 9c2c 8a1d 232b aed6 fe2c a76f 1aab
000003c0: 331f 362d ab5e c329 b5ac 292a ca6b f928
000003d0: 50e4 29ac af7c f5aa 99db e0a7 9e8b 0ba9
000003e0: 8e3e 6c29 8462 432c 395e c12a 9a75 462c
000003f0: b227 082a 8b2b 26ac f8f7 62a9 87b0 05a9
-4.4296234e-16 1.3497148e-15 -2.718208e-15 -1.5874304e-14 -3.104877e-15 -1.2903811e-15 -1.4542604e-15 6.7699545e-17
-6.664684e-17 8.4193264e-16 2.7396587e-16 3.5891036e-16 2.868358e-18 -4.4728893e-16 1.4498012e-16 2.8816175e-15
1.720757e-16 -1.276433e-15 2.196453e-15 6.45702e-16 6.025468e-16 -9.444883e-16 3.514139e-16 1.727844e-15
-1.1789264e-15 6.6828496e-16 5.5609886e-15 -8.162752e-15 -2.8570465e-14 -1.0137587e-15 -4.8259378e-17 -6.1712724e-16
-5.0825296e-16 -6.526129e-15 7.779249e-15 1.2193045e-16 -2.8691348e-15 -3.1146217e-16 -2.5406317e-15 -9.354238e-16
1.562511e-14 -1.669156e-16 -2.2636095e-17 8.692388e-17 -9.346334e-15 -9.584474e-16 -8.676507e-15 -4.891243e-15
-3.7728038e-15 2.3463834e-16 1.8280294e-16 -5.4055054e-18 5.449026e-16 -5.0052733e-16 -1.3047262e-17 -2.7856574e-16
-2.3942514e-16 -4.758156e-15 1.3710083e-16 -4.1848226e-15 -1.7927374e-16 4.453521e-15 1.5724987e-16 7.1003695e-17
-9.669948e-15 2.493973e-14 -2.648391e-12 -6.178973e-13 -8.870282e-14 1.9717555e-13 -1.4120783e-13 -3.4023143e-17
3.849591e-15 3.288696e-14 -3.3300758e-14 5.4136883e-15 1.2814154e-15 -8.0965996e-14 6.228216e-16 -1.1320923e-13
-8.52323e-15 8.978522e-15 -6.883164e-13 6.5517626e-14 -1.9044956e-14 -6.7003166e-14 5.1878e-15 -1.2328664e-14
1.6198997e-16 3.2284863e-13 7.0375135e-13 -9.1204815e-14 -6.147542e-12 -2.1722306e-14 7.960887e-17 3.1165656e-14
6.9274115e-15 -2.275482e-13 1.3656106e-11 1.5280917e-14 6.9754293e-13 1.983136e-14 -3.3441818e-13 -6.8439384e-13
1.6147935e-12 -1.6725483e-13 1.2299914e-15 7.115616e-15 -2.5124857e-13 -3.1696888e-14 -4.150644e-13 9.6947366e-14
-4.735315e-13 -4.1062843e-14 -2.055249e-14 -2.505798e-15 1.559842e-13 2.0415935e-14 7.559245e-16 1.896509e-14
-1.22690825e-14 -1.1900452e-13 -4.6801908e-15 -3.439344e-13 -8.122875e-15 9.2945915e-14 8.13409e-15 2.1303959e-15
-4.7096623e-12 4.350346e-11 3.288034e-10 4.898995e-11 -4.507102e-12 -1.8688762e-11 2.7507607e-11 1.2799106e-12
-6.819395e-12 2.4717077e-12 -1.4088221e-11 -4.8749798e-12 -4.9648534e-13 6.9330804e-12 1.5463809e-12 -2.2442763e-10
6.670241e-12 -2.82224e-11 1.0313264e-10 -3.3029406e-11 -1.1281308e-11 9.5931926e-12 9.778526e-12 7.960715e-12
-3.8592213e-11 -6.909517e-11 -8.752653e-11 -5.842059e-11 5.9665817e-10 6.390286e-12 1.8559535e-13 -8.726339e-12
-1.2540838e-11 2.173894e-11 -2.053682e-09 5.6211893e-13 -4.9858444e-11 4.077226e-12 4.4465775e-11 1.2830019e-10
-6.093808e-11 4.177971e-12 9.0128575e-14 1.0169563e-12 4.1615225e-11 -6.2287744e-12 5.2741814e-11 3.73463e-12
1.1747656e-10 -4.992639e-12 -5.4373793e-12 -1.1795956e-12 1.571189e-11 1.1468043e-11 1.9880148e-12 9.680372e-12
-3.1460078e-12 -5.3168225e-12 -2.2920268e-12 -8.0343454e-11 -6.727384e-12 6.3212803e-13 1.7190838e-12 9.854421e-13
9.479211e-14 -1.2241536e-12 1.8720242e-11 3.6441848e-12 2.5155934e-12 -2.3976203e-12 1.8488596e-12 -2.323673e-14
8.0234044e-14 -1.2124361e-12 3.5951456e-13 4.8562093e-14 -5.179852e-14 1.733341e-12 -5.3756316e-14 1.8727827e-12
-1.0115686e-13 3.8577675e-13 8.160228e-12 -3.07019e-12 3.0603861e-13 1.3791292e-12 5.3463457e-13 -2.3731966e-13
1.0745754e-12 -6.6214105e-12 -6.9343108e-12 3.1272545e-12 4.3308412e-11 5.7741295e-13 -1.1619178e-14 -1.065114e-12
1.3549617e-13 2.1192386e-12 -7.9494175e-11 -5.3050733e-13 -1.2522687e-11 -2.1168772e-13 4.6487983e-12 1.0119157e-11
-9.652481e-12 6.855354e-13 -1.0121525e-14 -6.4097436e-14 4.456663e-12 5.7950227e-13 7.2429484e-12 -5.486674e-13
1.035243e-11 8.676162e-14 1.5070135e-13 2.76913e-14 -2.4143083e-12 -4.360726e-13 -6.2410578e-15 -3.09853e-14
5.2456784e-14 2.7765854e-12 3.4349067e-13 2.8202774e-12 1.2092999e-13 -2.361419e-12 -5.039716e-14 -2.9685046e-14

lstm.bias_ih_l0 f4 [256]
00000000: 6dd5 f6ae def3 28b1 be7d 8eb3 939d c1b2
00000010: 55f2 0db2 d47c cbb1 378b 62b1 f631 9fac
00000020: 10cd 792e b2e5 91b0 efd1 5cae 0c8c 64ae
00000030: e9d9 32ae aaa6 5fb1 baf6 07ae b881 00b3
00000040: 4475 0aaf 0693 5e30 2db9 23b3 25df 18b2
00000050: 14ab 362f fa60 46b1 e139 68af 66f4 782e
00000060: b4c4 9fb1 28ee 92b2 320e b1b1 6389 98b2
00000070: b543 da33 9944 eaaf 9bfa 60ab a150 b0b0
00000080: 3c1c f6ae 9225 09b1 d8d5 fa35 1860 a2af
00000090: 2a0f 96b3 2db4 8daf 5812 9ab2 c00e b5b3
000000a0: 137e ceb3 9d82 91b2 cc0c 5fac f0e2 1bad
000000b0: 8f7c aab2 74bb 9cb0 ae21 47b3 54b8 8530
000000c0: c6b9 ecb3 8597 44b0 c885 35af a966 6aac
000000d0: df25 e2b1 a13a 4db0 f85d f7a9 cc27 a12d
000000e0: 4155 4dae 0d4f ecb1 1f08 5faf b3e4 14b2
000000f0: 4942 d4ae 443c e3b1 8bf5 c9ad 2550 5bac
00000100: 27ba 13af 70d6 52b1 048f 40b3 b89f cdb2
00000110: 4e52 19b2 4b4f d0b1 4ec8 67b1 4be3 a1ac
00000120: ea13 6f2e f048 96b0 d84e 1daf 164d 78ae
00000130: 0b1f 2aae 310c 5db1 2321 12ae 2c36 34b3
00000140: 71a5 18af 8eab 0c30 6733 26b3 3100 16b2
00000150: 80b7 232e 67a8 47b1 58cd 73af 0269 d7af
00000160: 4d1b adb1 cdf4 9cb2 4a1c 9fb1 5894 9eb2
00000170: e570 18b4 d8cd f5af 0e3d 9cab af8b b7b0
00000180: a408 2baf d037 1db1 a830 a133 8931 a3af
00000190: 24d7 98b3 7836 91af 25a6 95b2 8c2c b4b3
000001a0: 914b 06b4 4eaa 98b2 efe7 6dac 21d2 62ad
000001b0: 82ec b3b2 f5ad a4b0 87b1 44b3 65a6 5b30
000001c0: 9739 ebb3 9829 37b0 be7d 59af 0944 4cac
000001d0: 78e9 e2b1 72a8 4db0 ed32 31ac 3421 5dae
000001e0: 4f47 5dae 7922 e1b1 1fe5 65af a037 26b2
000001f0: 2f0f daae a792 e7b1 1ed6 dbad 0121 6bac
00000200: 215f 5a39 aace 43ba b05e 863b 2a87 373b
00000210: 2e1b 073b 391e d5b9 ee39 a339 abf4 b638
00000220: b375 feb8 6bc8 ba3a b8ee 3b3a c266 77ba
00000230: 45b6 3839 8290 d33a d87d 3139 a6d6 153a
00000240: ebbb aa37 3380 8eb7 c5ee ee3a b043 f73b
00000250: fc89 dbb9 ae99 2d3a 80da d039 74c3 f6b9
00000260: 240a 74b8 91c4 65ba ed96 1d3a 007f 80b8
00000270: e959 ab3c 97c3 95b9 cf35 2cb8 7dab 2a3a
00000280: f7bc 9cb9 79e2 f63a 1188 5c3a 20f0 453b
00000290: cda6 f6b9 a7f3 dbb8 f73a b5bb c4dd 1c3a
000002a0: c1af a6bb b9f0 9039 f49f 92b9 99b1 21b9
000002b0: 3c27 243b 3113 91b9 370c af3a 90e8 1939
000002c0: 867e 283b cfa5 4f37 1485 1039 f467 9237
000002d0: ea3c d3bb 9bca 8fb9 06de d036 c48f 4c3a
000002e0: 9f46 c838 7e24 87bb 2db1 c339 41c0 663a
000002f0: e412 0739 2cf5 98ba 20b0 dcb8 ae47 8d39
00000300: 217f ecae 645b 2bb1 d0b3 7cb3 abfb b2b2
00000310: 6518 0eb2 03db cdb1 8cfb 61b1 9c78 9aac
00000320: 1355 972e dd20 91b0 386d 08ad 41b9 65ae
00000330: ec5d 30ae 8484 55b1 b7e1 14ae 363c 01b3
00000340: 5ca9 09af f075 9330 b205 23b3 2172 12b2
00000350: d019 142f 476b 45b1 9c29 69af c9ad 2aaf
00000360: becd 8cb1 fd5b 91b2 0742 5db1 c13b 98b2
00000370: 1ba8 8434 ccde e8af 1d8c 61ab b26e b0b0
00000380: eb46 03af 20ae 0db1 2fa3 8e35 0d06 9faf
00000390: b5dc 98b3 de47 8caf 8c1f 97b2 9264 b4b3
000003a0: d9db 9ab3 224c 90b2 f9cc 5cac 5b7e 17ad
000003b0: 8925 aab2 29c5 8fb0 74ab 3fb3 6214 9430
000003c0: df94 ecb3 9c60 2eb0 5d25 3baf 3ce6 75ac
000003d0: f4ab ddb1 1322 29b0 bfae 66ab 5292 a92d
000003e0: 3ef2 4cae 1e7e e4b1 7cfb 5faf d9e3 14b2
000003f0: e424 d2ae c548 e2b1 a348 caad fedb 6cac
-1.1224697e-10 -2.458584e-09 -6.635263e-08 -2.2539814e-08 -8.26238e-09 -5.922269e-09 -3.2966463e-09 -4.5245986e-12
5.6798177e-11 -1.0615422e-09 -5.0208667e-11 -5.1965585e-11 -4.0666057e-11 -3.2545509e-09 -3.0914583e-11 -2.99203e-08
-1.2592688e-10 8.097206e-10 -3.811981e-08 -8.898302e-09 1.6613583e-10 -2.8867917e-09 -2.112084e-10 5.660574e-11
-4.6498716e-09 -1.7104938e-08 -5.152992e-09 -1.7757605e-08 1.0163732e-07 -4.2613094e-10 -7.992857e-13 -1.2828602e-09
-1.11918e-10 -1.995748e-09 1.8688688e-06 -2.9535907e-10 -6.9876776e-08 -2.5775773e-10 -1.7936301e-08 -8.431152e-08
-9.615555e-08 -1.6939618e-08 -3.169731e-12 -8.86112e-12 -1.9847247e-08 -1.1403771e-09 -4.636393e-08 9.729413e-10
-1.10233984e-07 -7.1519707e-10 -1.6509383e-10 -3.3310388e-12 -6.581771e-09 -7.466188e-10 -1.09853045e-13 1.8321254e-11
-4.6687324e-11 -6.877491e-09 -2.0284617e-10 -8.666734e-09 -9.6524184e-11 -6.613421e-09 -2.2960097e-11 -3.116626e-12
-1.3435707e-10 -3.0680916e-09 -4.4833556e-08 -2.3937773e-08 -8.924486e-09 -6.0626113e-09 -3.3728784e-09 -4.60113e-12
5.4359996e-11 -1.0934667e-09 -1.4307078e-10 -5.6457138e-11 -3.8681097e-11 -3.2166663e-09 -3.3225988e-11 -4.1958785e-08
-1.3883096e-10 5.1175497e-10 -3.8696637e-08 -8.731193e-09 3.722489e-11 -2.9054037e-09 -2.2173674e-10 -3.9182885e-10
-5.0380664e-09 -1.8272113e-08 -4.630725e-09 -1.846108e-08 -1.4197174e-07 -4.47115e-10 -1.1101413e-12 -1.3354703e-09
-1.5555429e-10 -2.2878233e-09 7.505997e-08 -2.9684724e-10 -7.1171854e-08 -2.641405e-10 -1.7421437e-08 -8.390006e-08
-1.2507213e-07 -1.7772575e-08 -3.3808475e-12 -1.2893271e-11 -2.0945894e-08 -1.1982012e-09 -4.5796266e-08 7.9908197e-10
-1.0953516e-07 -6.663412e-10 -1.9780708e-10 -2.902791e-12 -6.604008e-09 -7.481794e-10 -2.5181482e-12 -5.0279073e-11
-5.0312917e-11 -6.552281e-09 -2.0908829e-10 -9.675119e-09 -9.9161894e-11 -6.7396573e-09 -2.4992505e-11 -3.341383e-12
0.00020825538 -0.0007469455 0.004100643 0.0028004148 0.0020615566 -0.00040649044 0.00031132944 8.724009e-05
-0.00012133587 0.0014250403 0.0007169056 -0.00094376144 0.00017615508 0.0016141089 0.00016926916 0.0005715884
2.0353085e-05 -1.6987417e-05 0.0018229118 0.007545911 -0.0004187374 0.00066223263 0.00039835647 -0.000470664
-5.8183577e-05 -0.00087649474 0.00060115644 -6.127171e-05 0.020916896 -0.0002856522 -4.105811e-05 0.0006510539
-0.00029895428 0.0018835805 0.00084126095 0.003020294 -0.00047045053 -0.000104881176 -0.005530711 0.00059839734
-0.0050868695 0.00027645173 -0.00027966464 -0.00015420317 0.00250478 -0.00027670854 0.0013355081 0.00014677853
0.002571018 1.2376767e-05 0.00013782486 1.7452963e-05 -0.0064464705 -0.00027426038 6.22473e-06 0.0007803405
9.5498974e-05 -0.0041242233 0.00037325305 0.0008802452 0.0001288164 -0.0011669747 -0.00010523223 0.0002694702
-1.075462e-10 -2.4935725e-09 -5.883686e-08 -2.0836373e-08 -8.2710345e-09 -5.991184e-09 -3.2884797e-09 -4.3903336e-12
6.881797e-11 -1.0559479e-09 -7.754956e-12 -5.223311e-11 -4.0101186e-11 -3.1070906e-09 -3.385178e-11 -3.0089915e-08
-1.2520246e-10 1.0729178e-09 -3.7956575e-08 -8.524268e-09 1.3469692e-10 -2.8728253e-09 -2.1206009e-10 -1.5523151e-10
-4.0979264e-09 -1.6922053e-08 -3.2197265e-09 -1.7722302e-08 2.470923e-07 -4.235886e-10 -8.0130504e-13 -1.2837147e-09
-1.1939576e-10 -2.061718e-09 1.0627317e-06 -2.892623e-10 -7.118198e-08 -2.5516916e-10 -1.759306e-08 -8.400197e-08
-7.211174e-08 -1.6798428e-08 -3.1377663e-12 -8.611413e-12 -1.9807674e-08 -1.0460656e-09 -4.462659e-08 1.077421e-09
-1.1016686e-07 -6.343812e-10 -1.7020825e-10 -3.49444e-12 -6.4514953e-09 -6.1530264e-10 -8.1954924e-13 1.9278055e-11
-4.6599384e-11 -6.650011e-09 -2.0371077e-10 -8.66654e-09 -9.5562475e-11 -6.5857386e-09 -2.2996998e-11 -3.3659737e-12

lstm.bias_hh_l0 f4 [256]
00000000: c4d9 caae 5357 28b1 b8a4 8db3 6581 c2b2
00000010: 9947 0db2 7885 cbb1 b240 62b1 0bd9 9eac
00000020: cee1 7a2e 0cf4 91b0 049d 57ae 1ad4 64ae
00000030: 9624 36ae f94b 62b1 7f5f 06ae 2ea0 02b3
00000040: d8c6 0baf a0e6 5b30 2eac 23b3 f8b8 18b2
00000050: 33bf 442f 74fc 44b1 5e1a 68af bcd1 1eaf
00000060: 8f64 89b1 58b6 92b2 c26e bcb1 c4cf 97b2
00000070: 4d31 8033 b0b7 ecaf 5a2d 61ab d836 b0b0
00000080: 5543 02af edb9 0ab1 8c1d f435 0819 a4af
00000090: 444b 97b3 75db 8eaf db17 9ab2 220b b5b3
000000a0: 73b6 cdb3 a8c2 94b2 2790 5bac 8078 1aad
000000b0: f165 aab2 3401 9ab0 7fe4 46b3 491e 9830
000000c0: 8a13 eab3 9c75 36b0 7f89 38af 4c9a 0fac
000000d0: 13fe e0b1 03b3 55b0 505b 24ab 5419 d92c
000000e0: 3f45 48ae e663 eeb1 92ee 56af 81fc 14b2
000000f0: b407 cfae c033 e4b1 2dd5 cbad 1f93 62ac
00000100: 8ff8 07af b2f5 53b1 5022 3fb3 9004 cdb2
00000110: 64e0 16b2 9c21 d0b1 fc82 67b1 9c94 a2ac
00000120: 91c3 502e 2224 96b0 0691 14af f0bd 77ae
00000130: 1fec 2bae 7101 5db1 14b1 20ae f490 2fb3
00000140: 1bcc 11af ba5e 1130 0237 26b3 0517 16b2
00000150: f06e 2a2e ca1d 48b1 8230 73af 5f80 07b0
00000160: 8655 a9b1 f503 9db2 cf83 a9b1 a656 9eb2
00000170: 1434 35b4 a6b9 f3af ed8a 91ab cc72 b8b0
00000180: 86f1 1eaf bdf9 1cb1 b838 9733 508e a1af
00000190: 8fe7 97b3 903a 91af 76fb 94b2 d930 b4b3
000001a0: 90ff 01b4 99e7 98b2 b757 61ac be82 5bad
000001b0: 4108 b4b2 c6d1 a9b0 b322 44b3 7b61 9730
000001c0: 820c ebb3 b0dd 3fb0 702d 59af 20bb c6ac
000001d0: cc99 e0b1 1573 47b0 626c 12ac debc 5fae
000001e0: a9b5 21ae c79c e2b1 72f8 6aaf f737 26b2
000001f0: 0b3c d7ae 4953 e8b1 a5b7 dcad c595 5cac
00000200: 6ede 28b9 009b e139 affe 8eba 5636 e1ba
00000210: 0e1a c1ba 44ca e9b8 f156 9b38 5edc c1b8
00000220: d95a 2039 a674 dcba 310a 17ba 4692 823a
00000230: 00d6 3ab9 3c29 abba ff0a 45b9 7036 8e3a
00000240: d9ce cab8 3a88 7f39 83c6 96b9 cca9 04bc
00000250: 235c 1d3a 5790 bbb9 bf83 9cb9 0dca 9039
00000260: 731a 0d3a be31 29b9 99d4 dcba 2eee 5e3a
00000270: 1cab 86bc d6e1 c539 4b9c 1d38 4518 63ba
00000280: fa83 c939 4021 c4ba 7569 4ebc 919d 4dbb
00000290: cab1 ceba b60c e337 a57d d43b ef04 bc3a
000002a0: 4f84 363b 23a6 cab9 f466 9039 b35f 0839
000002b0: 0cd9 b0ba 6fd0 0b3a 946c 53b6 485d c8b8
000002c0: 835b cdb9 cb73 4ab8 e67e 8ab8 cab1 7a36
000002d0: ebe5 c13b 5f64 b038 5919 b4b7 2019 61ba
000002e0: 100b c5b8 1508 9a3b 6daf 83b9 0d26 9db9
000002f0: 7416 b4b8 50ad 123a 37e6 be38 6db0 93b9
00000300: bc2d f7ae 1b79 2ab1 5ac2 87b3 7ce1 b2b2
00000310: 41c5 0bb2 9928 ceb1 b9db 62b1 7f96 9dac
00000320: 14a4 932e bdfc 90b0 a06d 16ad 8efe 6cae
00000330: 22e1 28ae fbac 55b1 3888 06ae df78 00b3
00000340: 730d 09af c8fb 7a30 0f11 23b3 d7d8 12b2
00000350: 0a28 372f 818b 45b1 ca4a 6aaf b0c9 35af
00000360: 2977 8db1 7d50 91b2 bda0 64b1 db22 98b2
00000370: acde 7c34 8dc5 e9af ac82 6eab 4b47 b2b0
00000380: feac f4ae 4fc0 0db1 fe75 8d35 a629 9faf
00000390: fc18 98b3 06c4 8caf 0f22 97b2 6f67 b4b3
000003a0: 6d97 acb3 e875 91b2 2934 2bac 548d 1fad
000003b0: 292f aab2 2e86 8fb0 3e42 3fb3 249e 2830
000003c0: dd22 ecb3 95c5 4bb0 a66d 3eaf 7e08 82ab
000003d0: fab9 dfb1 4920 31b0 e942 b9ab f536 002d
000003e0: b49e 4cae 26d9 e6b1 f1b6 55af 5ee5 14b2
000003f0: f38e ceae fc0f e3b1 0049 c0ad 72b2 5aac
-9.2245794e-11 -2.4496856e-09 -6.595786e-08 -2.2643414e-08 -8.22356e-09 -5.9232512e-09 -3.2924103e-09 -4.5147267e-12
5.7043974e-11 -1.0619501e-09 -4.9024798e-11 -5.2029582e-11 -4.1414504e-11 -3.2930514e-09 -3.055289e-11 -3.0413666e-08
-1.271262e-10 7.9999474e-10 -3.810799e-08 -8.8896215e-09 1.7894024e-10 -2.8665257e-09 -2.1109645e-10 -1.4444529e-10
-3.998657e-09 -1.7079557e-08 -5.484112e-09 -1.7673194e-08 5.969432e-08 -4.3058668e-10 -7.9998996e-13 -1.2821273e-09
-1.1847352e-10 -2.018733e-09 1.8188016e-06 -2.9849212e-10 -7.045176e-08 -2.5985583e-10 -1.7938808e-08 -8.430494e-08
-9.579244e-08 -1.7317987e-08 -3.1201792e-12 -8.780643e-12 -1.9836962e-08 -1.1205317e-09 -4.6308283e-08 1.1068063e-09
-1.0900028e-07 -6.637835e-10 -1.6783551e-10 -2.0407174e-12 -6.548143e-09 -7.774334e-10 -5.8391226e-13 6.170323e-12
-4.5536238e-11 -6.938069e-09 -1.9547944e-10 -8.672147e-09 -9.4146385e-11 -6.6415566e-09 -2.3173097e-11 -3.21982e-12
-1.2366484e-10 -3.0844203e-09 -4.450186e-08 -2.3867216e-08 -8.78217e-09 -6.0574177e-09 -3.368938e-09 -4.620816e-12
4.7467422e-11 -1.0924206e-09 -1.3512044e-10 -5.6329996e-11 -3.9090616e-11 -3.2160552e-09 -3.6537065e-11 -4.0877197e-08
-1.3260186e-10 5.288531e-10 -3.8699916e-08 -8.736383e-09 3.8752057e-11 -2.9120764e-09 -2.2117955e-10 -4.929514e-10
-4.9282702e-09 -1.8279005e-08 -4.9335322e-09 -1.8433024e-08 -1.6875885e-07 -4.4333354e-10 -1.0341429e-12 -1.3420389e-09
-1.4455823e-10 -2.2842948e-09 7.0418025e-08 -2.9386849e-10 -7.073606e-08 -2.6416958e-10 -1.7343819e-08 -8.3907885e-08
-1.2107034e-07 -1.7800447e-08 -3.2023115e-12 -1.2477739e-11 -2.0958511e-08 -1.235599e-09 -4.5666365e-08 1.1014402e-09
-1.09453154e-07 -6.980043e-10 -1.9752178e-10 -5.6482735e-12 -6.5367427e-09 -7.255932e-10 -2.0808012e-12 -5.0872077e-11
-3.676851e-11 -6.595289e-09 -2.1370442e-10 -9.675197e-09 -9.787734e-11 -6.761557e-09 -2.5092659e-11 -3.134702e-12
-0.0001610459 0.00043030828 -0.0010909642 -0.0017182331 -0.0014732496 -0.00011147981 7.40717e-05 -9.244004e-05
0.00015292632 -0.0016819432 -0.00057617115 0.0009961806 -0.00017818063 -0.0013058553 -0.0001879148 0.0010849964
-9.670639e-05 0.00024369443 -0.00028758132 -0.008097123 0.0006002804 -0.0003577496 -0.00029852797 0.0002761636
0.00053826644 -0.00016135626 -0.0016848027 0.00085041195 -0.016439013 0.0003774303 3.7577276e-05 -0.0008662979
0.00038436038 -0.0014963523 -0.012598385 -0.0031374434 -0.0015769538 2.7066428e-05 0.0064847046 0.0014344732
0.0027849858 -0.00038652224 0.00027542526 0.00013005621 -0.0013492419 0.0005333488 -3.150465e-06 -9.554118e-05
-0.00039168829 -4.8268394e-05 -6.6039895e-05 3.735639e-06 0.005917301 8.4110296e-05 -2.1469476e-05 -0.0008586813
-9.3957526e-05 0.0047006705 -0.0002511697 -0.00029973724 -8.587251e-05 0.00055952836 9.102787e-05 -0.00028169472
-1.12403836e-10 -2.4807096e-09 -6.32178e-08 -2.0824466e-08 -8.135715e-09 -6.0000045e-09 -3.3012226e-09 -4.478917e-12
6.713932e-11 -1.0549212e-09 -8.5508545e-12 -5.3886277e-11 -3.8398736e-11 -3.1093907e-09 -3.058906e-11 -2.9912254e-08
-1.2464856e-10 9.1307273e-10 -3.796691e-08 -8.547622e-09 1.6657978e-10 -2.8746572e-09 -2.1308746e-10 -1.6533508e-10
-4.117187e-09 -1.6916823e-08 -3.3269736e-09 -1.771098e-08 2.3550336e-07 -4.252282e-10 -8.473593e-13 -1.2971467e-09
-1.1126565e-10 -2.0627515e-09 1.0539659e-06 -2.8951525e-10 -7.082596e-08 -2.5605135e-10 -1.7594202e-08 -8.4007176e-08
-8.036918e-08 -1.693384e-08 -2.4329516e-12 -9.069485e-12 -1.981205e-08 -1.0442756e-09 -4.45309e-08 6.1342775e-10
-1.0995948e-07 -7.413175e-10 -1.7319354e-10 -9.239413e-13 -6.5112973e-09 -6.4438105e-10 -1.3163612e-12 7.2881605e-12
-4.6525186e-11 -6.718568e-09 -1.9437231e-10 -8.666886e-09 -9.393188e-11 -6.6083867e-09 -2.1860291e-11 -3.107872e-12

lstm.weight_ih_l0_reverse f4 [256, 8]
00000000: 964d a827 6c4c bc27 b706 a227 b070 a427
00000010: 8dfc cb27 2d88 d127 25ff a927 a7bf c527
00000020: 72dc 12a6 2cd4 16a6 c904 13a6 424c 15a6
00000030: e29e 0aa6 fb0d 1aa6 ea01 1ba6 8351 b3a4
00000040: 6f82 a72f cfc5 ac2f 7719 a82f 4fcb a72f
00000050: 92d0 ab2f f68f 9f2f feb1 a52f 63fd a72f
00000060: ecf5 1bae fc3e 1bae 9929 f7ad 0ce3 1fae
00000070: 0561 27ae f6ac 1aae 8963 09ae 84a1 dbad
00000080: c218 c2a4 05df 61a5 6a4d 39a5 4061 18a3
00000090: b12f 46a4 0ac1 bba3 ef79 28a5 c8b1 3ba4
000000a0: 67d6 cda6 a16f cea6 9b05 c7a6 1ab4 cda6
000000b0: a03e d1a6 fb24 cea6 8371 caa6 ae59 d1a6
000000c0: f65e 7ead 3e7a 80ad 8251 83ad 0294 83ad
000000d0: 580b 85ad 44d2 80ad 52c1 85ad f49a 87ad
000000e0: ec78 15b0 db89 18b0 3dd4 16b0 33a5 18b0
000000f0: 18b3 19b0 4539 19b0 001a 17b0 3e00 1ab0
00000100: 9a30 8dac 2ef7 8eac 24dc 8fac d612 90ac
00000110: fc31 91ac b02c 90ac 143d 91ac a80a 92ac
00000120: e576 19aa deea dca9 15f9 f7a9 9478 1aaa
00000130: fddd 15aa e7e8 19aa 5f39 f6a9 e128 1baa
00000140: dc49 9ca8 5342 b229 c4e7 4e28 69c5 e7a8
00000150: 1eba 67a8 a2bf d1a8 96db 2029 db66 a629
00000160: eaa5 06ac 6247 fcab 400a e4ab 684c 0aac
00000170: 0d8b 0bac 1e11 0dac 6865 e8ab ebd9 07ac
00000180: a9bb 42ab 901e 40ab 40d0 0eab 8dd1 19ab
00000190: 2077 4eab 6123 41ab b284 21ab 7648 4cab
000001a0: 2ebd ada9 fccc 8ca9 bd3f a9a9 e980 91a9
000001b0: 2305 aea9 81e4 99a9 1854 a6a9 463f 8fa9
000001c0: 284f 59ae 542f 51ae ee8d 57ae 8200 5aae
000001d0: ac2f 63ae 60e2 58ae 0e1e 5cae 9a61 69ae
000001e0: be7c 13ac 14b1 12ac 6972 11ac db68 16ac
000001f0: f028 18ac 832b 16ac 468a 12ac ce0e 17ac
00000200: fc4c ccaa e957 d8aa 4433 cfaa 9ff1 e7aa
00000210: 9d81 e6aa 0a8d e1aa 38db d7aa cd7c e8aa
00000220: 296c e8ae bf31 e9ae bbbe ebae b95f e8ae
00000230: ad14 eeae f20b e9ae c83a e3ae 845a e9ae
00000240: ce99 ecab b0eb ecab a457 e7ab 7d82 00ac
00000250: 1f83 01ac 9cdd f5ab 564d f4ab ae18 f9ab
00000260: 24b6 8ea4 6884 98a4 9c90 58a4 f8c9 5fa4
00000270: 922f a1a4 3ca2 13a4 fb03 9ba4 07f1 9ca4
00000280: 5c82 08ac 947b 45ac e038 29ac 7734 54ac
00000290: 95a8 17ac ec30 4cac c5d9 43ac d049 48ac
000002a0: 4dcc bfac be40 b4ac dead a5ac 86c0 cdac
000002b0: 4c88 c3ac b67c d0ac b837 bcac 8c22 c1ac
000002c0: 627e 11aa e10d 12aa 4f37 10aa 1992 14aa
000002d0: 93b2 14aa 43af 13aa 4423 12aa abfa 0caa
000002e0: ceeb 2b34 e3b1 2534 0c40 2a34 23ac 2634
000002f0: d650 2934 f77e 2c34 7338 2b34 e177 2d34
00000300: 2e1a 6da1 a138 b71f f354 20a0 fd3d 94a0
00000310: 548e b91f 8518 cca0 ff01 34a1 2070 97a0
00000320: d43a b727 d1ca a527 d57c cc27 0213 8c27
00000330: 62c6 f526 eb38 8227 e7dd c427 f8af 4227
00000340: 9aeb 3ab0 327f 38b0 ec1f 3ab0 c898 3cb0
00000350: 655d 3bb0 a40e 3cb0 5afb 36b0 82a4 3ab0
00000360: 800c 52a6 51c2 5ca6 d9b9 78a6 8539 76a6
00000370: 6b18 62a6 990b 67a6 24f5 6ea6 dceb 77a6
00000380: 835a 8aae eb52 8bae 6ad3 8dae dbbe 8bae
00000390: fdb1 8cae d8ad 8aae 3356 8dae 8ef7 8cae
000003a0: 594a 1fad c76d 1dad 9796 1ead 8d89 20ad
000003b0: 3b45 22ad 474a 20ad cf26 1ead f2df 25ad
000003c0: 0b67 c5a9 e34c c1a9 2770 c3a9 5500 c7a9
000003d0: 9f85 c8a9 4af9 c2a9 3b2c c7a9 3233 c8a9
000003e0: 6fa2 baa7 20ac a8a7 c8b2 a8a7 2153 b1a7
000003f0: 3ef2 bfa7 c84a bda7 5e06 aca7 7e5b c1a7
4.6713486e-15 5.226334e-15 4.4971313e-15 4.564132e-15 5.6617635e-15 5.8156795e-15 4.718355e-15 5.4886274e-15
-5.0952685e-16 -5.232925e-16 -5.1007355e-16 -5.179811e-16 -4.8093694e-16 -5.344843e-16 -5.377902e-16 -7.776696e-17
3.0469802e-10 3.142717e-10 3.0577116e-10 3.0521582e-10 3.1252917e-10 2.9024222e-10 3.0139796e-10 3.0557165e-10
-3.5461342e-11 -3.529886e-11 -2.8099122e-11 -3.6354073e-11 -3.8057574e-11 -3.5169166e-11 -3.12386e-11 -2.4969145e-11
-8.417603e-17 -1.9591201e-16 -1.6072421e-16 -8.26053e-18 -4.2974802e-17 -2.0356336e-17 -1.461299e-16 -4.0699748e-17
-1.4282846e-15 -1.4324379e-15 -1.3809918e-15 -1.4273549e-15 -1.4519263e-15 -1.4304145e-15 -1.4047333e-15 -1.4526596e-15
-1.4459314e-11 -1.4606202e-11 -1.4929172e-11 -1.4958704e-11 -1.5125387e-11 -1.4645292e-11 -1.5206201e-11 -1.5416536e-11
-5.4377725e-10 -5.549318e-10 -5.487129e-10 -5.553204e-10 -5.5915583e-10 -5.574246e-10 -5.497043e-10 -5.602522e-10
-4.012857e-12 -4.063325e-12 -4.088745e-12 -4.0948174e-12 -4.1266972e-12 -4.0976875e-12 -4.127929e-12 -4.1507527e-12
-1.363038e-13 -9.8107056e-14 -1.1012212e-13 -1.3719782e-13 -1.3310876e-13 -1.3669934e-13 -1.0934547e-13 -1.3780948e-13
-1.735151e-14 7.9162934e-14 1.1485553e-14 -2.5731765e-14 -1.2863434e-14 -2.3286769e-14 3.5717597e-14 7.3897235e-14
-1.9134646e-12 -1.792549e-12 -1.6203219e-12 -1.9653393e-12 -1.9830277e-12 -2.0046807e-12 -1.6512737e-12 -1.9305623e-12
-6.9183076e-13 -6.8254517e-13 -5.073754e-13 -5.464733e-13 -7.335122e-13 -6.861647e-13 -5.738284e-13 -7.257592e-13
-7.715561e-14 -6.252808e-14 -7.5161645e-14 -6.461656e-14 -7.728043e-14 -6.834204e-14 -7.386469e-14 -6.361452e-14
-4.9410392e-11 -4.7563134e-11 -4.90114e-11 -4.9567912e-11 -5.1656165e-11 -4.9313775e-11 -5.0048903e-11 -5.3064754e-11
-2.0959202e-12 -2.0846146e-12 -2.066925e-12 -2.1374489e-12 -2.1623224e-12 -2.1340436e-12 -2.0824605e-12 -2.1466609e-12
-3.6291098e-13 -3.8430308e-13 -3.680616e-13 -4.12015e-13 -4.0946145e-13 -4.0065894e-13 -3.8343786e-13 -4.1298077e-13
-1.05693516e-10 -1.060445e-10 -1.0720443e-10 -1.0567142e-10 -1.082666e-10 -1.0597735e-10 -1.03332065e-10 -1.0611692e-10
-1.6811498e-12 -1.6834225e-12 -1.6437862e-12 -1.826233e-12 -1.840479e-12 -1.7469806e-12 -1.7358708e-12 -1.7699364e-12
-6.189124e-17 -6.61438e-17 -4.6960023e-17 -4.852649e-17 -6.990321e-17 -3.2012962e-17 -6.722728e-17 -6.806253e-17
-1.9399126e-12 -2.8063983e-12 -2.4047916e-12 -3.0156136e-12 -2.1551972e-12 -2.90173e-12 -2.7832053e-12 -2.8462684e-12
-5.4512284e-12 -5.1230955e-12 -4.708885e-12 -5.847825e-12 -5.5573653e-12 -5.9255613e-12 -5.3494674e-12 -5.4892254e-12
-1.2922435e-13 -1.297222e-13 -1.2808958e-13 -1.3195728e-13 -1.3206996e-13 -1.3117029e-13 -1.297964e-13 -1.2521466e-13
1.6011401e-07 1.5431537e-07 1.5855784e-07 1.5522578e-07 1.576876e-07 1.6064938e-07 1.5946152e-07 1.6155492e-07
-8.033337e-19 7.75972e-20 -1.3580634e-19 -2.5113196e-19 7.858601e-20 -3.457517e-19 -6.0989014e-19 -2.5654593e-19
5.0856485e-15 4.6016594e-15 5.6756717e-15 3.8878414e-15 1.7054062e-15 3.614396e-15 5.4641515e-15 2.7018301e-15
-6.8001216e-10 -6.7119565e-10 -6.771177e-10 -6.8611117e-10 -6.8162925e-10 -6.8414807e-10 -6.6568406e-10 -6.7900185e-10
-7.2875327e-16 -7.659118e-16 -8.6294155e-16 -8.542635e-16 -7.8442594e-16 -8.015994e-16 -8.2905065e-16 -8.601499e-16
-6.2915916e-11 -6.3357174e-11 -6.449492e-11 -6.354891e-11 -6.39808e-11 -6.306394e-11 -6.42725e-11 -6.4104375e-11
-9.054612e-12 -8.948792e-12 -9.014698e-12 -9.125489e-12 -9.224006e-12 -9.11144e-12 -8.989877e-12 -9.42889e-12
-8.7664325e-14 -8.5842595e-14 -8.679195e-14 -8.837433e-14 -8.904964e-14 -8.6585754e-14 -8.845048e-14 -8.890665e-14
-5.180148e-15 -4.6815985e-15 -4.68232e-15 -4.9217497e-15 -5.327579e-15 -5.2539116e-15 -4.7746493e-15 -5.3667457e-15

lstm.weight_hh_l0_reverse f4 [256, 64]
00000000: 37ff 8d99 61a0 509a 4081 6b9f c0b0 f59d
00000010: 4c9a d019 93bc d49a 8891 311e 00ac 769f
00000020: a023 b91d c8b1 529c 0031 2d1b 7e8b e69d
00000030: c298 599c 30b9 071c 2adb d11e ea65 9a9d
00000040: a757 b59c fccf 7b1e 8342 441d cc0f 3a98
00000050: b8ef 4d1d 8707 ea9d b29f 391c 42cd 0e21
00000060: e4e2 c497 7c4d 6f1b 257c db9f 95a2 561a
00000070: 2b87 b41e df87 029e f6a6 e71b 9249 781b
00000080: 8058 039e 4b08 b19c 7517 1e9b 321f bd1d
00000090: 925c 5a9b 12ee 329b 71e9 b899 13eb 071b
000000a0: 753a ab9b 5d01 7418 8e65 a69c 3d89 049c
000000b0: 877e 381f 1444 a61b b099 d21b 96f8 0f9b
000000c0: 258a 6219 ac8c a39c 7239 801d 0865 c71b
000000d0: 05fb 4620 3c36 0e1d fa6e 051b 2b3d be1d
000000e0: 49fa 869d 4636 a31f 8e8a 199c 31ca 5619
000000f0: a6e7 d396 0cfd a99c a883 ed9b 79f3 1f20
00000100: 5e13 db99 d7c5 0619 faf3 671e a297 b51d
00000110: 4672 7e98 fda3 a198 283b b29c b4a3 b91d
00000120: fa1a 111c 351f 151a e86b 449b 8d36 001d
00000130: 1262 4e1c b00c 9a9b efcd 481d 234e 361c
00000140: 9f92 b91b 4aba 969d 8f69 9f9c 8016 fa95
00000150: b393 389c 2a8d 079b 7cfc b29a 74da 67a0
00000160: 2a36 2316 6b07 cc1a 4e70 cb1e ba66 9019
00000170: dfb7 d19d 2cfa 0e1d 401e 289b a6aa 8a9a
00000180: 2814 9a9b 3494 9e9b d4a9 c01a a31a ea9c
00000190: 3c41 c31a 3edc 011a 05cd f898 218c 7c9a
000001a0: 9f70 a71a 3401 4399 3c0c e99b 841a 281b
000001b0: c1b7 c89d 6b24 7c9a ad8c 8c1a 4223 5c19
000001c0: f260 4298 8dcc fa1b e1f2 b19c 517a 771b
000001d0: 325a 761f fe90 e21b a36e f099 c85f 979c
000001e0: ccfb 591d eea3 cf1e 8e20 6d1b 21e4 f298
000001f0: ce5a 8395 ab89 631a b024 6517 a449 ac9d
00000200: 19ae c5a2 820d 9e21 d071 afa6 7a32 8327
00000210: d6b5 0ea2 a282 85a2 0af0 f5a5 74aa 8527
00000220: a384 caa4 d89b 4fa3 0e86 20a4 f904 9fa4
00000230: bacf 12a4 aef7 43a4 a8d1 1926 966f 5125
00000240: 9210 c324 8976 8826 1a87 0725 ccd8 3b21
00000250: aee3 20a5 cc37 2f25 c6b3 45a4 c365 c429
00000260: e6d9 f31f a4af 9922 d031 1f27 90c1 dea2
00000270: ef8d 93a6 4bd1 e225 62b4 23a4 8c6b 0423
00000280: d872 2426 3e41 ec24 d140 95a3 080f 11a3
00000290: 6eeb 0fa3 5c95 ce22 cbdf 41a1 c081 4ea3
000002a0: a07b 6421 821a dda1 d626 2725 6cec 4724
000002b0: 5062 7d25 e83b baa2 f122 1ba4 1466 daa3
000002c0: eff3 c8a0 9795 9c24 bbbd 08a6 18f0 7023
000002d0: baab 1a28 8480 8322 0c2c 8721 c9a8 d3a5
000002e0: e8a4 0f25 a65a fd27 0496 6ea3 0326 c0a1
000002f0: 665b 7b1f 5676 ca24 2bdd ed23 d4d9 c228
00000300: 03bf 0aa4 154c 0ca3 5ea6 1929 16ef b2a8
00000310: 25d0 86a2 fa5a a124 a678 14a8 0489 fc28
00000320: 40d8 8ba7 6487 a025 cfbf 8b25 5d14 8727
00000330: 7f4b 8f26 a906 24a5 fd1c 2aa8 2a87 1e27
00000340: ec87 da25 6807 8fa8 7290 15a7 4d26 0423
00000350: 72ad 87a7 3d3e 8c27 d42c 94a5 0438 33ab
00000360: 122a 9620 5c3d 7aa5 34ee a629 6540 8ca3
00000370: 0838 6aa8 3a09 ca27 2226 d1a5 f359 0ca5
00000380: 0bd0 4027 ae6c 8625 46fa 8a25 a45b 91a7
00000390: 31bf 5125 a7fa 4024 1dd2 03a3 421d 2ba4
000003a0: 9f93 6125 c177 d0a3 e76b 0e25 31af 6a25
000003b0: c26e 23a9 50d7 0ca5 f179 1ba5 934a b625
000003c0: 4057 c0a2 87cc 2d26 a227 1525 ea8d 89a5
000003d0: 6630 cba9 934f 7da6 a55e 31a3 1f2a 96a7
000003e0: baca bc27 6ea7 31a9 38db 0d26 5f4a 6ba3
000003f0: b4ee cf20 b661 0326 e234 f924 cf49 e4a9
-1.4682139e-23 -4.3142945e-23 -4.98701e-20 -6.5033715e-21 2.1569016e-23 -8.79858e-23 9.400397e-21 -5.22348e-20
4.9005928e-21 -6.971295e-22 1.4326057e-22 -6.1024725e-21 -7.199671e-22 4.49071e-22 2.221938e-20 -4.0868837e-21
-1.2000233e-21 1.33308395e-20 2.597477e-21 -2.4047912e-24 2.7255456e-21 -6.1947067e-21 6.1417767e-22 4.838313e-19
-1.2723478e-24 1.9794653e-22 -9.295549e-20 4.4385495e-23 1.9114145e-20 -6.91024e-21 3.832364e-22 2.0537851e-22
-6.953384e-21 -1.1715021e-21 -1.3077033e-22 5.006014e-21 -1.8062448e-22 -1.480074e-22 -1.911944e-23 1.1242895e-22
-2.8327354e-22 3.153695e-24 -1.101121e-21 -4.3852513e-22 3.9068177e-20 2.750639e-22 3.4840904e-22 -1.1909005e-22
1.1711824e-23 -1.0822798e-21 3.3940715e-21 3.2987078e-22 1.6854308e-19 1.8821582e-21 1.103736e-22 5.0355827e-21
-3.5728293e-21 6.912297e-20 -5.080253e-22 1.1104373e-23 -3.423508e-25 -1.1248893e-21 -3.9293442e-22 1.3548382e-19
-2.2651892e-23 6.967591e-24 1.2279491e-20 4.8067086e-21 -3.2886424e-24 -4.178311e-24 -1.1794343e-21 4.9138357e-21
4.801134e-22 3.0837687e-23 -1.6247606e-22 1.6968861e-21 6.8286435e-22 -2.5485362e-22 2.6576245e-21 6.031974e-22
3.0700434e-22 -3.9897288e-21 -1.0549024e-21 -1.01009695e-25 -6.107139e-22 -1.1212551e-22 -7.4026985e-23 -1.9638741e-19
1.3184126e-25 8.438441e-23 2.1539909e-20 1.4930742e-23 -5.5511958e-21 1.892288e-21 -1.3906409e-22 -5.735116e-23
-2.5490189e-22 -2.6234681e-22 7.968371e-23 -1.5491706e-21 8.07555e-23 2.6854485e-23 -6.4313514e-24 -5.2225574e-23
6.925153e-23 -1.0081507e-23 -3.8554523e-22 1.3905202e-22 -5.3129556e-21 -5.2141797e-23 5.812992e-23 1.1380854e-23
-2.5122857e-24 4.1491218e-22 -1.177566e-21 2.0470884e-22 5.2167134e-20 3.7482263e-22 -2.4860104e-23 -1.0017101e-21
2.8849887e-21 2.1984777e-20 1.96147e-22 -6.2785885e-24 -5.3053743e-26 4.7053707e-23 7.4040197e-25 -4.5604164e-21
-5.358129e-18 1.0710072e-18 -1.2173913e-15 3.641453e-15 -1.9340852e-18 -3.6188035e-18 -4.2663382e-16 3.709972e-15
-8.782823e-17 -1.1254494e-17 -3.4808018e-17 -6.896368e-17 -3.1834655e-17 -4.2493678e-17 5.3366676e-16 1.8165667e-16
8.459584e-17 9.469025e-16 1.1755158e-16 6.3644993e-19 -1.3954929e-16 1.5197735e-16 -4.286984e-17 8.7218014e-14
1.03274986e-19 4.16567e-18 2.2092686e-15 -6.0378163e-18 -1.0238645e-15 3.9346573e-16 -3.549778e-17 7.178508e-18
5.705457e-16 1.0245921e-16 -1.6182063e-17 -7.863649e-18 -7.8019e-18 5.5994552e-18 -6.568713e-19 -1.1194758e-17
7.741302e-19 -1.4982559e-18 1.4498099e-16 4.3351504e-17 2.1977562e-16 -5.047883e-18 -3.3639864e-17 -2.3678839e-17
-3.404274e-19 6.790763e-17 -4.744161e-16 1.3061268e-17 8.5859546e-15 3.5643692e-18 9.159615e-19 -3.6717039e-16
1.2459145e-16 7.0319888e-15 -1.2933773e-17 -1.3020488e-18 5.322692e-20 8.7804004e-17 2.578926e-17 2.1632795e-14
-3.0085773e-17 -7.605526e-18 3.4117125e-14 -1.9865657e-14 -3.6541154e-18 6.997674e-17 -8.241812e-15 2.8037041e-14
-3.881471e-15 2.784732e-16 2.424263e-16 3.7492105e-15 9.943082e-16 -1.4226989e-16 -9.4431815e-15 2.2000177e-15
3.7909076e-16 -1.5879401e-14 -2.0756208e-15 7.163845e-18 -3.7658077e-15 3.8925285e-15 -2.5704284e-16 -6.367131e-13
2.5438828e-19 -2.1704833e-16 7.4132025e-14 -1.5206103e-17 -1.3001759e-14 5.6076266e-15 -3.628156e-16 -1.217354e-16
2.6758133e-15 2.331894e-16 2.4108776e-16 -4.034494e-15 1.8192638e-16 4.1845674e-17 -7.1460174e-18 -3.7104497e-17
1.9565655e-16 -2.2602123e-17 1.2353095e-16 2.0355622e-16 -3.6289338e-14 -1.2216015e-16 -1.3485422e-16 3.16225e-16
-5.2134084e-18 6.029862e-16 1.2937118e-16 -2.3861876e-16 -9.023407e-14 -8.788485e-16 -9.615231e-18 -4.167903e-15
5.240028e-15 -3.9447117e-14 4.92163e-16 -1.2755124e-17 3.5225124e-19 4.558218e-16 1.08076123e-16 -1.0138038e-13

lstm.bias_ih_l0_reverse f4 [256]
00000000: 92ba 0828 adf5 9a26 7fe2 0d2f f259 b8af
00000010: 4e38 bda5 c44e 46a7 5b83 23ae c661 a1b0
00000020: bea1 33ad 91d3 9daa 674c 552a 13fb 19ad
00000030: feb4 f8aa 9b7f 21aa 2a2d e4ae 5b04 c5ac
00000040: 095e 34ab cdd4 52af 1c6b a3ac a062 05a1
00000050: 44ce beac 78dc 80ad c7bd 6aaa 01b9 f133
00000060: 7ead dea1 0332 9126 517e 01b1 4669 cda6
00000070: b54f 06af c670 caad a63a 41aa a167 27a8
00000080: 52e2 bdad de33 38ab 9cd8 59a8 9b7d 80ac
00000090: de83 eaa7 44ae 5ba8 0420 1224 68c1 45a7
000000a0: f9f0 2ca9 da95 f624 424c 91a9 4a63 dea9
000000b0: 37ad 9eb0 3e80 90a8 1644 4da9 75ef 1828
000000c0: 58de a3a4 6d13 e4aa 7c21 2cab a0b9 24a9
000000d0: 7f41 01b2 bf7a 22ac a5e4 b726 2acd c0ae
000000e0: cc7f 232d 1ba6 75b0 0779 90aa b9a6 dfa4
000000f0: 2717 25a0 3aba 76ab b2db 6da9 cf9e 8e31
00000100: a568 fa26 4455 8125 2359 ac2f 5daf ba2d
00000110: 2a96 fda4 69f1 44a6 e053 8bad 8998 ecaf
00000120: bf44 26ac df85 a9a9 fffd 1a29 dee6 d4ab
00000130: 8414 5eaa 17ee 44a8 ca58 40ae 58a9 f3ab
00000140: 31c5 5baa 95bf 92ae e6a4 00ac a685 f8a4
00000150: 9efc d4ab 037c 3dac 9988 b7a9 55cf 1b34
00000160: 0e96 04a1 283f 8927 61e0 02b0 a349 01a6
00000170: 2437 35ae 90ab e7ac 935b 6ca9 76bc 2fa7
00000180: da54 dfac ae3a 87a8 e4fb 04a8 e827 0aac
00000190: 3110 69a8 48e5 e324 4233 aba4 70fc 08a6
000001a0: b880 45a5 1e87 eba3 9453 e829 1c3a 18a9
000001b0: 11ef c3af b67c ada7 67da 4627 35d9 1a28
000001c0: 8b3c eda3 eb9e 37aa f032 23ab 566e 40a8
000001d0: 4805 fbb0 17f7 77ab 7b2c eaa4 3d30 27ae
000001e0: 5ca8 f92c aa1d 8c2e 7932 dda9 d58b 35a4
000001f0: 5e87 02a0 b765 9aaa 1de5 b8a8 5f5f a632
00000200: d5ba 03b4 b18c 17b7 6421 65b8 ec9a aaba
00000210: b0ad a6b4 e93d 2139 6baa bfb9 bdf1 c137
00000220: 5a9d 13b8 5106 61b7 9c25 f7b7 cfdf 2ab8
00000230: 83e0 93b8 f65d 85b6 3cb0 dc36 9d24 7fb8
00000240: fc8a 24b7 8b1d 4139 c8b0 1037 c522 e636
00000250: 1c7c ea36 868e 62b9 0a92 b1b7 8f87 bd3a
00000260: 75f3 2535 8070 0a37 7f27 0eb9 0039 13b4
00000270: 53cc b5b7 4957 99b7 00d2 1839 d90e 1436
00000280: 0d53 0cb9 6e35 59b6 0e82 ceb7 2c02 94b7
00000290: 4f08 ed36 b14d bcb4 7dbd e9b7 af82 1936
000002a0: 827d 1fb6 8e87 e2b6 a714 c6b5 a4e9 0136
000002b0: 7fe8 e839 9683 46b7 3c15 6135 dc3c 8ab7
000002c0: f522 cbb5 cf54 99b8 6157 3936 bade 4fb6
000002d0: 2c1c c139 d145 9738 daec b4b5 5f5a 9aba
000002e0: 9cf4 4739 9d4e 2f3a c1fd a537 858b 5237
000002f0: db47 b3b5 d9f3 a3b6 739d 1039 1326 9939
00000300: 91cf 2228 f4dc 2726 5324 aa2e 0464 cbaf
00000310: 6a67 c2a5 e40c 44a7 c506 29ae 7e10 a1b0
00000320: b301 37ad 8d59 9daa 0c38 632a 8800 15ad
00000330: 4c56 d7aa 70d2 35aa 4432 e1ae 239f c2ac
00000340: 0c39 38ab a879 54af 3035 a3ac 16d0 2123
00000350: dfa0 bbac e44d 6cad 01a0 6aaa 3e0e a433
00000360: 6081 a6a1 0330 bf26 8196 f8b0 1a6f eaa6
00000370: 02ee 07af 363e caad 810c 41aa 962e 2aa8
00000380: 60bd bcad fd8e 12ab e598 62a8 687f 83ac
00000390: d255 bda7 9929 57a8 ecd5 3d25 f627 3aa7
000003a0: 8569 30a9 b27a c8a3 6ad4 7e29 13e9 dba9
000003b0: 6d2c 9eb0 d288 86a8 c24c 3da9 60b8 f927
000003c0: 102a a4a4 c848 ebaa 0a00 e6aa 7f98 34a9
000003d0: fcec 00b2 28c4 24ac f263 ca26 afce c1ae
000003e0: b902 1c2d abea 76b0 21c8 8faa cca7 dfa4
000003f0: 718a ef9f 4900 77ab fc82 6da9 2dd1 2d31
7.5899726e-15 1.0752487e-15 1.2904343e-10 -3.3533315e-10 -3.2824427e-16 -2.7520719e-15 -3.7178576e-11 -1.1742081e-09
-1.0210886e-11 -2.8035606e-13 1.8944708e-13 -8.752793e-12 -4.4179238e-13 -1.4343945e-13 -1.03762623e-10 -5.5995603e-12
-6.4079346e-13 -1.9174991e-10 -4.64463e-12 -4.519268e-19 -5.423025e-12 -1.4649823e-11 -2.0849217e-13 1.1256089e-07
-1.5089228e-18 1.0074952e-15 -1.8843773e-09 -1.4253267e-15 -1.2215547e-10 -2.3014823e-11 -1.7162191e-13 -9.292833e-15
-2.1587319e-11 -6.544191e-13 -1.20928895e-14 -3.651924e-12 -6.5091018e-15 -1.219473e-14 3.1685822e-17 -2.7444088e-15
-3.8400683e-14 1.0693935e-16 -6.452522e-14 -9.8760044e-14 -1.1545244e-09 -1.6042828e-14 -4.55782e-14 8.489619e-15
-7.1066647e-17 -4.0514415e-13 -6.1153144e-13 -3.657632e-14 -7.52368e-09 -2.3089722e-12 1.276015e-15 -8.7675936e-11
9.293854e-12 -8.936653e-10 -2.5663518e-13 -9.699327e-17 -1.3983704e-19 -8.76552e-13 -5.2815127e-14 4.1507984e-09
1.7375599e-15 2.243571e-16 3.1349953e-10 2.1223629e-11 -1.0997565e-16 -6.832833e-16 -1.5839718e-11 -4.3036533e-10
-2.362818e-12 -7.5283306e-14 3.4415176e-14 -1.5127585e-12 -1.9724679e-13 -1.0931813e-14 -4.3734606e-11 -1.7313191e-12
-1.9519522e-13 -6.673343e-11 -1.828143e-12 -1.07779265e-16 -1.5133621e-12 -2.6927356e-12 -8.1505285e-14 1.4510927e-07
-4.4921935e-19 3.8093613e-15 -4.7612586e-10 -4.485566e-16 -4.120361e-11 -6.584462e-12 -5.2481955e-14 -2.4388294e-15
-6.3474616e-12 -1.5013459e-14 -7.382092e-15 -1.9633132e-12 -1.2937609e-14 9.8833975e-17 -7.424626e-17 -4.7526595e-16
-1.7130638e-16 -2.5535975e-17 1.0317368e-13 -3.3801182e-14 -3.564016e-10 -4.8152358e-15 2.7596416e-15 8.5958166e-15
-2.5721232e-17 -1.6308801e-13 -5.7979923e-13 -1.0682066e-14 -1.8264155e-09 -8.8094934e-13 -1.01556676e-16 -3.8014248e-11
7.0956973e-12 6.371732e-11 -9.823127e-14 -3.936656e-17 -1.1056218e-19 -2.7426474e-13 -2.0527466e-14 1.9368313e-08
-1.2268295e-07 -9.033059e-06 -5.4628952e-05 -0.0013016141 -3.1046284e-07 0.0001537722 -0.0003655733 2.3119961e-05
-3.5194076e-05 -1.3412516e-05 -2.9462208e-05 -4.0739596e-05 -7.051325e-05 -3.9746474e-06 6.5770273e-06 -6.0830836e-05
-9.807522e-06 0.0001841692 8.624229e-06 6.858582e-06 6.9881917e-06 -0.00021606134 -2.1168049e-05 0.0014459955
6.1821567e-07 8.251634e-06 -0.00013556889 -1.3711178e-07 -2.1672027e-05 -1.8279667e-05 0.0001457408 2.206236e-06
-0.00013382379 -3.236662e-06 -2.4617675e-05 -1.7643986e-05 7.0641177e-06 -3.5074257e-07 -2.7864002e-05 2.2874844e-06
-2.3765901e-06 -6.7511055e-06 -1.475816e-06 1.9358495e-06 0.0004442371 -1.1832357e-05 8.384993e-07 -1.6479222e-05
-1.5134852e-06 -7.311405e-05 2.761801e-06 -3.0975048e-06 0.00036832818 7.2132454e-05 -1.3479978e-06 -0.00117762
0.00019069243 0.00066874345 1.9787696e-05 1.254946e-05 -1.3357452e-06 -4.886166e-06 0.00013791565 0.00029210802
9.037815e-15 5.823921e-16 7.7371574e-11 -3.699655e-10 -3.3723712e-16 -2.7207452e-15 -3.8432164e-11 -1.1718979e-09
-1.0402723e-11 -2.795094e-13 2.0181095e-13 -8.469787e-12 -3.8251553e-13 -1.614904e-13 -1.02407444e-10 -5.5314794e-12
-6.54491e-13 -1.9324509e-10 -4.6386436e-12 8.771891e-18 -5.33272e-12 -1.3432342e-11 -2.0838888e-13 7.639436e-08
-1.1282843e-18 1.3266301e-15 -1.8087151e-09 -1.6267126e-15 -1.2362736e-10 -2.2992368e-11 -1.7146182e-13 -9.4469974e-15
-2.1457225e-11 -5.2068056e-13 -1.2578674e-14 -3.737389e-12 -5.2551084e-15 -1.19439176e-14 1.6465616e-16 -2.5834348e-15
-3.9171374e-14 -2.1736007e-17 5.658357e-14 -9.7659856e-14 -1.150864e-09 -1.4936325e-14 -4.2033007e-14 6.9311283e-15
-7.119492e-17 -4.1794888e-13 -4.0856234e-13 -4.0100298e-14 -7.504465e-09 -2.341469e-12 1.4043656e-15 -8.813338e-11
8.868178e-12 -8.982776e-10 -2.554077e-13 -9.699509e-17 -1.0144947e-19 -8.7752424e-13 -5.2738182e-14 2.5293716e-09
