vae_best_trial_0.pth (torch, 177671 bytes, 22 tensors)

encoder.0.weight f4 [128, 8]
0	0x81d70be8	-7.899561e-38
1	0x81dda2ed	-8.1416366e-38
2	0x8216a134	-1.1066523e-37
3	0x822a5b01	-1.2515744e-37
4	0x826a07ef	-1.7193882e-37
5	0x82439e81	-1.4371826e-37
6	0x8235ebf4	-1.3365495e-37
7	0x819c0d50	-5.732445e-38
8	0x0e64793c	2.8161542e-30
9	0x82244cf4	-1.2070902e-37
10	0x82f9bd4d	-3.6695915e-37
11	0x02293f4d	1.2434326e-37
12	0x02d05128	3.0609435e-37
13	0x02c58900	2.9025183e-37
14	0x01c05612	7.0653166e-38
15	0x82825c46	-1.9154746e-37
16	0x82e51c72	-3.3664853e-37
17	0x828d59aa	-2.0769553e-37
18	0x82c3dfca	-2.8781123e-37
19	0x82c34362	-2.869135e-37
20	0x82de7ffd	-3.269343e-37
21	0x82ef2c68	-3.5143382e-37
22	0x82bbf31b	-2.7616716e-37
23	0x82af6ac5	-2.5775222e-37
24	0x02e0d582	3.303639e-37
25	0x011461ee	2.7253568e-38
26	0x02e684bb	3.3871646e-37
27	0x82e724da	-3.3963551e-37
28	0x0206d0d1	9.904693e-38
29	0x82fa7a69	-3.6804458e-37
30	0x02e39a5e	3.3443255e-37
31	0x82c537d1	-2.8978585e-37
32	0xa4a359b8	-7.084197e-17
33	0xa0a844b1	-2.8505763e-19
34	0x1f73a624	5.159468e-20
35	0x22180e79	2.0607503e-18
36	0xa18cca2c	-9.540283e-19
37	0xa43018d8	-3.818496e-17
38	0x22890772	3.7141807e-18
39	0x27ba8230	5.176652e-15
40	0x02515597	1.5379458e-37
41	0x02e6a44e	3.3889769e-37
42	0x82c74f2a	-2.928586e-37
43	0x023cbb30	1.3865779e-37
44	0x02434125	1.4345033e-37
45	0x0250a7cc	1.5329582e-37
46	0x02592c3c	1.5955337e-37
47	0x02640ed7	1.6755053e-37
48	0x9d18a8d8	-2.0204323e-21
49	0x01b6a39e	6.709102e-38
50	0x02f894ba	3.652569e-37
51	0x02ad3110	2.5448226e-37
52	0x826f721b	-1.7591694e-37
53	0x801018f4	-1.47832e-39
54	0x82c792ca	-2.9324675e-37
55	0x830110a4	-3.7928795e-37
56	0x02a61bdb	2.4407496e-37
57	0x02aac3f1	2.509172e-37
58	0x02bd7596	2.7838545e-37
59	0x02ad389d	2.545256e-37
60	0x029b902c	2.2857954e-37
61	0x02ac54c7	2.5321788e-37
62	0x02b18684	2.608502e-37
63	0x0290e2fa	2.1289176e-37
64	0x82dcf7a2	-3.246823e-37
65	0x82b3f040	-2.6439583e-37
66	0x8282ab4f	-1.920011e-37
67	0x800adb08	-9.96929e-40
68	0x80648edc	-9.234798e-39
69	0x02d20770	3.0860996e-37
70	0x828c710e	-2.0636041e-37
71	0x006d2866	1.0024561e-38
72	0xa3b55ac9	-1.9662508e-17
73	0x0284091d	1.9400888e-37
74	0x82de434b	-3.2658593e-37
75	0x802e865f	-4.272636e-39
76	0x81fe5f9e	-9.344207e-38
77	0x87832c17	-1.9736603e-34
78	0x0213b76f	1.0852497e-37
79	0x82047629	-9.731739e-38
80	0x02ec2cf6	3.470289e-37
81	0x02e3e920	3.348846e-37
82	0x028d93d7	2.0802944e-37
83	0x02ea991a	3.4471086e-37
84	0x02efa03b	3.5209862e-37
85	0x02fde885	3.7308469e-37
86	0x0300fbb4	3.790476e-37
87	0x02ef2c6c	3.514339e-37
88	0x31b5f207	5.2953086e-09
89	0x0c0d1b1f	1.0870406e-31
90	0x8da20846	-9.986013e-31
91	0x16f2042a	3.9099837e-25
92	0x9418671a	-7.694372e-27
93	0xa654bb61	-7.380622e-16
94	0x0d26c7c3	5.1393154e-31
95	0x111d572d	1.2411979e-28
96	0x0291ed72	2.1442122e-37
97	0x026de799	1.7478475e-37
98	0x024f37c2	1.522396e-37
99	0x01d13bc5	7.686024e-38
100	0x028f5052	2.1058063e-37
101	0x00970aac	1.3870988e-38
102	0x0226787d	1.2230332e-37
103	0x02785c28	1.824661e-37
104	0x82dd30b0	-3.2500977e-37
105	0x82c431ed	-2.8828268e-37
106	0x82ddc380	-3.2585243e-37
107	0x82a20ece	-2.3812258e-37
108	0x82c8f855	-2.9529894e-37
109	0x82cd64a8	-3.0179817e-37
110	0x82d9f3f8	-3.2025315e-37
111	0x82ca5f46	-2.9735917e-37
112	0x82419a3b	-1.4223663e-37
113	0x02fa8d34	3.6815245e-37
114	0x02ea50ff	3.44297e-37
115	0x02dc771a	3.2394456e-37
116	0x02c07a08	2.8281907e-37
117	0x028c8c2f	2.0651613e-37
118	0x02e2ccb8	3.3325218e-37
119	0x02e32505	3.33759e-37
120	0x02ed041e	3.4826383e-37
121	0x03006c32	3.774002e-37
122	0x02c84d52	2.9431738e-37
123	0x02e6eda2	3.3931857e-37
124	0x02eef519	3.5111636e-37
125	0x02ec3430	3.4707038e-37
126	0x02b42ce6	2.6474393e-37
127	0x02e8a93d	3.4186474e-37
128	0x8219e069	-1.1305067e-37
129	0x24d72e5a	9.331991e-17
130	0xa80cfb5f	-7.826069e-15
131	0x1b53fa51	1.7534393e-22
132	0x9be07ce2	-3.7138395e-22
133	0x823bbf0b	-1.3793417e-37
134	0x9a303a65	-3.6443118e-23
135	0x1ac0a2a1	7.967208e-23
136	0x82a3c0a8	-2.4061277e-37
137	0x82bf78b4	-2.8134208e-37
138	0x82df3408	-3.279677e-37
139	0x826362c0	-1.6705666e-37
140	0x82503e7d	-1.529936e-37
141	0x824f7996	-1.5242852e-37
142	0x82b1eb63	-2.6142918e-37
143	0x82abd6f1	-2.5249562e-37
144	0x82047775	-9.732111e-38
145	0x02d03843	3.0595146e-37
146	0x815c9092	-4.0511342e-38
147	0x81d6a87a	-7.8852937e-38
148	0x001e96bb	2.809137e-39
149	0x81e4a529	-8.3990966e-38
150	0x8291a7c0	-2.140212e-37
151	0x02e5940b	3.3733498e-37
152	0x95a026b3	-6.468454e-26
153	0x23995e9d	1.6628364e-17
154	0x9f87d351	-5.752432e-20
155	0xa2989b7c	-4.136431e-18
156	0x235a83ba	1.1845698e-17
157	0x9f0b61be	-2.9515245e-20
158	0xa20d8769	-1.9180749e-18
159	0x1dffd9c3	6.77231e-21
160	0x0e79aae8	3.0773908e-30
161	0x820a1c27	-1.0146718e-37
162	0x82d2c0c4	-3.0967369e-37
163	0x02d9fecf	3.2031537e-37
164	0x02acdfc1	2.5401557e-37
165	0x02cf6bdb	3.0477822e-37
166	0x82b05d6e	-2.5914502e-37
167	0x82aa8335	-2.5054564e-37
168	0x80cef2d6	-1.9005225e-38
169	0x001d4590	2.688184e-39
170	0x81c7d5d5	-7.340789e-38
171	0x025c2580	1.6173809e-37
172	0x02780256	1.8220833e-37
173	0x81e428ef	-8.381271e-38
174	0x012ec420	3.2099465e-38
175	0x00eb17e0	2.1589906e-38
176	0x02d75f5b	3.1646142e-37
177	0x02bfc1a2	2.8176067e-37
178	0x02f7b399	3.6396472e-37
179	0x82e66e8f	-3.385892e-37
180	0x82bcf5ad	-2.7765128e-37
181	0x02a72f16	2.456547e-37
182	0x82fb9771	-3.6968058e-37
183	0x02dda0b1	3.2565264e-37
184	0x8247b265	-1.4671408e-37
185	0x824a4a5a	-1.4861954e-37
186	0x822ec701	-1.2840612e-37
187	0x824d648c	-1.5089877e-37
188	0x822aa4bf	-1.2536907e-37
189	0x82e976c8	-3.430445e-37
190	0x8226bad3	-1.224937e-37
191	0x823b0bc0	-1.3741962e-37
192	0x02ab4500	2.5165796e-37
193	0x02ecd00f	3.4796503e-37
194	0x02d6eeb0	3.1581474e-37
195	0x02dda247	3.2566174e-37
196	0x02f09d1d	3.535501e-37
197	0x02d2b314	3.0959513e-37
198	0x02fd037a	3.7177004e-37
199	0x02ca5eb8	2.9735598e-37
200	0x94a5259d	-1.6675578e-26
201	0x1ac6555f	8.2028805e-23
202	0x9fce07db	-8.725739e-20
203	0x189cf396	4.0571014e-24
204	0x98a7b096	-4.3346794e-24
205	0x0a96e27e	1.4529671e-32
206	0x15166258	3.0369838e-26
207	0x8f783cf3	-1.22390824e-29
208	0x81436066	-3.5885006e-38
209	0x02c63e3e	2.912921e-37
210	0x02fe6833	3.7381753e-37
211	0x82be6fc3	-2.798214e-37
212	0x82c43630	-2.8830714e-37
213	0x82e65172	-3.384221e-37
214	0x82c4fa58	-2.8943302e-37
215	0x02b91763	2.719673e-37
216	0x82d214b9	-3.086862e-37
217	0x82b12f74	-2.603505e-37
218	0x82907477	-2.1225746e-37
219	0x82a62b70	-2.441644e-37
220	0x82f25caf	-3.5611902e-37
221	0x82bb50aa	-2.752348e-37
222	0x82f2f2d1	-3.5698074e-37
223	0x02c7e70c	2.9373036e-37
224	0x028bfa6b	2.0567947e-37
225	0x029bcb26	2.2891805e-37
226	0x029dadf6	2.3168925e-37
227	0x028fa4b5	2.1106499e-37
228	0x0298bba9	2.2442104e-37
229	0x02d27124	3.0921666e-37
230	0x029d47ae	2.3110219e-37
231	0x028a5842	2.0327935e-37
232	0x1434de87	9.1315634e-27
233	0x9669f605	-1.889922e-25
234	0x99869fee	-1.391987e-23
235	0x183e5cd0	2.4603783e-24
236	0xa0a6c66a	-2.8252793e-19
237	0x9535b0e3	-3.6692198e-26
238	0x177bf63a	8.1413256e-25
239	0x9f759c29	-5.200994e-20
240	0x816b387d	-4.3203212e-38
241	0x82756d82	-1.8031184e-37
242	0x82e50332	-3.365036e-37
243	0x8264c98c	-1.6808636e-37
244	0x8235fe67	-1.337079e-37
245	0x82ea55ef	-3.4432533e-37
246	0x825b5f19	-1.6116871e-37
247	0x827d455c	-1.860741e-37
248	0x02f4febb	3.5998786e-37
249	0x82d444a5	-3.119e-37
250	0x815342c7	-3.880249e-38
251	0x006e17ab	1.0110395e-38
252	0x02e09906	3.3001673e-37
253	0x82ba2da9	-2.7356451e-37
254	0x02bc9995	2.771227e-37
255	0x818eafee	-5.241501e-38

encoder.0.bias f4 [128]
0	0x01e8bb54	8.5492143e-38
1	0x804f681a	-7.292349e-39
2	0x029ef8de	2.3358856e-37
3	0x8265f968	-1.6895839e-37
4	0xb075baa7	-8.939573e-10
5	0x82ef1672	-3.5130777e-37
6	0x81c7c778	-7.338728e-38
7	0x02d8a232	3.1831443e-37
8	0x0239f0b4	1.3660732e-37
9	0x02b34522	2.6341366e-37
10	0x01b15858	6.51463e-38
11	0x825ebd09	-1.6364235e-37
12	0x019adde0	5.688904e-38
13	0x0301d9dd	3.8159788e-37
14	0x820b6be2	-1.0243068e-37
15	0x0097c188	1.3936586e-38
16	0x8249950e	-1.4809924e-37
17	0x09e2e052	5.461847e-33
18	0x8287478e	-1.9877538e-37
19	0x260ca7bd	4.8799585e-16
20	0x8111dc04	-2.6790147e-38
21	0x82693836	-1.7134268e-37
22	0x01e39b5a	8.360955e-38
23	0x80f60ef6	-2.2596899e-38
24	0x820cc9c1	-1.0343476e-37
25	0x283122fd	9.833061e-15
26	0x01a6d63e	6.128619e-38
27	0x02ee268f	3.4993088e-37
28	0x811920b8	-2.8125136e-38
29	0x2fa1450a	2.9334785e-10
30	0x02eb65f1	3.4588658e-37
31	0x026e1780	1.7492223e-37
32	0x81ee1dd4	-8.7470194e-38
33	0x0010615e	1.504297e-39
34	0x01317284	3.2591927e-38
35	0x8266a0ac	-1.6943842e-37
36	0x011770a6	2.781514e-38
37	0x02c910cc	2.9543936e-37
38	0x82b8f0c0	-2.7174554e-37
39	0x82c97978	-2.9604015e-37
40	0x8226b07d	-1.2246404e-37
41	0xb643e194	-2.9188568e-06
42	0x828b6ae1	-2.048556e-37
43	0x0286c453	1.9802215e-37
44	0x82b12ec0	-2.6034646e-37
45	0x0252defe	1.5492359e-37
46	0x82f0d768	-3.5388468e-37
47	0x0283e4da	1.9380074e-37
48	0x82bb1f40	-2.7495117e-37
49	0x8206728b	-9.877637e-38
50	0x80126b60	-1.691558e-39
51	0x02cb5a85	2.9880125e-37
52	0x82c6c8b6	-2.9208688e-37
53	0x81ce0dee	-7.5692437e-38
54	0xae4c586e	-4.646277e-11
55	0x82a3658d	-2.4008985e-37
56	0x82a92290	-2.4852156e-37
57	0x02dc5fb3	3.2381023e-37
58	0x013e7a98	3.4985445e-38
59	0x80b68ba8	-1.676416e-38
60	0x828fd71a	-2.1135424e-37
61	0xb04488c6	-7.149875e-10
62	0x022a0f68	1.2494049e-37
63	0xb4e3d6d1	-4.2438344e-07
64	0x02b98c98	2.7264004e-37
65	0x027906b3	1.8295553e-37
66	0x81414eb0	-3.5504957e-38
67	0x82c62896	-2.911678e-37
68	0x020e4862	1.0453285e-37
69	0x02d5f8f2	3.1440425e-37
70	0x0032a8cc	4.652328e-39
71	0x0181afb8	4.763926e-38
72	0x012532c8	3.0342147e-38
73	0x00fed528	2.3402682e-38
74	0x82d8fb57	-3.188261e-37
75	0x828aedd2	-2.041378e-37
76	0x0209b2a7	1.0116441e-37
77	0x8242f120	-1.4322068e-37
78	0x0241ba72	1.4232908e-37
79	0x03a75a6c	9.836138e-37
80	0x029dffb6	2.3215848e-37
81	0x828b1505	-2.043628e-37
82	0x002c2178	4.052768e-39
83	0x8298f774	-2.2476424e-37
84	0x0b414425	3.7221714e-32
85	0x8169a746	-4.2915354e-38
86	0x019deddf	5.801402e-38
87	0x82186fb0	-1.1199249e-37
88	0x82a9bd20	-2.494087e-37
89	0x82c2a94f	-2.8602916e-37
90	0xb68ba4d3	-4.161711e-06
91	0x02a7b7bf	2.464391e-37
92	0x001fa7b8	2.907067e-39
93	0x82bbb11f	-2.7578843e-37
94	0x8238d13c	-1.3578232e-37
95	0x028c539c	2.061914e-37
96	0x026d2161	1.7421589e-37
97	0x90449856	-3.877154e-29
98	0x02a5778c	2.4313188e-37
99	0x80869020	-1.2357659e-38
100	0x8ffe3f45	-2.5070704e-29
101	0x81890485	-5.0332337e-38
102	0x13032bce	1.6556122e-27
103	0x82bc6862	-2.768403e-37
104	0x82e976c2	-3.4304437e-37
105	0xa99e5aed	-7.0323826e-14
106	0x81871dcc	-4.9633924e-38
107	0x001cafd8	2.634475e-39
108	0x82808bb6	-1.88881e-37
109	0x02a062be	2.3566562e-37
110	0x2900c140	2.8589327e-14
111	0x82bc5814	-2.7674672e-37
112	0x028a6d2d	2.0339941e-37
113	0x02689142	1.7086355e-37
114	0x81694368	-4.2843703e-38
115	0x813322c6	-3.2902056e-38
116	0x80c4ca20	-1.8072266e-38
117	0x023f4fec	1.40554e-37
118	0x021b7d21	1.1423512e-37
119	0x8266a1fc	-1.6944219e-37
120	0x82f0893c	-3.53436e-37
121	0x02381a07	1.3525655e-37
122	0x002b3564	3.968079e-39
123	0x023aa806	1.3713342e-37
124	0x8433b825	-2.1125904e-36
125	0x81d155f8	-7.6897834e-38
126	0x82640338	-1.6751718e-37
127	0x2f4a0268	1.8372648e-10

encoder.2.weight f4 [128]
0	0x15427d63	3.92769e-26
1	0x829895ff	-2.2420486e-37
2	0x829a935c	-2.2712846e-37
3	0x82933fcc	-2.1636326e-37
4	0x13aca155	4.357799e-27
5	0x8293bf7b	-2.1709613e-37
6	0x2409d201	2.988502e-17
7	0x0c5316c6	1.6261702e-31
8	0x829c4aab	-2.2964997e-37
9	0x20460ef8	1.6776205e-19
10	0x1c1c06bb	5.162477e-22
11	0x24ea1d4c	1.01530954e-16
12	0x189c856d	4.045978e-24
13	0x829ee667	-2.3348258e-37
14	0x8298a5a8	-2.2429475e-37
15	0x0ae5b532	2.2120056e-32
16	0x2abcda33	3.3546915e-13
17	0x0dbd4115	1.1663692e-30
18	0x82906583	-2.1217163e-37
19	0x2571aea6	2.0962591e-16
20	0x829f85dc	-2.3439782e-37
21	0x0fa8fc46	1.6663251e-29
22	0x0904a829	1.596799e-33
23	0x12280fd2	5.3030953e-28
24	0x19784029	1.28342565e-23
25	0x1f722644	5.1277146e-20
26	0x82957adf	-2.1964107e-37
27	0x045dfd59	2.6094757e-36
28	0x24afe071	7.627437e-17
29	0x82983eb8	-2.2370391e-37
30	0x829a4ac2	-2.2671175e-37
31	0x8293dd4f	-2.1726734e-37
32	0x071a6db3	1.161791e-34
33	0x1a002bf0	2.6505272e-23
34	0x1f13d79d	3.1306812e-20
35	0x829ed7d5	-2.3339895e-37
36	0x2378858f	1.3472389e-17
37	0x8296ffe0	-2.2187384e-37
38	0x2762124b	3.1373717e-15
39	0x828f7afa	-2.1082547e-37
40	0x0d1be66b	4.804042e-31
41	0x226ae3ac	3.1833442e-18
42	0x153434c6	3.639234e-26
43	0x11046639	1.0444464e-28
44	0x82946e8a	-2.1810092e-37
45	0x2d947eda	1.6881985e-11
46	0x14a69f63	1.6824583e-26
47	0x829bdf0e	-2.290323e-37
48	0x0baef9a3	6.7397974e-32
49	0x8299cd42	-2.2599142e-37
50	0x82a2fcec	-2.394893e-37
51	0x067ca648	4.7518096e-35
52	0x0bc6243c	7.6321345e-32
53	0x828da1fa	-2.0811058e-37
54	0x829aa5e4	-2.2723483e-37
55	0x1b561816	1.7709448e-22
56	0x829b0586	-2.2778373e-37
57	0x82a1dc96	-2.3783434e-37
58	0x189e75ee	4.096112e-24
59	0x08744d1e	7.351673e-34
60	0x17e2468e	1.4622718e-24
61	0x82904285	-2.1197079e-37
62	0x828c2c37	-2.059653e-37
63	0x1084e76d	5.242139e-29
64	0x1ec53627	2.0880583e-20
65	0x82998d6a	-2.2562497e-37
66	0x8289e248	-2.026022e-37
67	0x2111e8e0	4.943612e-19
68	0x18ceca49	5.3454008e-24
69	0x8299a426	-2.2575546e-37
70	0x0c464aaf	1.527584e-31
71	0x222f0b0f	2.3722777e-18
72	0x1d15605b	1.97698e-21
73	0x03905ef1	8.485357e-37
74	0x21d57115	1.4463374e-18
75	0x28279d29	9.304441e-15
76	0x10209cc6	3.167521e-29
77	0x255d7d34	1.9211115e-16
78	0x089ce197	9.441944e-34
79	0x828f35af	-2.1042774e-37
80	0x0eba8af0	4.5986332e-30
81	0x173d7266	6.1213585e-25
82	0x8295cad4	-2.201e-37
83	0x25e8844f	4.033524e-16
84	0x2056745e	1.8165008e-19
85	0x82913410	-2.1335718e-37
86	0x82935ac7	-2.1651812e-37
87	0x171788f4	4.896359e-25
88	0x82971997	-2.2202144e-37
89	0x8295cf51	-2.2012576e-37
90	0x2fcb5a1e	3.6989517e-10
91	0x829cc388	-2.303437e-37
92	0x179bd4ac	1.0070326e-24
93	0x829e1da9	-2.3233038e-37
94	0x828c97b4	-2.0658224e-37
95	0x2c9d6033	4.4728886e-12
96	0x8290d94b	-2.1283618e-37
97	0x12f69a72	1.5562856e-27
98	0x26992058	1.0625274e-15
99	0x82920062	-2.1452992e-37
100	0x347be769	2.3460383e-07
101	0x829ea649	-2.3311456e-37
102	0x0f03b5ef	6.493838e-30
103	0x829e9549	-2.33017e-37
104	0x82967a9a	-2.211089e-37
105	0x829b1d28	-2.2791938e-37
106	0x1b8a365e	2.286532e-22
107	0x0df3177f	1.4981688e-30
108	0x8292c3cd	-2.1565156e-37
109	0x1a634667	4.699937e-23
110	0x16936e55	2.381876e-25
111	0x25e69a43	4.0003172e-16
112	0x111d68d7	1.2417422e-28
113	0x1136565c	1.438388e-28
114	0x82974384	-2.2226208e-37
115	0x8296ed3e	-2.217669e-37
116	0x278ec528	3.9626675e-15
117	0x829ddd1e	-2.3195992e-37
118	0x829918d7	-2.2495587e-37
119	0x27668e56	3.1996072e-15
120	0x834836f1	-5.8837787e-37
121	0x2f842133	2.403425e-10
122	0x23a16d44	1.750193e-17
123	0x829cca28	-2.3038172e-37
124	0x04fef6ae	5.9941653e-36
125	0x24b44a35	7.818827e-17
126	0x82912f32	-2.1332924e-37
127	0x332ef5d7	4.0736122e-08

encoder.2.bias f4 [128]
0	0x81d95982	-7.984165e-38
1	0x82261c7c	-1.2203929e-37
2	0x805499a0	-7.769292e-39
3	0x00a64be8	1.5271922e-38
4	0x028862c4	2.0040093e-37
5	0x018b149b	5.1090103e-38
6	0x02885916	2.0034537e-37
7	0x012aa6bc	3.1343695e-38
8	0x003253a4	4.62178e-39
9	0x93e4a8b2	-5.7721638e-27
10	0x023cef8f	1.3880809e-37
11	0x821efeab	-1.1681093e-37
12	0x00c2fa94	1.7905977e-38
13	0x8649ee2b	-3.7978877e-35
14	0x81299ba0	-3.1152053e-38
15	0x01502d7c	3.82362e-38
16	0x9105a9d3	-1.0544181e-28
17	0x1965fcc2	1.18900666e-23
18	0x022b8251	1.2600495e-37
19	0x10bef6f8	7.53223e-29
20	0x8279fb14	-1.8365687e-37
21	0x020fa95b	1.0554583e-37
22	0x90ed1198	-9.3507125e-29
23	0x01753ac4	4.5041555e-38
24	0x825c36d2	-1.617878e-37
25	0x82b7ce48	-2.7007833e-37
26	0x8268fd50	-1.7117365e-37
27	0x824af608	-1.4911224e-37
28	0x0445f336	2.3268916e-36
29	0x82cd1547	-3.0134255e-37
30	0x01ec931e	8.690381e-38
31	0x8125f4b4	-3.048128e-38
32	0x81d94914	-7.981807e-38
33	0x81f341d6	-8.935857e-38
34	0x07291e49	1.2723047e-34
35	0x0261dc6c	1.6593647e-37
36	0x94acdf3c	-1.7455612e-26
37	0x8081632c	-1.1882355e-38
38	0x8795515c	-2.2466847e-34
39	0x0166d4ba	4.2396952e-38
40	0x82cbea12	-2.996252e-37
41	0x0840f300	5.8063543e-34
42	0x91bbcc2b	-2.9629226e-28
43	0x02b39823	2.6389008e-37
44	0x022b660f	1.2592385e-37
45	0x97c60675	-1.279708e-24
46	0x0111123e	2.6645382e-38
47	0x81c7a382	-7.3335677e-38
48	0x8224a6b8	-1.2096663e-37
49	0x97ae7ed5	-1.1276503e-24
50	0x8139066c	-3.398374e-38
51	0x012e2a08	3.198891e-38
52	0x822cc94a	-1.2694331e-37
53	0x8188dad8	-5.0272535e-38
54	0x0235254d	1.3308485e-37
55	0x018fdb2a	5.284439e-38
56	0x80b9e4ee	-1.7071691e-38
57	0x020f1da3	1.0514486e-37
58	0x0297e908	2.232121e-37
59	0x02914a89	2.1348616e-37
60	0x02a28da7	2.3885065e-37
61	0x01a7a8e1	6.158844e-38
62	0x8539bc50	-8.733246e-36
63	0x827b382e	-1.845669e-37
64	0x827c36cc	-1.8529762e-37
65	0x828658ca	-1.9740493e-37
66	0x01107d88	2.6538687e-38
67	0x00060344	5.52184e-40
68	0x0257c684	1.5852677e-37
69	0x02c43f8d	2.8836088e-37
70	0x1825a696	2.1409855e-24
71	0x8b27a6b6	-3.228845e-32
72	0x01e6d9b7	8.480106e-38
73	0x014a3baa	3.7144347e-38
74	0x0289d5e6	2.0253112e-37
75	0x9ae4c5a9	-9.461793e-23
76	0x1b94a56b	2.4591445e-22
77	0x8266115f	-1.6902717e-37
78	0x01ca77a1	7.437474e-38
79	0x009a229c	1.4155082e-38
80	0x9a315b0c	-3.667629e-23
81	0x821b9d95	-1.1432825e-37
82	0x0179a6a4	4.5853636e-38
83	0x01fb253f	9.2256284e-38
84	0x01d1a1c8	7.700662e-38
85	0x80c40195	-1.8000325e-38
86	0x81cf09c0	-7.605378e-38
87	0x8244340c	-1.4414743e-37
88	0x024ba926	1.4962628e-37
89	0x01ee70ee	8.758944e-38
90	0x1505b201	2.6999556e-26
91	0x02830796	1.9253074e-37
92	0x811d5fbc	-2.8905032e-38
93	0x01352456	3.327052e-38
94	0x822fff75	-1.2930282e-37
95	0x9002d134	-2.5799144e-29
96	0x022fe989	1.2923991e-37
97	0x01c9a9ae	7.407922e-38
98	0x08cb15cf	1.2222745e-33
99	0x0230bda8	1.2984867e-37
100	0x9dca403b	-5.3535368e-21
101	0x01f205a3	8.890485e-38
102	0x815a6d1e	-4.0118564e-38
103	0x81081a40	-2.4998088e-38
104	0x8121db5a	-2.9728407e-38
105	0x83917834	-8.549931e-37
106	0x820de5e8	-1.0425024e-37
107	0x176f7422	7.7371645e-25
108	0x82a2d786	-2.3927465e-37
109	0x13af55c3	4.426078e-27
110	0x81452c4a	-3.621496e-38
111	0x8446e840	-2.3381432e-36
112	0x8e098df3	-1.69549e-30
113	0x01f23a6e	8.89806e-38
114	0x013090d8	3.2430015e-38
115	0x8196b565	-5.5361586e-38
116	0x8280b4be	-1.891165e-37
117	0x823f03db	-1.403357e-37
118	0x02d1b363	3.0812753e-37
119	0x11ecb1ee	3.7343892e-28
120	0x00e442ac	2.096241e-38
121	0x0f091258	6.7581544e-30
122	0x07e0e398	3.3837542e-34
123	0x02a262a4	2.3860378e-37
124	0x022f86cc	1.2895654e-37
125	0x827eca9e	-1.8719121e-37
126	0x807d6c74	-1.1518343e-38
127	0x17b62c07	1.1772588e-24

encoder.2.running_mean f4 [128]
0	0x81b7f532	-6.757542e-38
1	0x0e2c2c6f	2.122203e-30
2	0x826a0361	-1.7192575e-37
3	0x80e871ba	-2.1346633e-38
4	0xaf58f89c	-1.973341e-10
5	0x02081629	9.998062e-38
6	0x9b97fafe	-2.5143054e-22
7	0x03d466eb	1.2483869e-36
8	0x8145f931	-3.6361972e-38
9	0xa2280dea	-2.2775612e-18
10	0x03e1b983	1.3266903e-36
11	0x313aac39	2.716446e-09
12	0x034a76bb	5.949876e-37
13	0x8249759c	-1.48009e-37
14	0x039229ae	8.590678e-37
15	0x03d6eb8a	1.2631867e-36
16	0xa67911a5	-8.641314e-16
17	0x0a5938b8	1.04588376e-32
18	0x811550f3	-2.7425056e-38
19	0x262e62b0	6.0502123e-16
20	0x0e4256b7	2.3954098e-30
21	0x80904897	-1.3250352e-38
22	0x02e7ac9d	3.4041475e-37
23	0x822c7a8e	-1.2671736e-37
24	0x03bbb5d9	1.1032622e-36
25	0x2850dcba	1.1594182e-14
26	0x80a7701b	-1.5376744e-38
27	0x81f89db8	-9.132713e-38
28	0x038e7164	8.372043e-37
29	0x2fb41698	3.2757863e-10
30	0x81d042de	-7.650308e-38
31	0x02d6f3f8	3.1584505e-37
32	0x82942826	-2.176969e-37
33	0x0e6d9db9	2.9288446e-30
34	0x8b9f5f9e	-6.138844e-32
35	0x127296bf	7.6547545e-28
36	0x949ed111	-1.6036385e-26
37	0x818d92d4	-5.200591e-38
38	0x802f7cff	-4.361108e-39
39	0x02478baa	1.4660293e-37
40	0x82aec135	-2.5677898e-37
41	0x365b3c8c	3.2668786e-06
42	0x03985d3e	8.955164e-37
43	0xb19fd155	-4.6513073e-09
44	0x82d530c9	-3.1325538e-37
45	0x1b03a6b9	1.0889937e-22
46	0x02c28170	2.8580031e-37
47	0x82928f24	-2.153493e-37
48	0x82347f5f	-1.3260865e-37
49	0x03bfc90d	1.127213e-36
50	0x822158a0	-1.1853846e-37
51	0x02c2aa4f	2.860349e-37
52	0x822a7f93	-1.252624e-37
53	0x03c7c090	1.1740379e-36
54	0xad381fae	-1.0466223e-11
55	0x90313165	-3.4945147e-29
56	0x82d7ca50	-3.1707532e-37
57	0x020e5bb7	1.0458833e-37
58	0x80d38159	-1.9423691e-38
59	0x82a3802c	-2.4024264e-37
60	0x8269b198	-1.7169103e-37
61	0xaf2dfb2d	-1.5823494e-10
62	0x034ee7b7	6.0803955e-37
63	0xb3c9a447	-9.389674e-08
64	0x0315cc72	4.4021856e-37
65	0x8286e2cc	-1.9819705e-37
66	0x9e84085c	-1.3979501e-20
67	0x03a4d79a	9.688553e-37
68	0x26881159	9.441598e-16
69	0x03e2c703	1.3328777e-36
70	0x825ae3fb	-1.6081538e-37
71	0x033f6fcc	5.625819e-37
72	0x81977619	-5.56381e-38
73	0x00b78176	1.6852338e-38
74	0x039a61fa	9.073801e-37
75	0x1368cc33	2.9383195e-27
76	0x825cc28b	-1.6218878e-37
77	0x97f2c9c9	-1.5689821e-24
78	0x8047061a	-6.522509e-39
79	0x04670445	2.715588e-36
80	0x0370df4d	7.0786e-37
81	0x9ff3faf4	-1.0332967e-19
82	0x1021e5b4	3.1928608e-29
83	0x81b84d18	-6.770155e-38
84	0x0baeddab	6.735589e-32
85	0x001534f0	1.947536e-39
86	0x82a7cf71	-2.465751e-37
87	0x829854e0	-2.2383109e-37
88	0x827184d2	-1.7744001e-37
89	0x0363d76c	6.6956597e-37
90	0xb4a01ee5	-2.98248e-07
91	0x81df5114	-8.2033604e-38
92	0x828b81e4	-2.0498768e-37
93	0x0399c5f5	9.0379805e-37
94	0x8294e8b2	-2.1880206e-37
95	0x150d9008	2.8588344e-26
96	0x03ebc10a	1.3856378e-36
97	0x8fc859bd	-1.9756089e-29
98	0x809d9c20	-1.447418e-38
99	0x01ec6c9d	8.684856e-38
100	0x27537c26	2.9349433e-15
101	0x8018f391	-2.291427e-39
102	0x9321b1c7	-2.0408708e-27
103	0x82426fb0	-1.4284922e-37
104	0x02038ba1	9.664432e-38
105	0x2c542d42	3.0152135e-12
106	0x01ce58cf	7.5799883e-38
107	0x813fc51e	-3.5222584e-38
108	0x82b74dbd	-2.6934053e-37
109	0x17192975	4.948929e-25
110	0x2917d74e	3.3715482e-14
111	0x81d8e06c	-7.96679e-38
112	0x03a40332	9.639787e-37
113	0x033e929a	5.600427e-37
114	0x03308b05	5.188134e-37
115	0x019ab0b9	5.682425e-38
116	0x0196c36c	5.5381714e-38
117	0x81e39504	-8.360046e-38
118	0x03c83e25	1.1769211e-36
119	0x9658146e	-1.7454788e-25
120	0x82824f07	-1.9147143e-37
121	0x902e63f0	-3.4392438e-29
122	0x808c5234	-1.2886458e-38
123	0x810139ec	-2.3735115e-38
124	0x90226e18	-3.203368e-29
125	0x03854f9b	7.835314e-37
126	0x00b1b324	1.6319146e-38
127	0x2f4e6f5e	1.8775156e-10

encoder.2.running_var f4 [128]
0	0x00000004	6e-45
1	0x00000004	6e-45
2	0x00000004	6e-45
3	0x00000004	6e-45
4	0x0e2cf25f	2.1317334e-30
5	0x00000004	6e-45
6	0x00000004	6e-45
7	0x00000004	6e-45
8	0x00000004	6e-45
9	0x00f2e64c	2.2306805e-38
10	0x00000004	6e-45
11	0x1ebb5911	1.9836232e-20
12	0x00000004	6e-45
13	0x00000004	6e-45
14	0x00000004	6e-45
15	0x00000004	6e-45
16	0x090a0560	1.6613673e-33
17	0x00000004	6e-45
18	0x00000004	6e-45
19	0x030f7c2d	4.216647e-37
20	0x00000004	6e-45
21	0x00000004	6e-45
22	0x00000004	6e-45
23	0x00000004	6e-45
24	0x00000004	6e-45
25	0x00482db3	6.62855e-39
26	0x00000004	6e-45
27	0x00000004	6e-45
28	0x00000004	6e-45
29	0x0ee60c13	5.6711005e-30
30	0x00000004	6e-45
31	0x00000004	6e-45
32	0x00000004	6e-45
33	0x00000004	6e-45
34	0x00000004	6e-45
35	0x00000004	6e-45
36	0x00000004	6e-45
37	0x00000004	6e-45
38	0x00000004	6e-45
39	0x00000004	6e-45
40	0x00000004	6e-45
41	0x29eb1834	1.0440295e-13
42	0x00000004	6e-45
43	0x1fdcce11	9.351453e-20
44	0x00000004	6e-45
45	0x00000004	6e-45
46	0x00000004	6e-45
47	0x00000004	6e-45
48	0x00000004	6e-45
49	0x00000004	6e-45
50	0x00000004	6e-45
51	0x00000004	6e-45
52	0x00000004	6e-45
53	0x00000004	6e-45
54	0x09b0dc20	4.2577463e-33
55	0x00000004	6e-45
56	0x00000004	6e-45
57	0x00000004	6e-45
58	0x00000004	6e-45
59	0x00000004	6e-45
60	0x00000004	6e-45
61	0x0dcbdadd	1.256353e-30
62	0x00000004	6e-45
63	0x1ed60bc4	2.2662997e-20
64	0x00000004	6e-45
65	0x00000004	6e-45
66	0x00000311	1.1e-42
67	0x00000004	6e-45
68	0x094f40cb	2.4947184e-33
69	0x00000004	6e-45
70	0x00000004	6e-45
71	0x00000004	6e-45
72	0x00000004	6e-45
73	0x00000004	6e-45
74	0x00000004	6e-45
75	0x00000004	6e-45
76	0x00000004	6e-45
77	0x00000004	6e-45
78	0x00000004	6e-45
79	0x00000004	6e-45
80	0x00000004	6e-45
81	0x00008066	4.606e-41
82	0x00000004	6e-45
83	0x00000004	6e-45
84	0x00000004	6e-45
85	0x00000004	6e-45
86	0x00000004	6e-45
87	0x00000004	6e-45
88	0x00000004	6e-45
89	0x00000004	6e-45
90	0x269120c2	1.0070275e-15
91	0x00000004	6e-45
92	0x00000004	6e-45
93	0x00000004	6e-45
94	0x00000004	6e-45
95	0x00000004	6e-45
96	0x00000004	6e-45
97	0x00000004	6e-45
98	0x00000004	6e-45
99	0x00000004	6e-45
100	0x0af9f807	2.4071125e-32
101	0x00000004	6e-45
102	0x00000004	6e-45
103	0x00000004	6e-45
104	0x00000004	6e-45
105	0x1501a267	2.6179455e-26
106	0x00000004	6e-45
107	0x00000004	6e-45
108	0x00000004	6e-45
109	0x00000004	6e-45
110	0x0167cf04	4.2576526e-38
111	0x00000004	6e-45
112	0x00000004	6e-45
113	0x00000004	6e-45
114	0x00000004	6e-45
115	0x00000004	6e-45
116	0x00000004	6e-45
117	0x00000004	6e-45
118	0x00000004	6e-45
119	0x00000004	6e-45
120	0x00000004	6e-45
121	0x00000004	6e-45
122	0x00000004	6e-45
123	0x00000004	6e-45
124	0x00000004	6e-45
125	0x00000004	6e-45
126	0x00000004	6e-45
127	0x1779863d	8.062567e-25

encoder.4.weight f4 [128, 128]
0	0x0232528e	1.3101067e-37
1	0x02cd0e25	3.0130161e-37
2	0x02d4b200	3.1252767e-37
3	0x82cfa61f	-3.0511265e-37
4	0x829cecef	-2.3058133e-37
5	0x01fe9b1a	9.3527424e-38
6	0x81de9b5f	-8.1772867e-38
7	0x82979290	-2.2271579e-37
8	0x02b5b8ce	2.6701632e-37
9	0x816300b9	-4.1693834e-38
10	0x017cca4c	4.643023e-38
11	0x029db943	2.3175412e-37
12	0x8235aa17	-1.3346593e-37
13	0x02c063ff	2.826926e-37
14	0x018568e8	4.9007017e-38
15	0x81db61ee	-8.0588417e-38
16	0x0244d18a	1.445994e-37
17	0x05b89ab1	1.7360101e-35
18	0x8257e55c	-1.5861528e-37
19	0x82b36929	-2.6362045e-37
20	0x020d3037	1.0372881e-37
21	0x81e55a80	-8.4251176e-38
22	0x02a6c3e8	2.4503952e-37
23	0x02d7a4b4	3.1685946e-37
24	0x8285589f	-1.959346e-37
25	0x0245dcc5	1.4536632e-37
26	0x82d48164	-3.1224867e-37
27	0x02504e03	1.5303815e-37
28	0x8118433c	-2.796623e-38
29	0x826b533c	-1.728896e-37
30	0x822ef62c	-1.2854149e-37
31	0x02ee1087	3.4980443e-37
32	0x82d2166c	-3.0869596e-37
33	0x82f6cae2	-3.62629e-37
34	0x01733f77	4.4677585e-38
35	0x02eef246	3.5110015e-37
36	0x02220bf6	1.1905313e-37
37	0x02cfd8a2	3.0540257e-37
38	0x024523d1	1.4483553e-37
39	0x803fbc94	-5.853285e-39
40	0x011828a6	2.7947155e-38
41	0x8294408b	-2.1783691e-37
42	0x0288f429	2.0123545e-37
43	0x02f29f6c	3.5650208e-37
44	0x82d39202	-3.1087468e-37
45	0x81a7aa7b	-6.159074e-38
46	0x82b7a4d5	-2.6984042e-37
47	0x809e4846	-1.4535935e-38
48	0x02e00342	3.2915712e-37
49	0x81845c84	-4.8621895e-38
50	0x0228d51c	1.240385e-37
51	0x01a40012	6.0244186e-38
52	0x82a2ae1a	-2.390369e-37
53	0x026c1c01	1.7346578e-37
54	0x82f1df3a	-3.5539893e-37
55	0x02e1cabc	3.3177142e-37
56	0x0228fe3c	1.2415652e-37
57	0x824950c0	-1.4790322e-37
58	0x02900e0c	2.116696e-37
59	0x8283a08a	-1.9340865e-37
60	0x82c8151c	-2.9399475e-37
61	0x029aa742	2.2724268e-37
62	0x8238f81e	-1.3589391e-37
63	0x02efbf70	3.5227773e-37
64	0x82ae493b	-2.5609034e-37
65	0x02b23066	2.6182529e-37
66	0x8242196b	-1.4260164e-37
67	0x0291e68a	2.1438158e-37
68	0x01b00fb5	6.467473e-38
69	0x819322c2	-5.4049147e-38
70	0x0137c6bf	3.3754385e-38
71	0x0274c658	1.7983211e-37
72	0x001f6f38	2.886798e-39
73	0x0191a3e8	5.349978e-38
74	0x822abaf3	-1.2543279e-37
75	0x81fac771	-9.212168e-38
76	0x8161ef5c	-4.1497705e-38
77	0x02191efc	1.1249557e-37
78	0x81367036	-3.3508628e-38
79	0x82ee8ad8	-3.505065e-37
80	0x0098dbe3	1.4037876e-38
81	0x027de94e	1.865446e-37
82	0x02eeae09	3.5070848e-37
83	0x8160813d	-4.1235026e-38
84	0x016d9924	4.3639898e-38
85	0x0257fdd0	1.5868546e-37
86	0x02a72900	2.4561977e-37
87	0x82539968	-1.5545857e-37
88	0x82e520a1	-3.3667254e-37
89	0x82347039	-1.3256518e-37
90	0x829e161b	-2.3228701e-37
91	0x002a7f02	3.902653e-39
92	0x0295d6e7	2.201693e-37
93	0x028b7199	2.0489416e-37
94	0x01985c2a	5.596823e-38
95	0x027f954f	1.8777291e-37
96	0x029d842c	2.314494e-37
97	0x82d8a330	-3.1832013e-37
98	0x82d09b2c	-3.0651917e-37
99	0x82af4987	-2.5756142e-37
100	0x08d05809	1.2539242e-33
101	0x02a8e97e	2.48194e-37
102	0x02eb99d0	3.461843e-37
103	0x82940d8e	-2.1754425e-37
104	0x82483add	-1.4710572e-37
105	0x029ad22d	2.2748901e-37
106	0x82322786	-1.3088717e-37
107	0x01a5f3b9	6.096115e-38
108	0x81e47e3a	-8.39351e-38
109	0x805dbbff	-8.608141e-39
110	0x02fddff4	3.7303552e-37
111	0x824541e6	-1.4492186e-37
112	0x00308c49	4.458429e-39
113	0x01db7ac3	8.062405e-38
114	0x00724ebe	1.0497494e-38
115	0x82a0c54a	-2.3623125e-37
116	0x819073fc	-5.3063675e-38
117	0x001e2fc0	2.772194e-39
118	0x823af23e	-1.3734642e-37
119	0x81110588	-2.6636262e-38
120	0x016afa18	4.3158446e-38
121	0x828d5591	-2.07672e-37
122	0x0234a05e	1.3270335e-37
123	0x8270fa6e	-1.7704285e-37
124	0x00e9bb40	2.1464843e-38
125	0x02d4efdd	3.1288275e-37
126	0x01f0afd6	8.841439e-38
127	0x80b64b3e	-1.6741052e-38
128	0x82ce8e25	-3.0350566e-37
129	0x02a41678	2.411053e-37
130	0x02c6d414	2.9215212e-37
131	0x8255a10c	-1.5694987e-37
132	0x00ff4478	2.3442613e-38
133	0x0262d416	1.6664723e-37
134	0x822abc3c	-1.2543648e-37
135	0x02bb0683	2.7480918e-37
136	0x01fa9a7e	9.205718e-38
137	0x041f2b0b	1.8710125e-36
138	0x0153f49c	3.8930078e-38
139	0x85a4e3d1	-1.5506172e-35
140	0x01b5ea1c	6.682483e-38
141	0x01f64d69	9.0477206e-38
142	0x81868c68	-4.94253e-38
143	0x82461dc9	-1.455529e-37
144	0x838060f7	-7.545426e-37
145	0x883a717d	-5.6105744e-34
146	0x806e1406	-1.0109088e-38
147	0x82788406	-1.8258051e-37
148	0x82ec979b	-3.47641e-37
149	0x0209ff3e	1.0138421e-37
150	0x020d8824	1.0398114e-37
151	0x0214b51b	1.0925297e-37
152	0x819a590a	-5.669843e-38
153	0x020d5e3c	1.0386088e-37
154	0x01b99216	6.816789e-38
155	0x01c87ca7	7.3647264e-38
156	0x02a0b695	2.3614684e-37
157	0x02a292ef	2.3888096e-37
158	0x81a2277e	-5.956607e-38
159	0x02dea064	3.2712028e-37
160	0x0109c4ed	2.5304213e-38
161	0x02b62ce0	2.6768253e-37
162	0x81c19a50	-7.111843e-38
163	0x029a411d	2.266564e-37
164	0x07a0e845	2.421064e-34
165	0x818d6049	-5.193338e-38
166	0x022ff9fe	1.2928714e-37
167	0x82ace38d	-2.5403736e-37
168	0x00747ae0	1.0696997e-38
169	0x889d355e	-9.46164e-34
170	0x02c4e72e	2.8932302e-37
171	0x026d5c37	1.7438474e-37
172	0x019ad398	5.687429e-38
173	0x08a47cfe	9.8997765e-34
174	0x028b6a38	2.048518e-37
175	0x01586962	3.9748543e-38
176	0x0272a862	1.7827676e-37
177	0x0872b7e3	7.3040384e-34
178	0x0156d973	3.9461605e-38
179	0x82cd02ad	-3.0123579e-37
180	0x019a8ca0	5.677245e-38
181	0x82085402	-1.0015811e-37
182	0x02e1c107	3.317157e-37
183	0x02f4c6ec	3.5966753e-37
184	0x02eb659d	3.458847e-37
185	0x80f2c27e	-2.2293961e-38
186	0x0279aed5	1.8343805e-37
187	0x826c2ee3	-1.7351998e-37
188	0x828cf7b6	-2.071333e-37
189	0x82beb16e	-2.801983e-37
190	0x8113af00	-2.7125192e-38
191	0x027145a5	1.7725871e-37
192	0x81f91414	-9.1496965e-38
193	0x022880ec	1.237969e-37
194	0x02923ea2	2.1488721e-37
195	0x0116dafb	2.770776e-38
196	0x8272fc9f	-1.7851851e-37
197	0x8270adca	-1.768229e-37
198	0x896af519	-2.828197e-33
199	0x02d15360	3.0757645e-37
200	0x812cb8b4	-3.172393e-38
201	0x01e369ba	8.353834e-38
202	0x01b222c5	6.5436765e-38
203	0x0c8db923	2.1835915e-31
204	0x8cfbf795	-3.8821681e-31
205	0x02f113b6	3.542308e-37
206	0x026cd37a	1.7399232e-37
207	0x82ce2968	-3.0292746e-37
208	0x0bdc9ce8	8.4977004e-32
209	0x02af6400	2.5771336e-37
210	0x02bdd37a	2.7892436e-37
211	0x0210f708	1.0650344e-37
212	0x002f91ac	4.368526e-39
213	0x823605be	-1.3372896e-37
214	0x82ddb550	-3.25771e-37
215	0x8275961f	-1.804284e-37
216	0x81b182d0	-6.520724e-38
217	0x82c2a7bc	-2.8602013e-37
218	0x1487abee	1.369933e-26
219	0x81c4f0aa	-7.2344365e-38
220	0x828b8c98	-2.0504911e-37
221	0x0273e380	1.791811e-37
222	0x021a4bec	1.1335922e-37
223	0x01170d5c	2.7743905e-38
224	0x81cde53e	-7.5634053e-38
225	0x02adfa60	2.5563774e-37
226	0x824b65a2	-1.4943252e-37
227	0x81b319e2	-6.5791355e-38
228	0x0e33aca2	2.2146573e-30
229	0x02d59550	3.1383238e-37
230	0x02f553ba	3.6047571e-37
231	0x802c30f2	-4.05832e-39
232	0x82930b0f	-2.1606056e-37
233	0x025e8ae8	1.6349848e-37
234	0x02a29071	2.3886666e-37
235	0x87794b43	-1.8754795e-34
236	0x029dc467	2.3181806e-37
237	0x8606ac75	-2.53293e-35
238	0x82d60733	-3.1448606e-37
239	0x02cd1b0e	3.0137571e-37
240	0x80deae00	-2.04499e-38
241	0x0288d0c7	2.0103236e-37
242	0x02e091d3	3.299754e-37
243	0x01e7fef9	8.5221866e-38
244	0x02aad48c	2.510125e-37
245	0x829623e0	-2.206111e-37
246	0x82e180cf	-3.3134711e-37
247	0x82b0bdf2	-2.59699e-37
248	0x01863a1a	4.93072e-38
249	0x01a49ee4	6.047208e-38
250	0x82b5e3e4	-2.6726362e-37
251	0x81fec5b9	-9.358858e-38
252	0x82dcd199	-3.2446398e-37
253	0x0276aabb	1.8122223e-37
254	0x82d7d06e	-3.1711043e-37
255	0x0f2df906	8.577519e-30

encoder.4.bias f4 [128]
0	0x99164438	-7.768595e-24
1	0xaf2ee6ea	-1.5907245e-10
2	0xac961f94	-4.2667623e-12
3	0x81e3e15a	-8.3709994e-38
4	0x1f478f16	4.2258247e-20
5	0x8974964b	-2.9441099e-33
6	0xaea5f41b	-7.546693e-11
7	0x8400ac76	-1.5125518e-36
8	0x9346112f	-2.4999586e-27
9	0x2e9562a4	6.7932576e-11
10	0x877084a2	-1.809457e-34
11	0x92df1a11	-1.4079704e-27
12	0x2efcb1ac	1.1491194e-10
13	0x9132b345	-1.4096966e-28
14	0x824f1201	-1.5213125e-37
15	0xac011ab5	-1.8346828e-12
16	0x82abe363	-2.5256705e-37
17	0xa446b612	-4.3088626e-17
18	0xaeb80502	-8.368241e-11
19	0xadedd12e	-2.7036675e-11
20	0x2fa09ab0	2.9213743e-10
21	0xab4a26fe	-7.181893e-13
22	0xaee91ee9	-1.0601104e-10
23	0xadd74293	-2.4472235e-11
24	0xa70e99ba	-1.9789794e-15
25	0xa3e459d8	-2.475786e-17
26	0x807044dc	-1.0310278e-38
27	0x1a71471f	4.9895083e-23
28	0xa213b6ff	-2.0019092e-18
29	0x93a057fe	-4.0476445e-27
30	0x21554099	7.22527e-19
31	0xa9dfb8a1	-9.9352174e-14
32	0xa5782822	-2.1524169e-16
33	0x929e51a5	-9.991329e-28
34	0xa8dbbf28	-2.4396785e-14
35	0x267b9667	8.728695e-16
36	0xae83af8e	-5.988375e-11
37	0xaf2c5aab	-1.567552e-10
38	0x9168d246	-1.8366369e-28
39	0x93b8a421	-4.6609974e-27
40	0x9cbc8cb5	-1.2477168e-21
41	0x9d382d4d	-2.4375617e-21
42	0xb03f1ea9	-6.9528966e-10
43	0x8207af1f	-9.968491e-38
44	0x80ee1e0c	-2.1867627e-38
45	0x9610d3fd	-1.1699119e-25
46	0x86d92804	-8.1685125e-35
47	0x9bde16ac	-3.674147e-22
48	0xad0e9497	-8.104759e-12
49	0xaea3ef15	-7.454851e-11
50	0x03039e56	3.86792e-37
51	0xa9cd0cd7	-9.106056e-14
52	0xb01bb9d3	-5.6652744e-10
53	0xa7fa68ef	-6.950271e-15
54	0xae3c9ffc	-4.2888346e-11
55	0xab55a289	-7.5898364e-13
56	0xaa86da34	-2.395459e-13
57	0x927c4903	-7.9607173e-28
58	0x1412e70e	7.416684e-27
59	0x01de4608	8.165041e-38
60	0x1fcd3dba	8.6922995e-20
61	0x820535f8	-9.786785e-38
62	0x8ca7453d	-2.5772095e-31
63	0xa808e590	-7.599295e-15
64	0x022fed16	1.292501e-37
65	0xb144e009	-2.8649103e-09
66	0x950637f8	-2.7105236e-26
67	0x8204d957	-9.760202e-38
68	0x965285a7	-1.7005838e-25
69	0x8e685b3e	-2.864014e-30
70	0x180a506a	1.787668e-24
71	0x819ac77b	-5.6856906e-38
72	0xa9eabb04	-1.04241295e-13
73	0xad3c58f4	-1.0706314e-11
74	0x807a28ac	-1.1218521e-38
75	0x9779a1a0	-8.066024e-25
76	0x0f998101	1.5136655e-29
77	0x271c044d	2.165168e-15
78	0x13074c56	1.7077032e-27
79	0x8f20f383	-7.935508e-30
80	0xaf9089fc	-2.629149e-10
81	0x93e267a5	-5.7152622e-27
82	0x9821ff4d	-2.0937656e-24
83	0x05c36fbc	1.8378757e-35
84	0x1f7b393c	5.319866e-20
85	0xa4f23d80	-1.05054955e-16
86	0x9de891e8	-6.1560752e-21
87	0xb0a67604	-1.2111632e-09
88	0x05ad3593	1.6288522e-35
89	0x827c62fd	-1.8542444e-37
90	0x9b21fb8b	-1.3398886e-22
91	0x82969c38	-2.2130184e-37
92	0x8b46b0b2	-3.8266344e-32
93	0x826c4835	-1.7359264e-37
94	0x82191423	-1.1246444e-37
95	0x861a36c6	-2.9004422e-35
96	0x00b346e0	1.6463979e-38
97	0x94d724aa	-2.1723914e-26
98	0x226f33d0	3.241797e-18
99	0x82b6bf58	-2.6852322e-37
100	0x007f1318	1.1669958e-38
101	0x0d601c54	6.905943e-31
102	0x822622d8	-1.2205754e-37
103	0x01ac224c	6.3232035e-38
104	0xa8b50542	-2.0097317e-14
105	0x2b7c0458	8.9534413e-13
106	0x2273e167	3.3051968e-18
107	0x8215af95	-1.0997181e-37
108	0x98468a98	-2.5660872e-24
109	0x0d4d359f	6.3235046e-31
110	0xaa612e5f	-2.0000103e-13
111	0x91569490	-1.6927403e-28
112	0x81b42260	-6.6170883e-38
113	0x82f0eadc	-3.5399633e-37
114	0x820ab828	-1.0191489e-37
115	0x88aee0e9	-1.052512e-33
116	0x828635f3	-1.9720496e-37
117	0x0c49ba50	1.5540543e-31
118	0x98be2cbf	-4.915903e-24
119	0x2158dc42	7.3475155e-19
120	0x103efd65	3.76661e-29
121	0xaac023ea	-3.4130972e-13
122	0x8b3e0fc2	-3.6604524e-32
123	0xae0e2e01	-3.232792e-11
124	0x98651155	-2.9606307e-24
125	0x1c944785	9.812306e-22
126	0x8121d8d8	-2.9726608e-38
127	0x82dd9ae5	-3.2561937e-37

fc_mu.weight f4 [16, 128]
0	0x123af28f	5.899023e-28
1	0x206f7774	2.0283611e-19
2	0x222f8bc6	2.3790918e-18
3	0x80d060d2	-1.9136516e-38
4	0x151dbc2a	3.1854333e-26
5	0x0196df1e	5.5421455e-38
6	0xa19647f4	-1.0183441e-18
7	0x008a6772	1.2710408e-38
8	0x891213e0	-1.7583456e-33
9	0xa30dc90d	-7.6861995e-18
10	0x0211646a	1.0681735e-37
11	0x88657e90	-6.9060954e-34
12	0xa34c11b5	-1.1062612e-17
13	0x87354e46	-1.3639929e-34
14	0x01b436a4	6.619996e-38
15	0x9ee8fbf9	-2.4668169e-20
16	0x010f6d5d	2.6343416e-38
17	0x189006c2	3.722995e-24
18	0x230dd3e0	7.688492e-18
19	0x223635a4	2.4693997e-18
20	0x22cd830c	5.5704113e-18
21	0x9da920bb	-4.476777e-21
22	0xa2d26805	-5.703075e-18
23	0x21091a55	4.6452256e-19
24	0x1b8cd778	2.33003e-22
25	0x98c65b3a	-5.1273916e-24
26	0x81e16909	-8.2802665e-38
27	0x90415ca2	-3.81339e-29
28	0x94c33dad	-1.9714295e-26
29	0x87073fe4	-1.0175047e-34
30	0x95cadfa8	-8.194002e-26
31	0x1e2e4f88	9.22793e-21
32	0x18d43b32	5.4860488e-24
33	0x880c1b7d	-4.216203e-34
34	0x1d1d87cd	2.0848984e-21
35	0x19b9d20f	1.9213394e-23
36	0xa192c90f	-9.946565e-19
37	0xa3795ee5	-1.3518412e-17
38	0x85c5d8b8	-1.8605401e-35
39	0x08d3d225	1.2748505e-33
40	0x933b40f5	-2.3634745e-27
41	0x933522a0	-2.2862483e-27
42	0xa461445f	-4.884701e-17
43	0x01906ef8	5.305648e-38
44	0x80440114	-6.2452e-39
45	0x0ba21b56	6.244126e-32
46	0x027bda01	1.8503132e-37
47	0x91574a6a	-1.698344e-28
48	0x21b9abce	1.2581564e-18
49	0x22732f10	3.2957556e-18
50	0x81c83e10	-7.355745e-38
51	0x9d1491cf	-1.9663018e-21
52	0xa3838023	-1.4257316e-17
53	0x9b1c2cf6	-1.2918545e-22
54	0x1fc52be1	8.350534e-20
55	0x1ef50132	2.5940878e-20
56	0x9dcfbabc	-5.4985523e-21
57	0x07ab54b3	2.5779002e-34
58	0x8b0fb015	-2.7673268e-32
59	0x01856c0d	4.901153e-38
60	0x145e0162	1.12084085e-26
61	0x01026b14	2.3954054e-38
62	0x03ac0aeb	1.0111758e-36
63	0x1b61af01	1.866811e-22
64	0x80280a94	-3.677215e-39
65	0xa5938c26	-2.5595403e-16
66	0x0a98db8a	1.4719649e-32
67	0x023a0c1b	1.3668596e-37
68	0x8cc60f29	-3.0515855e-31
69	0x83f3547a	-1.4301651e-36
70	0x8e2e3957	-2.1474764e-30
71	0x818c5681	-5.1552005e-38
72	0x9e569eab	-1.13618774e-20
73	0xa1232224	-5.5271733e-19
74	0x014c4184	3.7515888e-38
75	0x0d05002e	4.0984006e-31
76	0x85c6d8b2	-1.8699432e-35
77	0x1b3ea005	1.5768137e-22
78	0x08eea07e	1.43618355e-33
79	0x06e0a270	8.4498116e-35
80	0xa4930fda	-6.377794e-17
81	0x095c9b41	2.6554537e-33
82	0x8d1df35e	-4.8672303e-31
83	0x01a55a13	6.074068e-38
84	0x14a1ff6c	1.6357592e-26
85	0x1e3a5fb9	9.866553e-21
86	0x10df7528	8.81385e-29
87	0x25828654	2.264243e-16
88	0x80ba39de	-1.7102161e-38
89	0x0240887e	1.4145104e-37
90	0x90396182	-3.6559934e-29
91	0x811dffca	-2.9019865e-38
92	0x028e4816	2.09064e-37
93	0x823797e0	-1.3488303e-37
94	0x0119f12e	2.82747e-38
95	0x029c4ea6	2.2967282e-37
96	0x810db0bc	-2.602441e-38
97	0x0ab00465	1.6949837e-32
98	0x1665f7fc	1.8576723e-25
99	0x02607b35	1.649228e-37
100	0x82508d4f	-1.532198e-37
101	0x844a6ca8	-2.3794878e-36
102	0x0235a778	1.3345841e-37
103	0x81bc0881	-6.9072496e-38
104	0x9b8fa48d	-2.3763704e-22
105	0x9ed13756	-2.2151622e-20
106	0x17620e60	7.304268e-25
107	0x021bd0bd	1.1447506e-37
108	0x1125977a	1.3062882e-28
109	0x83a170aa	-9.488596e-37
110	0x1e6d8b11	1.2575434e-20
111	0x06de1805	8.354241e-35
112	0x81a90098	-6.208165e-38
113	0x81b06b28	-6.480595e-38
114	0x02880ae6	1.998966e-37
115	0x8115038d	-2.7369525e-38
116	0x00d26a70	1.9323637e-38
117	0x05dec033	2.0947383e-35
118	0x0e74348e	3.0100626e-30
119	0x94aadcbc	-1.7252678e-26
120	0x089d3d6d	9.463535e-34
121	0x9db0b96b	-4.677853e-21
122	0x82b9af45	-2.7283907e-37
123	0x22b40ce0	4.880273e-18
124	0x0dac6fb6	1.0627212e-30
125	0x916d9fb6	-1.8745218e-28
126	0x00c52340	1.8104238e-38
127	0x0241d048	1.4239174e-37
128	0x15144a32	2.9946892e-26
129	0xa56fa2c9	-2.0785099e-16
130	0x23158b1e	8.106765e-18
131	0x80c844a0	-1.8391717e-38
132	0x1889ced5	3.5622517e-24
133	0x83d4901d	-1.2493327e-36
134	0xa613d59b	-5.129036e-16
135	0x01044bd9	2.429899e-38
136	0x0c5e0e8f	1.7106639e-31
137	0xa605a305	-4.6364577e-16
138	0x00e6299c	2.1137091e-38
139	0x89c50379	-4.742929e-33
140	0x27246027	2.2811696e-15
141	0x0898efd8	9.204554e-34
142	0x012b5778	3.1470495e-38
143	0x2296fd23	4.09256e-18
144	0x01df58e0	8.204479e-38
145	0x1d93e2c4	3.9145046e-21
146	0xa60fede1	-4.993548e-16
147	0xa79f18db	-4.4158314e-15
148	0xa6933bff	-1.0216436e-15
149	0xa216cddd	-2.0437774e-18
150	0x249561cd	6.478413e-17
151	0x23438dc3	1.060099e-17
152	0x9e1560a8	-7.907982e-21
153	0x1abcbff5	7.80651e-23
154	0x02224251	1.1920912e-37
155	0x1395d059	3.7818335e-27
156	0x195b6dbb	1.13441945e-23
157	0x0b63d737	4.388052e-32
158	0x9983e036	-1.363564e-23
159	0xa2085a9a	-1.84794e-18
160	0x9b6dd157	-1.9671822e-22
161	0x08868514	8.096118e-34
162	0x9ffb2bce	-1.06375104e-19
163	0x1ea6a1eb	1.7642901e-20
164	0x25d39623	3.6704402e-16
165	0x264d9b85	7.133443e-16
166	0x88f7ee18	-1.4921747e-33
167	0x0acfa723	1.9996245e-32
168	0x2112cd24	4.9738225e-19
169	0x16bc59bb	3.0429666e-25
170	0x27b0b241	4.9043076e-15
171	0x00fa1ae1	2.2968516e-38
172	0x816d7360	-4.3612803e-38
173	0x8cd50cd8	-3.2825576e-31
174	0x01cd0846	7.531698e-38
175	0x94d6dd39	-2.1695735e-26
176	0xa5112166	-1.2588061e-16
177	0xa5acc50d	-2.997077e-16
178	0x01e9cffa	8.5889114e-38
179	0xa071faab	-2.0496433e-19
180	0x27741a43	3.3876039e-15
181	0x9ebddd83	-2.0102768e-20
182	0xa528a314	-1.462693e-16
183	0xa33fc7f0	-1.0396469e-17
184	0x21874499	9.166113e-19
185	0x0ca8ab83	2.5987723e-31
186	0x8d5aaa1a	-6.738119e-31
187	0x028dbb52	2.0825605e-37
188	0x97ac9a9d	-1.1154269e-24
189	0x80cbd161	-1.8717717e-38
190	0x06a7a17f	6.3055715e-35
191	0x9df61df3	-6.5146625e-21
192	0x81849962	-4.8709236e-38
193	0x2881c3dd	1.440682e-14
194	0x0ed310cd	5.2031695e-30
195	0x82cd281e	-3.0145069e-37
196	0x0d6e9145	7.3514274e-31
197	0x877449bd	-1.837819e-34
198	0x12881f8e	8.590585e-28
199	0x005ec15c	8.701901e-39
200	0xa1d6a86c	-1.4545785e-18
201	0x248f437f	6.213071e-17
202	0x817ad8f8	-4.6073416e-38
203	0x8e6d6612	-2.926165e-30
204	0x8a60bc22	-1.08205915e-32
205	0x1de802ed	6.1412914e-21
206	0x0d2141a7	4.969098e-31
207	0x0a7a6411	1.20558826e-32
208	0x278edccd	3.965231e-15
209	0x8adec085	-2.145024e-32
210	0x10388291	3.6388186e-29
211	0x82b9553a	-2.7232225e-37
212	0x971b93d1	-5.026977e-25
213	0x21525a42	7.1270223e-19
214	0x150a3e58	2.791806e-26
215	0x2a0e90bd	1.266235e-13
216	0x01c19ef6	7.11251e-38
217	0x806fd207	-1.0269084e-38
218	0x12c4fe7d	1.2432075e-27
219	0x8186f192	-4.957046e-38
220	0x83bbd6c6	-1.1040182e-36
221	0x8222c3d3	-1.1958079e-37
222	0x818e3df3	-5.2251455e-38
223	0x804484ee	-6.2925e-39
224	0x007f949c	1.1716419e-38
225	0x8cca9d07	-3.1217535e-31
226	0x19d7e7c0	2.2324082e-23
227	0x810e30f0	-2.6116392e-38
228	0x80b2130d	-1.6353552e-38
229	0x06734299	4.575215e-35
230	0x829860de	-2.2389992e-37
231	0x013df408	3.48889e-38
232	0x9e81227b	-1.3672667e-20
233	0x260be29d	4.853243e-16
234	0x9b050753	-1.1003869e-22
235	0x0299586e	2.2532086e-37
236	0x13482f45	2.5266855e-27
237	0x86926d3e	-5.5079613e-35
238	0xa215ffa3	-2.0328598e-18
239	0x897e490e	-3.0608488e-33
240	0x002b0ffe	3.954663e-39
241	0x80602072	-8.827847e-39
242	0x01e27486	8.318649e-38
243	0x814317f7	-3.5833037e-38
244	0x01ab8a24	6.30137e-38
245	0x89a5948d	-3.9862e-33
246	0x90f869d5	-9.798181e-29
247	0x1a0a0a7c	2.85462e-23
248	0x8b959db6	-5.763001e-32
249	0x22b770b7	4.972159e-18
250	0x048451a2	3.110802e-36
251	0x2716b901	2.0916973e-15
252	0x8fd2cbe5	-2.0786136e-29
253	0x91aa161c	-2.6834897e-28
254	0x021da5ff	1.1582177e-37
255	0x02d544c0	3.1336998e-37

fc_mu.bias f4 [16]
0	0xb0689c96	-8.462363e-10
1	0x33b42513	8.388647e-08
2	0x3590c2d6	1.0785541e-06
3	0x2a8cc9eb	2.5009104e-13
4	0x2f083d92	1.2391002e-10
5	0x3000e103	4.688589e-10
6	0xb15f21a4	-3.2469893e-09
7	0x30165594	5.4691296e-10
8	0x358f38e8	1.0670892e-06
9	0x2f6486f3	2.0784423e-10
10	0xa9d29040	-9.350897e-14
11	0xb402745c	-1.2149525e-07
12	0xafcff2fb	-3.782573e-10
13	0x35724228	9.0248295e-07
14	0xad091f77	-7.794535e-12
15	0xaf33c884	-1.6351193e-10
