vae_best_trial_1.pth (torch, 177671 bytes, 22 tensors)

encoder.0.weight f4 [128, 8]
0	0x0152d500	3.8723728e-38
1	0x80692c48	-9.658612e-39
2	0x8143aaee	-3.593848e-38
3	0x81a2802d	-5.9693325e-38
4	0x017b9290	4.6206573e-38
5	0x01a5d196	6.091217e-38
6	0x0186cc9c	4.9517426e-38
7	0x01a9837e	6.226948e-38
8	0x81474c0c	-3.6605088e-38
9	0x8156c9fc	-3.945051e-38
10	0x812f047a	-3.2145635e-38
11	0x81487c10	-3.682321e-38
12	0x812dc2b0	-3.1914763e-38
13	0x814b396a	-3.7326404e-38
14	0x8112350c	-2.6854024e-38
15	0x8109a89e	-2.5283903e-38
16	0x80aac434	-1.5682419e-38
17	0x00009b7c	5.5777e-41
18	0x0098c614	1.4030052e-38
19	0x00b57a1f	1.6666034e-38
20	0x8037454d	-5.075813e-39
21	0x814cd923	-3.762467e-38
22	0x80e4a6d2	-2.0998337e-38
23	0x003506cb	4.869718e-39
24	0x80764075	-1.0859711e-38
25	0x813beec4	-3.4517781e-38
26	0x014d410c	3.7699222e-38
27	0x80a3e237	-1.5050336e-38
28	0x814adc16	-3.7259444e-38
29	0x008cdd69	1.2936396e-38
30	0x80c875f5	-1.8409414e-38
31	0x013e3ec0	3.494251e-38
32	0x811735fe	-2.7773057e-38
33	0x018864f7	5.010339e-38
34	0x01891af1	5.036451e-38
35	0x808bbddf	-1.2833247e-38
36	0x8185c654	-4.914107e-38
37	0x01a20c85	5.9527366e-38
38	0x00a8255b	1.5441764e-38
39	0x817cae66	-4.6410215e-38
40	0x81644e87	-4.1933327e-38
41	0x81a19dec	-5.9368666e-38
42	0x0182d8b6	4.8065423e-38
43	0x01978530	5.5659754e-38
44	0x8081efff	-1.1932873e-38
45	0x00f3c501	2.2386697e-38
46	0x8191f101	-5.361041e-38
47	0x0190b7d0	5.3161004e-38
48	0x00100788	1.47207e-39
49	0x810cf50e	-2.5889757e-38
50	0x0018c6ba	2.275342e-39
51	0x80dee8e2	-2.0471023e-38
52	0x8115241c	-2.7392885e-38
53	0x813a37aa	-3.4202742e-38
54	0x80ec8af6	-2.1723027e-38
55	0x000a861b	9.66463e-40
56	0x80590302	-8.174438e-39
57	0x80b16ac6	-1.6293186e-38
58	0x009f42ee	1.4625854e-38
59	0x80863736	-1.2325762e-38
60	0x00eaddec	2.1569117e-38
61	0x00247af6	3.350188e-39
62	0x004b338e	6.906157e-39
63	0x003c9c0f	5.566113e-39
64	0x017badb5	4.6226048e-38
65	0x01869a2c	4.944505e-38
66	0x80312a8a	-4.5152e-39
67	0x80635068	-9.120558e-39
68	0x8168a2ae	-4.2728387e-38
69	0x011e6968	2.9095642e-38
70	0x8119e6f8	-2.8267374e-38
71	0x0149a22a	3.7034216e-38
72	0x00b0c196	1.6232493e-38
73	0x81a77274	-6.1510344e-38
74	0x807b508b	-1.132466e-38
75	0x8100bdf2	-2.3646166e-38
76	0x01145b1e	2.724868e-38
77	0x0033161d	4.691543e-39
78	0x012032da	2.9423843e-38
79	0x011448b6	2.7235474e-38
80	0x0123be19	3.007476e-38
81	0x819d7686	-5.7842764e-38
82	0x81a81231	-6.1739557e-38
83	0x016eb33c	4.384229e-38
84	0x812f0d0a	-3.215178e-38
85	0x01a50c6f	6.062927e-38
86	0x819b51f6	-5.7055616e-38
87	0x011c7f52	2.8744023e-38
88	0x80e54308	-2.1054375e-38
89	0x002f8e13	4.367235e-39
90	0x00fe0046	2.3326314e-38
91	0x001f6809	2.884221e-39
92	0x01521a08	3.8589585e-38
93	0x81283a39	-3.08985e-38
94	0x0102ad8f	2.400175e-38
95	0x0001fd49	1.82697e-40
96	0x80f875cd	-2.2817462e-38
97	0x00233569	3.233402e-39
98	0x813972fe	-3.4061636e-38
99	0x0199912c	5.6411635e-38
100	0x813bccce	-3.4493416e-38
101	0x017fbf30	4.6973273e-38
102	0x803398fd	-4.738492e-39
103	0x01537640	3.883942e-38
104	0x80864e76	-1.2334103e-38
105	0x803b5110	-5.447374e-39
106	0x80886e88	-1.2529279e-38
107	0x80405d7a	-5.911005e-39
108	0x8135f32a	-3.341891e-38
109	0x8130747c	-3.2409668e-38
110	0x8062175e	-9.008261e-39
111	0x810ff533	-2.6440874e-38
112	0x80ede727	-2.1847934e-38
113	0x010d3faa	2.5943287e-38
114	0x00423c51	6.08278e-39
115	0x007572cb	1.0785933e-38
116	0x01143490	2.722102e-38
117	0x80be2ce7	-1.7464852e-38
118	0x012f3fd0	3.2188207e-38
119	0x010bd373	2.5681975e-38
120	0x81015790	-2.375638e-38
121	0x8101c73d	-2.3836504e-38
122	0x81332282	-3.2901866e-38
123	0x8066e661	-9.449865e-39
124	0x811c5a73	-2.871757e-38
125	0x80ba4164	-1.710486e-38
126	0x81119cd5	-2.6744815e-38
127	0x8029d400	-3.841307e-39
128	0x818b58dd	-5.118805e-38
129	0x818f8e67	-5.273424e-38
130	0x007a9e4c	1.1260717e-38
131	0x817c8c14	-4.638559e-38
132	0x011367b8	2.707405e-38
133	0x011ae47e	2.8449268e-38
134	0x8185e4e0	-4.9184903e-38
135	0x8198a240	-5.60688e-38
136	0x80744d0d	-1.0680558e-38
137	0x006ab21f	9.79846e-39
138	0x811a1d8f	-2.830654e-38
139	0x804480d7	-6.291033e-39
140	0x00b698c8	1.6768868e-38
141	0x81316f14	-3.258946e-38
142	0x81975c68	-5.5601236e-38
143	0x0168543e	4.267211e-38
144	0x80479bb9	-6.576183e-39
145	0x8056eba3	-7.982383e-39
146	0x8014ea51	-1.920767e-39
147	0x817d45ba	-4.6518787e-38
148	0x8183aa21	-4.8365923e-38
149	0x018d14b1	5.182491e-38
150	0x01a5edca	6.095264e-38
151	0x01653d8a	4.210481e-38
152	0x014cd94c	3.7624785e-38
153	0x00fda17b	2.3292309e-38
154	0x805171c2	-7.479484e-39
155	0x8006216b	-5.63001e-40
156	0x815698a7	-3.9415115e-38
157	0x812b7c9a	-3.1497137e-38
158	0x016e0a46	4.3721067e-38
159	0x81373602	-3.365054e-38
160	0x0118dcae	2.807632e-38
161	0x8039732a	-5.275936e-39
162	0x0024cee1	3.380292e-39
163	0x80bf20d6	-1.7552359e-38
164	0x811d5934	-2.8900346e-38
165	0x812bc03f	-3.154567e-38
166	0x006a89fc	9.784062e-39
167	0x81286336	-3.0927907e-38
168	0x8119f621	-2.827825e-38
169	0x809b3dff	-1.4256742e-38
170	0x80a3134b	-1.4976107e-38
171	0x80cbda52	-1.8720924e-38
172	0x80bddad5	-1.7435411e-38
173	0x804b1aca	-6.897272e-39
174	0x81026438	-2.3949132e-38
175	0x80cd85f1	-1.8874326e-38
176	0x803e91c6	-5.746094e-39
177	0x815d8f64	-4.0694167e-38
178	0x81664d41	-4.2299755e-38
179	0x81434074	-3.5862086e-38
180	0x80a04794	-1.4719357e-38
181	0x0021ff33	3.12212e-39
182	0x8163425e	-4.174093e-38
183	0x81669f96	-4.2358826e-38
184	0x8120231e	-2.9412554e-38
185	0x00020ca9	1.88213e-40
186	0x008eb1bc	1.31044e-38
187	0x80223d36	-3.144365e-39
188	0x8002b0da	-2.47113e-40
189	0x800e7ccc	-1.330466e-39
190	0x003e52d5	5.723515e-39
191	0x8008ae46	-7.97201e-40
192	0x00c80686	1.836944e-38
193	0x000e9811	1.340248e-39
194	0x0129f4da	3.121607e-38
195	0x001ee9ed	2.838982e-39
196	0x018cb2fb	5.16847e-38
197	0x00d22eb0	1.9302203e-38
198	0x81990315	-5.6207746e-38
199	0x81a0ff5e	-5.914115e-38
200	0x808318b6	-1.2039315e-38
201	0x8158dbcc	-3.983063e-38
202	0x00f3d417	2.2392109e-38
203	0x80748b78	-1.070295e-38
204	0x00541029	7.719979e-39
205	0x813bbb66	-3.4480927e-38
206	0x00ac9ea4	1.5852615e-38
207	0x800df31e	-1.281075e-39
208	0x003354ca	4.714027e-39
209	0x0056d6e6	7.974944e-39
210	0x80b25ea0	-1.6380663e-38
211	0x800a53e7	-9.48453e-40
212	0x8123f4d2	-3.0114022e-38
213	0x812c0e1b	-3.160153e-38
214	0x808d2072	-1.2960444e-38
215	0x000dbbe0	1.261258e-39
216	0x000b9c7e	1.066329e-39
217	0x80e14697	-2.068831e-38
218	0x01a4e84c	6.0577415e-38
219	0x814e6fae	-3.791635e-38
220	0x805c9269	-8.501388e-39
221	0x0195d373	5.503737e-38
222	0x01592ae7	3.9887386e-38
223	0x818fac96	-5.277755e-38
224	0x81535b34	-3.8820014e-38
225	0x00f6d4c2	2.2667855e-38
226	0x014021fc	3.5289213e-38
227	0x8132f2be	-3.2867596e-38
228	0x815e04da	-4.077844e-38
229	0x00137a33	1.788711e-39
230	0x0109890a	2.5261247e-38
231	0x807396bd	-1.0615157e-38
232	0x81a2c6c6	-5.979463e-38
233	0x80a9f200	-1.5607012e-38
234	0x80f9ce96	-2.2941148e-38
235	0x01655755	4.2123315e-38
236	0x000dfafa	1.283895e-39
237	0x010b6106	2.559988e-38
238	0x81a8a85b	-6.195503e-38
239	0x0037b492	5.115729e-39
240	0x0064c018	9.25246e-39
241	0x00771212	1.0934906e-38
242	0x819822ac	-5.5885733e-38
243	0x808479f1	-1.216603e-38
244	0x00c00073	1.7632576e-38
245	0x8195f03b	-5.507867e-38
246	0x002ea053	4.281946e-39
247	0x0198f496	5.6186945e-38
248	0x00751231	1.0751279e-38
249	0x81879c12	-4.981512e-38
250	0x00a6d90f	1.5322558e-38
251	0x8163d684	-4.1847223e-38
252	0x810cfe68	-2.5896466e-38
253	0x014f2f50	3.805384e-38
254	0x00a53356	1.5171273e-38
255	0x0088dc54	1.2568666e-38

encoder.0.bias f4 [128]
0	0x8174baa0	-4.494962e-38
1	0x808f20ff	-1.3144313e-38
2	0x003b4c00	5.445558e-39
3	0x804996af	-6.758046e-39
4	0x81926888	-5.3781925e-38
5	0x0035d0ec	4.942228e-39
6	0x815d2e10	-4.0624338e-38
7	0x808d8f08	-1.3000115e-38
8	0x00718cf2	1.0427973e-38
9	0x0116a716	2.7670527e-38
10	0x0122dfea	2.991535e-38
11	0x805791c0	-8.041973e-39
12	0x012c70dc	3.1672383e-38
13	0x0185c54c	4.913959e-38
14	0x8025772e	-3.440667e-39
15	0x00f004dc	2.2042262e-38
16	0x00d4f3a5	1.9556528e-38
17	0x0132daaa	3.285032e-38
18	0x013312c1	3.2890563e-38
19	0x0133afa0	3.3003112e-38
20	0x804c1ca8	-6.989778e-39
21	0x80576588	-8.026111e-39
22	0x80cde3cc	-1.8907995e-38
23	0x012d24da	3.180152e-38
24	0x8137ee8f	-3.378295e-38
25	0x8029bd50	-3.833168e-39
26	0x800b571a	-1.041437e-39
27	0x8185e913	-4.919093e-38
28	0x0003ceb9	3.49665e-40
29	0x0060c8ce	8.888243e-39
30	0x01229c78	2.9866962e-38
31	0x004aa21b	6.853979e-39
32	0x800d7ea6	-1.239294e-39
33	0x00156a84	1.966756e-39
34	0x0119d412	2.8253815e-38
35	0x812d732c	-3.1857713e-38
36	0x80c2e64d	-1.7898703e-38
37	0x80d946d0	-1.9953705e-38
38	0x01682fc7	4.264595e-38
39	0x80da794b	-2.006365e-38
40	0x0143b488	3.5945368e-38
41	0x809ca7ff	-1.4386603e-38
42	0x00f40812	2.2410756e-38
43	0x816641fc	-4.229167e-38
44	0x8082f3e0	-1.20261e-38
45	0x80b8263f	-1.6911451e-38
46	0x80290791	-3.76797e-39
47	0x8187c04e	-4.986711e-38
48	0x016e30b2	4.3748633e-38
49	0x005532a6	7.824186e-39
50	0x811d7a28	-2.892399e-38
51	0x016391b6	4.1797858e-38
52	0x0180dd11	4.733699e-38
53	0x8049ab5c	-6.765463e-39
54	0x807aca5c	-1.1276523e-38
55	0x01008505	2.3605324e-38
56	0x804cf1d0	-7.066244e-39
57	0x0147b586	3.6680764e-38
58	0x80e667c0	-2.1159383e-38
59	0x003f0a70	5.78938e-39
60	0x805ec4d3	-8.703144e-39
61	0x815da024	-4.0706185e-38
62	0x8012941c	-1.70617e-39
63	0x813dd19a	-3.48642e-38
64	0x009d0577	1.4420133e-38
65	0x80db075c	-2.0114614e-38
66	0x01595bfb	3.9922598e-38
67	0x00a52c83	1.5168825e-38
68	0x0018442d	2.228509e-39
69	0x808fe17a	-1.3213362e-38
70	0x80d03bc3	-1.9123222e-38
71	0x80d5e4ec	-1.9643082e-38
72	0x81411d0c	-3.5469342e-38
73	0x017e5268	4.6711556e-38
74	0x81028e52	-2.397934e-38
75	0x0073bba1	1.062839e-38
76	0x802fb89d	-4.382495e-39
77	0x009b98c0	1.4289298e-38
78	0x814de65f	-3.7817837e-38
79	0x00c548ce	1.811771e-38
80	0x801120d4	-1.57298e-39
81	0x00d1cf42	1.9267969e-38
82	0x81081715	-2.4995816e-38
83	0x807b20a8	-1.1307481e-38
84	0x0054e88c	7.797604e-39
85	0x0067d3c5	9.535025e-39
86	0x009f5c44	1.4634943e-38
87	0x81a5e119	-6.0934427e-38
88	0x008dd41c	1.3024895e-38
89	0x0045dec4	6.416562e-39
90	0x015102b4	3.8389177e-38
91	0x812a3c88	-3.1267498e-38
92	0x014d0477	3.7655757e-38
93	0x80d564fa	-1.9597184e-38
94	0x01102993	2.647845e-38
95	0x009bd78c	1.4311826e-38
96	0x80ea01e7	-2.1490189e-38
97	0x00337cf9	4.728442e-39
98	0x814f5157	-3.8078254e-38
99	0x811453d2	-2.7243445e-38
100	0x8090fb12	-1.3314379e-38
101	0x80cf489d	-1.9035996e-38
102	0x81127788	-2.6901724e-38
103	0x816815c8	-4.2627297e-38
104	0x8158a0ed	-3.9788393e-38
105	0x014aee36	3.7272448e-38
106	0x80da44eb	-2.0044861e-38
107	0x803eb05b	-5.757065e-39
108	0x0003db56	3.5419e-40
109	0x81847be0	-4.8666894e-38
110	0x0171b72c	4.4396129e-38
111	0x81247816	-3.02082e-38
112	0x00734634	1.0586266e-38
113	0x0023403c	3.237285e-39
114	0x00ff18aa	2.34269e-38
115	0x00aaef7a	1.5697942e-38
116	0x8035cd6f	-4.940977e-39
117	0x803a8cd0	-5.376973e-39
118	0x015ccc66	4.0554267e-38
119	0x01a62619	6.1033437e-38
120	0x8132693b	-3.2768936e-38
121	0x8129d97d	-3.1196438e-38
122	0x005ea3aa	8.691248e-39
123	0x81643228	-4.1912972e-38
124	0x8192fb47	-5.3992495e-38
125	0x80299ea1	-3.82216e-39
126	0x00bc8057	1.7311113e-38
127	0x80debd9c	-2.0455499e-38

encoder.2.weight f4 [128]
0	0x01179c0d	2.784628e-38
1	0x011784f4	2.782971e-38
2	0x01290218	3.10419e-38
3	0x81114150	-2.6679153e-38
4	0x01046bac	2.4321822e-38
5	0x80fc090d	-2.3145792e-38
6	0x01114e42	2.668844e-38
7	0x00a995c7	1.5573929e-38
8	0x0121f4ae	2.974658e-38
9	0x80b123a4	-1.6267668e-38
10	0x00719b89	1.0433207e-38
11	0x0116f8e7	2.7729228e-38
12	0x0113bffe	2.7137384e-38
13	0x0144ea8c	3.6167794e-38
14	0x0107c715	2.4938418e-38
15	0x011d0de6	2.8846317e-38
16	0x010ca444	2.5831794e-38
17	0x010ad0aa	2.5496306e-38
18	0x01777e2c	4.545726e-38
19	0x015b31e1	4.0259734e-38
20	0x0115854c	2.7462614e-38
21	0x011d233c	2.8861625e-38
22	0x015548b8	3.9174095e-38
23	0x01027ca9	2.3966668e-38
24	0x817c0831	-4.6290967e-38
25	0x80003015	-1.7249e-41
26	0x01168136	2.7643353e-38
27	0x01899146	5.053431e-38
28	0x814303c6	-3.581855e-38
29	0x80c125b3	-1.7737775e-38
30	0x809475cc	-1.3633911e-38
31	0x010b8af4	2.5629962e-38
32	0x011b6670	2.85425e-38
33	0x010b09fe	2.5537437e-38
34	0x0108f4bb	2.515484e-38
35	0x80c40d53	-1.8004537e-38
36	0x00fa7351	2.3000242e-38
37	0x00fc6c26	2.3181341e-38
38	0x80d2b49f	-1.9350249e-38
39	0x80d92a84	-1.9943554e-38
40	0x0108ce5b	2.5127308e-38
41	0x815367b0	-3.8828972e-38
42	0x010b0d06	2.5539612e-38
43	0x0102553a	2.3938376e-38
44	0x010e83d0	2.6175852e-38
45	0x01035e3e	2.4128515e-38
46	0x00da46ff	2.0045607e-38
47	0x00f680cc	2.2637736e-38
48	0x002f0c38	4.320652e-39
49	0x011f010b	2.9204436e-38
50	0x80cd2cc4	-1.8842336e-38
51	0x01193e0e	2.8146184e-38
52	0x0115a270	2.748352e-38
53	0x8082e489	-1.2020597e-38
54	0x018d4872	5.1899174e-38
55	0x8074365f	-1.0672422e-38
56	0x0105c474	2.456919e-38
57	0x008d8809	1.2997605e-38
58	0x808a4fb1	-1.2701886e-38
59	0x010a004e	2.5346816e-38
60	0x01159341	2.7472627e-38
61	0x010ae063	2.5507587e-38
62	0x813d7f22	-3.480503e-38
63	0x01379f58	3.3726115e-38
64	0x01194a66	2.815504e-38
65	0x007f3831	1.1683266e-38
66	0x81a69999	-6.119917e-38
67	0x01188d76	2.8019484e-38
68	0x01060fb0	2.4623168e-38
69	0x001ba832	2.539896e-39
70	0x010f62b8	2.633578e-38
71	0x010b75b1	2.5614707e-38
72	0x811172b2	-2.6714584e-38
73	0x00eb76db	2.1623979e-38
74	0x00f6a0b4	2.2649181e-38
75	0x01061a86	2.4630943e-38
76	0x011f3f6e	2.9249196e-38
77	0x01112cc9	2.6664426e-38
78	0x80b48709	-1.6578831e-38
79	0x011c8ee1	2.8755185e-38
80	0x0116cbc8	2.7696855e-38
81	0x011aee28	2.8456202e-38
82	0x012177ba	2.965693e-38
83	0x0118be7d	2.805466e-38
84	0x01a0b446	5.90334e-38
85	0x00af99bd	1.6126363e-38
86	0x011b97a4	2.85778e-38
87	0x0124d0e4	3.0271914e-38
88	0x00ca2758	1.8564884e-38
89	0x804acac8	-6.868571e-39
90	0x0100fce0	2.3691316e-38
91	0x81869e04	-4.945057e-38
92	0x010dbae8	2.6031709e-38
93	0x0119677a	2.8175903e-38
94	0x010ea06e	2.6196384e-38
95	0x010ddc2b	2.6055573e-38
96	0x018935aa	5.0402856e-38
97	0x0110cdda	2.6596314e-38
98	0x0107d5b8	2.494892e-38
99	0x00e90cf6	2.140232e-38
100	0x01135c2b	2.7065763e-38
101	0x8173eef2	-4.4803486e-38
102	0x817e5e0c	-4.6719907e-38
103	0x01377aa8	3.3699793e-38
104	0x01097441	2.5246334e-38
105	0x0149f1e7	3.7091426e-38
106	0x01137d05	2.7089333e-38
107	0x8014be6d	-1.905022e-39
108	0x8147fe6c	-3.6733066e-38
109	0x802adac2	-3.935566e-39
110	0x0126c55a	3.0630978e-38
111	0x0111140b	2.6646674e-38
112	0x00beff57	1.7540343e-38
113	0x01224912	2.9807126e-38
114	0x00d8e060	1.9916958e-38
115	0x013aa558	3.4281433e-38
116	0x011127b8	2.666079e-38
117	0x010adb66	2.5504008e-38
118	0x00dc9af0	2.025939e-38
119	0x811d3eaa	-2.8881305e-38
120	0x0129fdf8	3.122261e-38
121	0x00666ddc	9.406631e-39
122	0x802e5a87	-4.256908e-39
123	0x01637d75	4.1783326e-38
124	0x011b20db	2.8492576e-38
125	0x81293c14	-3.1083502e-38
126	0x010bb984	2.566337e-38
127	0x011bff01	2.865196e-38

encoder.2.bias f4 [128]
0	0x019d49ae	5.7778417e-38
1	0x816d766e	-4.3614994e-38
2	0x80c204f0	-1.7817857e-38
3	0x812a7f66	-3.1315473e-38
4	0x817b16cc	-4.6117775e-38
5	0x804f59d9	-7.287235e-39
6	0x0180cdd9	4.731515e-38
7	0x803eff76	-5.785443e-39
8	0x010e0a01	2.6088458e-38
9	0x806a5f4b	-9.768747e-39
10	0x0138c446	3.3936282e-38
11	0x013e10c7	3.4909526e-38
12	0x817c7652	-4.636998e-38
13	0x011b3a59	2.8510866e-38
14	0x01a14d4e	5.9252986e-38
15	0x813fd4f6	-3.5233952e-38
16	0x81a6b5ea	-6.1239803e-38
17	0x0114c43a	2.7324093e-38
18	0x8049af61	-6.766905e-39
19	0x01601de9	4.1163762e-38
20	0x8135341b	-3.3281833e-38
21	0x80573ea6	-8.012162e-39
22	0x00857d99	1.2259177e-38
23	0x00d0ffc5	1.9193536e-38
24	0x00251311	3.404753e-39
25	0x81223893	-2.979529e-38
26	0x01246270	3.0192668e-38
27	0x00e07815	2.0614228e-38
28	0x8061ed0d	-8.993081e-39
29	0x001cdd76	2.650839e-39
30	0x81039910	-2.4170717e-38
31	0x00e127bf	2.0677245e-38
32	0x0078ef12	1.1106022e-38
33	0x019b9234	5.71478e-38
34	0x80725a9a	-1.0501748e-38
35	0x81809922	-4.723951e-38
36	0x80b7458c	-1.6830845e-38
37	0x019469e1	5.451854e-38
38	0x81aeaec0	-6.416826e-38
39	0x80615607	-8.938904e-39
40	0x80439b67	-6.208726e-39
41	0x81aa769c	-6.2618333e-38
42	0x8144e5d6	-3.6164414e-38
43	0x8067004d	-9.459164e-39
44	0x80949018	-1.3643345e-38
45	0x80ffd94c	-2.3496003e-38
46	0x0164e3d8	4.2040456e-38
47	0x000365c9	3.1202e-40
48	0x018bfbe2	5.142197e-38
49	0x00973b09	1.3888338e-38
50	0x81510a1f	-3.83945e-38
51	0x813a5ba1	-3.4228545e-38
52	0x81a38370	-6.0065347e-38
53	0x81206d4f	-2.9465784e-38
54	0x0173bd02	4.4767658e-38
55	0x0086cdfa	1.2379847e-38
56	0x00e701a5	2.121459e-38
57	0x811a6a14	-2.836144e-38
58	0x81191c03	-2.812176e-38
59	0x8192acdf	-5.387999e-38
60	0x001943da	2.320228e-39
61	0x8122bcf8	-2.989028e-38
62	0x009be2f6	1.431592e-38
63	0x003723f9	5.063857e-39
64	0x80e13f34	-2.068566e-38
65	0x815ec1aa	-4.0913907e-38
66	0x812a39cf	-3.1265544e-38
67	0x81096642	-2.5236292e-38
68	0x801d5761	-2.694575e-39
69	0x814b1ff9	-3.730815e-38
70	0x81934a56	-5.410594e-38
71	0x01a79756	6.156327e-38
72	0x00f66577	2.2627931e-38
73	0x80fafafd	-2.3048912e-38
74	0x8015382e	-1.948699e-39
75	0x80527d61	-7.575488e-39
76	0x8125ae4a	-3.043076e-38
77	0x0054c96b	7.786437e-39
78	0x801d1a9d	-2.672776e-39
79	0x017ab817	4.6049826e-38
80	0x005ff0bd	8.810733e-39
81	0x8191f6fc	-5.3618993e-38
82	0x815fb7b9	-4.1090446e-38
83	0x01287c96	3.0946113e-38
84	0x01196363	2.8172968e-38
85	0x81abdb7e	-6.3130435e-38
86	0x010c9820	2.5823083e-38
87	0x8085ef82	-1.230004e-38
88	0x8112427f	-2.6863673e-38
89	0x0180c2b5	4.7299165e-38
90	0x014d7ec8	3.7743515e-38
91	0x016f6dcd	4.3976145e-38
92	0x81677f3c	-4.2519285e-38
93	0x0121ae89	2.9696253e-38
94	0x006072bc	8.857367e-39
95	0x01ac13f5	6.321146e-38
96	0x81ac46ac	-6.328423e-38
97	0x008537ee	1.2234185e-38
98	0x812459fb	-3.01866e-38
99	0x8159f24c	-4.0030445e-38
100	0x001a21a2	2.399788e-39
101	0x00ea78b1	2.1532802e-38
102	0x01acf7a2	6.3538157e-38
103	0x0021ec98	3.115445e-39
104	0x813f8501	-3.5176585e-38
105	0x80ed6765	-2.1802104e-38
106	0x80406cb0	-5.916461e-39
107	0x018b1eb3	5.1104587e-38
108	0x000daeaf	1.256526e-39
109	0x0099cafe	1.4123651e-38
110	0x8166e553	-4.240886e-38
111	0x00435b42	6.185715e-39
112	0x8057bc13	-8.057156e-39
113	0x0114d718	2.733763e-38
114	0x0005504b	4.87981e-40
115	0x818a10f1	-5.0717504e-38
116	0x0195627c	5.4875274e-38
117	0x80f47f52	-2.2453535e-38
118	0x00d813ef	1.9843618e-38
119	0x0186f768	4.9578836e-38
120	0x8170cc8e	-4.42278e-38
121	0x818ce797	-5.1760193e-38
122	0x0181d848	4.7697464e-38
123	0x818d952f	-5.200929e-38
124	0x00ba63e4	1.7117236e-38
125	0x803a3b29	-5.347681e-39
126	0x8152629b	-3.8641654e-38
127	0x812ff95e	-3.2321336e-38

encoder.2.running_mean f4 [128]
0	0x01102a30	2.647889e-38
1	0x811653ec	-2.761086e-38
2	0x8020d238	-3.014148e-39
3	0x802de1de	-4.213623e-39
4	0x804d05a4	-7.073357e-39
5	0x00753fcb	1.0767638e-38
6	0x80d81352	-1.9843398e-38
7	0x800cc433	-1.172409e-39
8	0x017dc94b	4.6613182e-38
9	0x012bf700	3.1584953e-38
10	0x005d7f98	8.586473e-39
11	0x007bcbb5	1.1368842e-38
12	0x0195351a	5.481015e-38
13	0x80215da3	-3.064162e-39
14	0x014f6cf2	3.809806e-38
15	0x8079dc9f	-1.1191239e-38
16	0x80962ea6	-1.3792059e-38
17	0x001defac	2.749207e-39
18	0x019114ee	5.329462e-38
19	0x011f5a7c	2.9268607e-38
20	0x8059b95e	-8.239856e-39
21	0x80a3e582	-1.5051518e-38
22	0x810510e0	-2.444035e-38
23	0x0104830a	2.4338587e-38
24	0x803ff9d2	-5.875255e-39
25	0x803dd36d	-5.67781e-39
26	0x8051f7ca	-7.527565e-39
27	0x8045ad7a	-6.398881e-39
28	0x80261bd5	-3.499733e-39
29	0x8044a3c7	-6.303566e-39
30	0x00c66e52	1.8223004e-38
31	0x800b4f84	-1.038715e-39
32	0x80545e0f	-7.747924e-39
33	0x009cab28	1.4387737e-38
34	0x010686e8	2.4708703e-38
35	0x801a7a27	-2.431543e-39
36	0x804b6c8a	-6.926599e-39
37	0x80592068	-8.184984e-39
38	0x01b949fa	6.806442e-38
39	0x802ab404	-3.921668e-39
40	0x02498cf5	1.48076e-37
41	0x803765ed	-5.087516e-39
42	0x01eca275	8.692582e-38
43	0x802878ac	-3.716709e-39
44	0x80d4ff6b	-1.9560752e-38
45	0x806debdc	-1.009468e-38
46	0x801205a8	-1.655068e-39
47	0x8052bd3b	-7.598394e-39
48	0x0024bb38	3.373239e-39
49	0x02038712	9.663123e-38
50	0x80415bc7	-6.002231e-39
51	0x019945bb	5.630338e-38
52	0x002af825	3.946108e-39
53	0x806ed4f5	-1.0178299e-38
54	0x804e0292	-7.164091e-39
55	0x01187cca	2.8007523e-38
56	0x01de61bf	8.169018e-38
57	0x80d3c8d2	-1.944933e-38
58	0x8079265f	-1.112586e-38
59	0x80aad215	-1.5687398e-38
60	0x8039a081	-5.292201e-39
61	0x803c34ea	-5.529112e-39
62	0x00f77a52	2.2727248e-38
63	0x8059aeae	-8.236022e-39
64	0x007d149c	1.148683e-38
65	0x015e02a3	4.0776852e-38
66	0x8014ea3b	-1.920736e-39
67	0x00570036	7.989764e-39
68	0x8016db99	-2.099158e-39
69	0x8031171a	-4.508227e-39
70	0x81023ce4	-2.3920916e-38
71	0x0198cd9c	5.6131017e-38
72	0x808943c9	-1.260578e-38
73	0x00801ce6	1.176531e-38
74	0x8014fa67	-1.926537e-39
75	0x01284d18	3.091204e-38
76	0x0043a10c	6.210751e-39
77	0x809ff359	-1.468914e-38
78	0x803535d1	-4.886587e-39
79	0x00cb91a0	1.8694846e-38
80	0x015bd3dc	4.037595e-38
81	0x01932ff2	5.406807e-38
82	0x80a524af	-1.5166016e-38
83	0x806192d9	-8.960722e-39
84	0x8038649a	-5.178877e-39
85	0x80275638	-3.612514e-39
86	0x002f9fd0	4.373598e-39
87	0x81568d36	-3.9406906e-38
88	0x8032792e	-4.635246e-39
89	0x00db09ca	2.0115485e-38
90	0x806a8467	-9.78206e-39
91	0x0127d4fc	3.0825865e-38
92	0x801e3b45	-2.776327e-39
93	0x810910f8	-2.51751e-38
94	0x00c39d63	1.7964381e-38
95	0x01cf9cea	7.626495e-38
96	0x802dc6e6	-4.203949e-39
97	0x8000a9a9	-6.0863e-41
98	0x80f8a24b	-2.2833423e-38
99	0x80287e7c	-3.718794e-39
100	0x80973c23	-1.3888733e-38
101	0x8021baa3	-3.097524e-39
102	0x8025a9d5	-3.458838e-39
103	0x803b3663	-5.437805e-39
104	0x80188a27	-2.253612e-39
105	0x0147cafe	3.6696167e-38
106	0x00ee133b	2.1863747e-38
107	0x005276ce	7.57313e-39
108	0x015d6435	4.0663184e-38
109	0x80acefaa	-1.588168e-38
110	0x022d4501	1.2729836e-37
111	0x80870097	-1.2398004e-38
112	0x80160012	-2.020406e-39
113	0x800b20c2	-1.021942e-39
114	0x0116ffec	2.7734264e-38
115	0x0039f87c	5.323763e-39
116	0x00a33096	1.4986615e-38
117	0x00357b18	4.911439e-39
118	0x0174a6b3	4.4935323e-38
119	0x0132f00e	3.2865667e-38
120	0x01610746	4.1331192e-38
121	0x018e9b53	5.238544e-38
122	0x8020e416	-3.020558e-39
123	0x808c62ca	-1.2892408e-38
124	0x806029c2	-8.831188e-39
125	0x801f1396	-2.853926e-39
126	0x01705088	4.4138816e-38
127	0x8045704e	-6.376937e-39

encoder.2.running_var f4 [128]
0	0x00000004	6e-45
1	0x00000004	6e-45
2	0x00000004	6e-45
3	0x00000004	6e-45
4	0x00000004	6e-45
5	0x00000004	6e-45
6	0x00000004	6e-45
7	0x00000004	6e-45
8	0x00000004	6e-45
9	0x00000004	6e-45
10	0x00000004	6e-45
11	0x00000004	6e-45
12	0x00000004	6e-45
13	0x00000004	6e-45
14	0x00000004	6e-45
15	0x00000004	6e-45
16	0x00000004	6e-45
17	0x00000004	6e-45
18	0x00000004	6e-45
19	0x00000004	6e-45
20	0x00000004	6e-45
21	0x00000004	6e-45
22	0x00000004	6e-45
23	0x00000004	6e-45
24	0x00000004	6e-45
25	0x00000004	6e-45
26	0x00000004	6e-45
27	0x00000004	6e-45
28	0x00000004	6e-45
29	0x00000004	6e-45
30	0x00000004	6e-45
31	0x00000004	6e-45
32	0x00000004	6e-45
33	0x00000004	6e-45
34	0x00000004	6e-45
35	0x00000004	6e-45
36	0x00000004	6e-45
37	0x00000004	6e-45
38	0x00000004	6e-45
39	0x00000004	6e-45
40	0x00000004	6e-45
41	0x00000004	6e-45
42	0x00000004	6e-45
43	0x00000004	6e-45
44	0x00000004	6e-45
45	0x00000004	6e-45
46	0x00000004	6e-45
47	0x00000004	6e-45
48	0x00000004	6e-45
49	0x00000004	6e-45
50	0x00000004	6e-45
51	0x00000004	6e-45
52	0x00000004	6e-45
53	0x00000004	6e-45
54	0x00000004	6e-45
55	0x00000004	6e-45
56	0x00000004	6e-45
57	0x00000004	6e-45
58	0x00000004	6e-45
59	0x00000004	6e-45
60	0x00000004	6e-45
61	0x00000004	6e-45
62	0x00000004	6e-45
63	0x00000004	6e-45
64	0x00000004	6e-45
65	0x00000004	6e-45
66	0x00000004	6e-45
67	0x00000004	6e-45
68	0x00000004	6e-45
69	0x00000004	6e-45
70	0x00000004	6e-45
71	0x00000004	6e-45
72	0x00000004	6e-45
73	0x00000004	6e-45
74	0x00000004	6e-45
75	0x00000004	6e-45
76	0x00000004	6e-45
77	0x00000004	6e-45
78	0x00000004	6e-45
79	0x00000004	6e-45
80	0x00000004	6e-45
81	0x00000004	6e-45
82	0x00000004	6e-45
83	0x00000004	6e-45
84	0x00000004	6e-45
85	0x00000004	6e-45
86	0x00000004	6e-45
87	0x00000004	6e-45
88	0x00000004	6e-45
89	0x00000004	6e-45
90	0x00000004	6e-45
91	0x00000004	6e-45
92	0x00000004	6e-45
93	0x00000004	6e-45
94	0x00000004	6e-45
95	0x00000004	6e-45
96	0x00000004	6e-45
97	0x00000004	6e-45
98	0x00000004	6e-45
99	0x00000004	6e-45
100	0x00000004	6e-45
101	0x00000004	6e-45
102	0x00000004	6e-45
103	0x00000004	6e-45
104	0x00000004	6e-45
105	0x00000004	6e-45
106	0x00000004	6e-45
107	0x00000004	6e-45
108	0x00000004	6e-45
109	0x00000004	6e-45
110	0x00000004	6e-45
111	0x00000004	6e-45
112	0x00000004	6e-45
113	0x00000004	6e-45
114	0x00000004	6e-45
115	0x00000004	6e-45
116	0x00000004	6e-45
117	0x00000004	6e-45
118	0x00000004	6e-45
119	0x00000004	6e-45
120	0x00000004	6e-45
121	0x00000004	6e-45
122	0x00000004	6e-45
123	0x00000004	6e-45
124	0x00000004	6e-45
125	0x00000004	6e-45
126	0x00000004	6e-45
127	0x00000004	6e-45

encoder.4.weight f4 [128, 128]
0	0x800f4281	-1.40139e-39
1	0x00403dee	5.899688e-39
2	0x80d548cf	-1.958708e-38
3	0x0065e96d	9.359123e-39
4	0x8017a83e	-2.17257e-39
5	0x8108b078	-2.5105865e-38
6	0x8090c95b	-1.3296544e-38
7	0x80c85457	-1.8397355e-38
8	0x8038c8f4	-5.214876e-39
9	0x8013da99	-1.823292e-39
10	0x813b5afd	-3.4411756e-38
11	0x0052a95e	7.591268e-39
12	0x8045d04f	-6.411376e-39
13	0x803977ca	-5.277595e-39
14	0x006df2fd	1.0097237e-38
15	0x0038674e	5.179847e-39
16	0x8016815c	-2.066786e-39
17	0x80019a4b	-1.47185e-40
18	0x000f3c71	1.399215e-39
19	0x80c7aa84	-1.8336433e-38
20	0x8010534c	-1.499249e-39
21	0x000013f5	7.159e-42
22	0x8080a6db	-1.18148e-38
23	0x006d852a	1.005784e-38
24	0x00ade4e0	1.5969646e-38
25	0x017aade6	4.6042514e-38
26	0x004242ce	6.085108e-39
27	0x016d612e	4.3599748e-38
28	0x0151bbf4	3.8522087e-38
29	0x80c45bd5	-1.80327e-38
30	0x00d8df5d	1.9916595e-38
31	0x015f5e54	4.1026308e-38
32	0x803d7cfc	-5.646801e-39
33	0x804e0c73	-7.167635e-39
34	0x80b88d13	-1.6948339e-38
35	0x00044fb3	3.95933e-40
36	0x019dcaa4	5.7963467e-38
37	0x0022fc6f	3.212963e-39
38	0x0046f892	6.517655e-39
39	0x00dce912	2.0287419e-38
40	0x001cbc84	2.63902e-39
41	0x80fcd9a9	-2.3220627e-38
42	0x800a6de9	-9.57783e-40
43	0x001d38e3	2.683636e-39
44	0x8023674e	-3.251301e-39
45	0x8040cc8c	-5.95085e-39
46	0x0074b594	1.0718056e-38
47	0x8039fe71	-5.3259e-39
48	0x80180fcf	-2.209723e-39
49	0x005a01ed	8.265885e-39
50	0x80e56ddb	-2.1069737e-38
51	0x0045c49f	6.407184e-39
52	0x0033fa3b	4.773376e-39
53	0x800a8bc3	-9.68492e-40
54	0x0083ff3e	1.2122014e-38
55	0x0072ecde	1.0554218e-38
56	0x00138a51	1.794493e-39
57	0x812b0168	-3.140875e-38
58	0x00a8d8cb	1.5506134e-38
59	0x809a7e0d	-1.4187885e-38
60	0x810f0c02	-2.6273567e-38
61	0x000da5ba	1.253313e-39
62	0x0039d452	5.31079e-39
63	0x0151915f	3.8491536e-38
64	0x8152992b	-3.86808e-38
65	0x0038568d	5.173836e-39
66	0x814a2498	-3.7127795e-38
67	0x0026f0c2	3.576116e-39
68	0x8114c28a	-2.7322882e-38
69	0x003b2408	5.43122e-39
70	0x80a589f3	-1.5202344e-38
71	0x00667d75	9.412226e-39
72	0x00213467	3.04937e-39
73	0x01761fc8	4.5205866e-38
74	0x00eaa064	2.1547043e-38
75	0x80695399	-9.672716e-39
76	0x0166deaa	4.2404082e-38
77	0x00468154	6.474879e-39
78	0x804aa9d8	-6.856755e-39
79	0x8116682e	-2.7625394e-38
80	0x00205b3d	2.971466e-39
81	0x00ef1313	2.1955526e-38
82	0x808df3d8	-1.303628e-38
83	0x008ef08d	1.3126934e-38
84	0x8037d76e	-5.128234e-39
85	0x80055cca	-4.92464e-40
86	0x817034da	-4.4118957e-38
87	0x00fe1a87	2.3335732e-38
88	0x0082e9c2	1.2022471e-38
89	0x00801295	1.176161e-38
90	0x80a873d3	-1.5469913e-38
91	0x806ddcf1	-1.0089328e-38
92	0x0076fe60	1.0927841e-38
93	0x804b578d	-6.91907e-39
94	0x000cbbd7	1.16941e-39
95	0x00a59fa6	1.5210128e-38
96	0x8013eeef	-1.830588e-39
97	0x80904e9b	-1.325251e-38
98	0x009909bc	1.4054323e-38
99	0x0159f811	4.0034584e-38
100	0x80160a4a	-2.024072e-39
101	0x0105c43f	2.4569042e-38
102	0x80da019c	-2.0020715e-38
103	0x819f2de1	-5.847321e-38
104	0x8187c17d	-4.986881e-38
105	0x80de0c19	-2.039182e-38
106	0x000dd6d0	1.270922e-39
107	0x00411b11	5.979017e-39
108	0x005a12d6	8.271952e-39
109	0x80e0216a	-2.0583138e-38
110	0x803d0b79	-5.606081e-39
111	0x000d864d	1.24204e-39
112	0x00645625	9.214452e-39
113	0x804be2ce	-6.969024e-39
114	0x8101051c	-2.3697224e-38
115	0x8015db34	-2.00718e-39
116	0x8078e131	-1.1101043e-38
117	0x00a4fd72	1.515194e-38
118	0x013b8847	3.444425e-38
119	0x00802b63	1.1770508e-38
120	0x0015e338	2.010056e-39
121	0x002e7324	4.265737e-39
122	0x81621b56	-4.1529257e-38
123	0x81816abc	-4.754027e-38
124	0x803500d8	-4.867584e-39
125	0x00b258d5	1.6378585e-38
126	0x8064921d	-9.235965e-39
127	0x01914e69	5.33771e-38
128	0x00fccbfc	2.3215721e-38
129	0x801b0e42	-2.484673e-39
130	0x80608a77	-8.86588e-39
131	0x0014ee68	1.922234e-39
132	0x00709185	1.0337778e-38
133	0x8115ef12	-2.7538502e-38
134	0x818a949a	-5.0906427e-38
135	0x80900f95	-1.3229901e-38
136	0x8166da54	-4.240097e-38
137	0x01406af4	3.5341566e-38
138	0x800e7c2d	-1.330243e-39
139	0x01863426	4.9298655e-38
140	0x00fdb68d	2.3299867e-38
141	0x0140eb70	3.543375e-38
142	0x007e0695	1.1573634e-38
143	0x01875fe8	4.9728787e-38
144	0x0145f3a4	3.635799e-38
145	0x0021fcaf	3.121217e-39
146	0x0189f74c	5.0680706e-38
147	0x802f8b04	-4.366138e-39
148	0x00bb2552	1.7186626e-38
149	0x80c65e50	-1.8217261e-38
150	0x010bdf88	2.5690644e-38
151	0x010705af	2.4799662e-38
152	0x0012103f	1.658867e-39
153	0x0185369d	4.893485e-38
154	0x0080831f	1.1801981e-38
155	0x0143834d	3.5910047e-38
156	0x017767e9	4.5441287e-38
157	0x8060e444	-8.898094e-39
158	0x81247d5b	-3.021198e-38
159	0x01603568	4.118062e-38
160	0x013555a4	3.3305894e-38
161	0x0122273f	2.9782858e-38
162	0x80f7f140	-2.2769912e-38
163	0x012e9a72	3.2069562e-38
164	0x815ec0dc	-4.091333e-38
165	0x00ef88bb	2.1997733e-38
166	0x80e93bc3	-2.1419109e-38
167	0x016e5fba	4.3782377e-38
168	0x002096c9	2.992827e-39
169	0x01026871	2.3952162e-38
170	0x01204c3d	2.9442057e-38
171	0x00f19d4d	2.2188783e-38
172	0x01285156	3.0915082e-38
173	0x815d5622	-4.0653087e-38
174	0x8103ac9c	-2.418474e-38
175	0x80d14d0c	-1.9221258e-38
176	0x01462b5e	3.639797e-38
177	0x80f4fef3	-2.249932e-38
178	0x8169fc49	-4.2976347e-38
179	0x007ff831	1.1752142e-38
180	0x001d6864	2.700678e-39
181	0x015bf5fc	4.0400432e-38
182	0x00b2b3f7	1.6411278e-38
183	0x814b5030	-3.7342743e-38
184	0x001ab548	2.452754e-39
185	0x8029effa	-3.851343e-39
186	0x0088e15e	1.2570474e-38
187	0x009f50a4	1.4630772e-38
188	0x81850314	-4.88609e-38
189	0x809f5edb	-1.4635872e-38
190	0x01469af0	3.647802e-38
191	0x80992b96	-1.4066467e-38
192	0x809c28c4	-1.4340961e-38
193	0x802c6bc3	-4.07942e-39
194	0x007de422	1.1561276e-38
195	0x806a2a4d	-9.749737e-39
196	0x8164e257	-4.2039377e-38
197	0x01590770	3.9861941e-38
198	0x8015d572	-2.005115e-39
199	0x0166ce60	4.2392395e-38
200	0x803bc5f2	-5.489304e-39
201	0x00b15c0f	1.6287907e-38
202	0x801e6667	-2.7918e-39
203	0x818eb46e	-5.2421466e-38
204	0x8123a1d0	-3.0054467e-38
205	0x0187dca1	4.9907755e-38
206	0x81508ca1	-3.8304463e-38
207	0x801156f6	-1.592399e-39
208	0x80393646	-5.254093e-39
209	0x00343989	4.796086e-39
210	0x8098212b	-1.3970894e-38
211	0x804aa1c4	-6.853857e-39
212	0x013cd741	3.4684584e-38
213	0x009a7f3a	1.4188307e-38
214	0x0092ab9b	1.3469543e-38
215	0x801c8d99	-2.62219e-39
216	0x00fa4638	2.2984064e-38
217	0x014a318e	3.7137094e-38
218	0x00738a01	1.0610589e-38
219	0x010c3c3c	2.5757155e-38
220	0x0088714a	1.2530268e-38
221	0x81760072	-4.5183384e-38
222	0x81a22500	-5.9562494e-38
223	0x0105ddba	2.4587323e-38
224	0x814be0e7	-3.744657e-38
225	0x80f39f5e	-2.2373196e-38
226	0x0033e6ea	4.766447e-39
227	0x0044b721	6.310508e-39
228	0x80481086	-6.618083e-39
229	0x8167e7cc	-4.2594305e-38
230	0x80a55a52	-1.5185258e-38
231	0x807e4370	-1.1595465e-38
232	0x81473925	-3.6591527e-38
233	0x80db6989	-2.0149833e-38
234	0x818a0dcc	-5.071299e-38
235	0x800ed784	-1.36301e-39
236	0x0109ca1a	2.5307927e-38
237	0x0057aa19	8.050708e-39
238	0x802c9edf	-4.097754e-39
239	0x0054fc4d	7.80469e-39
240	0x018dbe2d	5.206811e-38
241	0x00b077d3	1.6206032e-38
242	0x0198c396	5.6116634e-38
243	0x00271161	3.587819e-39
244	0x80c91393	-1.8465957e-38
245	0x813111dc	-3.252258e-38
246	0x004ae778	6.878862e-39
247	0x812f1dce	-3.2163807e-38
248	0x0173e868	4.4798794e-38
249	0x8153ee06	-3.8925353e-38
250	0x0042b13f	6.124727e-39
251	0x015cfd0d	4.0589173e-38
252	0x81547c84	-3.9027586e-38
253	0x004f4793	7.28068e-39
254	0x805869cd	-8.119478e-39
255	0x80b4ea23	-1.6614382e-38

encoder.4.bias f4 [128]
0	0x816b25c8	-4.318979e-38
1	0x002e1d95	4.235045e-39
2	0x0060b7ee	8.882189e-39
3	0x004938eb	6.72441e-39
4	0x00368780	5.007725e-39
5	0x8101c17d	-2.383238e-38
6	0x0180b59e	4.728038e-38
7	0x03131dbe	4.323356e-37
8	0x8024f119	-3.392567e-39
9	0x00c3be05	1.7976088e-38
10	0x8104fdaa	-2.4426566e-38
11	0x010921a8	2.5187073e-38
12	0x802a8129	-3.903425e-39
13	0x016a6c26	4.3056605e-38
14	0x8125a8d6	-3.0426848e-38
15	0x01991b7d	5.624277e-38
16	0x01725735	4.4510948e-38
17	0x813e4d9e	-3.4953176e-38
18	0x81079620	-2.4903293e-38
19	0x0067d262	9.534527e-39
20	0x811db694	-2.896734e-38
21	0x815845dd	-3.972306e-38
22	0x81821b88	-4.7793963e-38
23	0x8115a98c	-2.7488622e-38
24	0x81079e67	-2.4909232e-38
25	0x002156ea	3.06175e-39
26	0x016cc949	4.349077e-38
27	0x80258447	-3.445366e-39
28	0x80b292b9	-1.6399352e-38
29	0x0108309c	2.501413e-38
30	0x017f6ca2	4.6914043e-38
31	0x810baf16	-2.5655886e-38
32	0x00636b8c	9.130295e-39
33	0x009b668f	1.4271293e-38
34	0x01497d88	3.7007934e-38
35	0x80f5d9ee	-2.2577875e-38
36	0x8064c07e	-9.252603e-39
37	0x812ae472	-3.138797e-38
38	0x811d1a36	-2.885515e-38
39	0x81077800	-2.488168e-38
40	0x016916d4	4.281172e-38
41	0x8187b5ea	-4.98522e-38
42	0x015217a6	3.8587875e-38
43	0x009131ae	1.3333969e-38
44	0x81afc964	-6.457383e-38
45	0x813e277e	-3.4925823e-38
46	0x00d4cf38	1.9543461e-38
47	0x00bdbd58	1.7424833e-38
48	0x00520363	7.531726e-39
49	0x803e2078	-5.705448e-39
50	0x0079696a	1.114991e-38
51	0x817a4995	-4.597054e-38
52	0x80cae4f8	-1.8632909e-38
53	0x0000f8ed	8.9298e-41
54	0x80461a28	-6.437868e-39
55	0x811d586a	-2.889978e-38
56	0x01a43fa3	6.03354e-38
57	0x01e8dc32	8.5539305e-38
58	0x80c778e1	-1.8318627e-38
59	0x002e9014	4.276118e-39
60	0x80407f87	-5.92322e-39
61	0x00780505	1.102206e-38
62	0x80ffd0d5	-2.3492966e-38
63	0x81d8aaeb	-7.9591124e-38
64	0x001bb331	2.54384e-39
65	0x811e2cb0	-2.9052078e-38
66	0x01409095	3.5368563e-38
67	0x818b744b	-5.122741e-38
68	0x01a085ec	5.8966886e-38
69	0x81154b5e	-2.742105e-38
70	0x8097b096	-1.3930507e-38
71	0x00a848aa	1.545443e-38
72	0x81e1ae72	-8.2902263e-38
73	0x801096d0	-1.523469e-39
74	0x8054a48b	-7.773209e-39
75	0x8112e29a	-2.6978544e-38
76	0x007b68d6	1.1333374e-38
77	0x022c151b	1.2642621e-37
78	0x819b5e33	-5.7073177e-38
79	0x0133a618	3.2996274e-38
80	0x80672829	-9.473463e-39
81	0x81847015	-4.864997e-38
82	0x00cc856e	1.8782307e-38
83	0x80176d70	-2.151475e-39
84	0x812a8319	-3.1318127e-38
85	0x80c9784f	-1.8502093e-38
86	0x81a55c0e	-6.074352e-38
87	0x0181b046	4.7640056e-38
88	0x01549532	3.9045293e-38
89	0x80b4ea67	-1.6614477e-38
90	0x807b9f1b	-1.1352842e-38
91	0x0156772b	3.939109e-38
92	0x816abf73	-4.311637e-38
93	0x8147d0a6	-3.6700225e-38
94	0x814b88c4	-3.7383336e-38
95	0x00e12ea0	2.0679713e-38
96	0x813ebcda	-3.5032983e-38
97	0x80fc410c	-2.316588e-38
98	0x804e13e8	-7.17031e-39
99	0x8092fc62	-1.349852e-38
100	0x0126d9dc	3.064569e-38
101	0x013a75f0	3.424742e-38
102	0x80470f38	-6.52578e-39
103	0x803e2781	-5.707972e-39
104	0x80417657	-6.01176e-39
105	0x80aea959	-1.6040127e-38
106	0x814f7b05	-3.8108158e-38
107	0x0198cef2	5.6132934e-38
108	0x81e931d4	-8.566218e-38
109	0x8190cb42	-5.3188906e-38
110	0x818875eb	-5.0127714e-38
111	0x003dce1a	5.6759e-39
112	0x80c11f57	-1.7735493e-38
113	0x016f3d60	4.3941402e-38
114	0x80999ecc	-1.4107796e-38
115	0x810d2974	-2.592735e-38
116	0x8137b6ee	-3.3743037e-38
117	0x811fa498	-2.9321778e-38
118	0x0163cc28	4.183979e-38
119	0x017f55a8	4.6897558e-38
120	0x80d39a72	-1.9432694e-38
121	0x816efa0f	-4.3893104e-38
122	0x0037a7aa	5.111099e-39
123	0x01849555	4.8703423e-38
124	0x00b68859	1.6762973e-38
125	0x811818fe	-2.7935922e-38
126	0x812277db	-2.9840693e-38
127	0x00423f54	6.08386e-39

fc_mu.weight f4 [16, 128]
0	0x811b04eb	-2.8472532e-38
1	0x800e4682	-1.31099e-39
2	0x80fdf742	-2.332308e-38
3	0x80ece8c4	-2.1756678e-38
4	0x00989193	1.4011218e-38
5	0x80e3d2bc	-2.0922255e-38
6	0x00acc99c	1.5868029e-38
7	0x0153f0c8	3.8927331e-38
8	0x80106271	-1.504682e-39
9	0x00357aee	4.91138e-39
10	0x805e98a0	-8.687288e-39
11	0x8141b1b4	-3.5575997e-38
12	0x01a39754	6.009389e-38
13	0x815980d6	-3.994904e-38
14	0x018d27bf	5.185225e-38
15	0x81b0c344	-6.493238e-38
16	0x01490b12	3.6925812e-38
17	0x80cfd688	-1.9086907e-38
18	0x00c3568e	1.7938972e-38
19	0x01947bb1	5.45441e-38
20	0x80c9e712	-1.8541827e-38
21	0x804e2889	-7.17771e-39
22	0x00fc224e	2.3154851e-38
23	0x014c1878	3.7486438e-38
24	0x0165d488	4.221314e-38
25	0x0061c1dd	8.977588e-39
26	0x815d0c64	-4.060018e-38
27	0x80eabc88	-2.1557138e-38
28	0x013e7626	3.4982256e-38
29	0x01976305	5.5610726e-38
30	0x802b513b	-3.978066e-39
31	0x015ba095	4.033916e-38
32	0x000c8bd0	1.152181e-39
33	0x0013fcf2	1.835614e-39
34	0x01a6a29c	6.12121e-38
35	0x8197eefd	-5.581157e-38
36	0x809ed94f	-1.4587964e-38
37	0x819c4641	-5.740616e-38
38	0x00caaebb	1.8613452e-38
39	0x810130de	-2.3728618e-38
40	0x806c364a	-9.937709e-39
41	0x8165f312	-4.2235052e-38
42	0x8094aec4	-1.3654348e-38
43	0x0049a59e	6.763403e-39
44	0x013a0b93	3.417111e-38
45	0x821ff911	-1.1752954e-37
46	0x80896dbf	-1.2620832e-38
47	0x80e21603	-2.0762718e-38
48	0x01390017	3.3979198e-38
49	0x00140caf	1.84126e-39
50	0x803bd518	-5.494738e-39
51	0x80cdf12e	-1.8912796e-38
52	0x00713f6d	1.0400164e-38
53	0x8042f34f	-6.148425e-39
54	0x011d4308	2.8884438e-38
55	0x801984ae	-2.343484e-39
56	0x8164ce67	-4.2025073e-38
57	0x00cc2862	1.8748928e-38
58	0x01062034	2.4635018e-38
59	0x80bc852d	-1.7312848e-38
60	0x80205333	-2.968582e-39
61	0x01856cbc	4.901251e-38
62	0x002261c9	3.157486e-39
63	0x82143202	-1.0887674e-37
64	0x013a59b2	3.4227158e-38
65	0x00834725	1.2055972e-38
66	0x80544b86	-7.741274e-39
67	0x81007ef8	-2.3600983e-38
68	0x81aaa7c4	-6.268887e-38
69	0x809d2f0c	-1.443505e-38
70	0x80b818a4	-1.690657e-38
71	0x01235e25	3.0005917e-38
72	0x006443c0	9.207854e-39
73	0x013ba3a8	3.4463893e-38
74	0x805959b3	-8.205537e-39
75	0x013efdc2	3.507955e-38
76	0x007c6d28	1.142676e-38
77	0x01971346	5.5496296e-38
78	0x81960cfc	-5.511993e-38
79	0x8135f861	-3.3422653e-38
80	0x81576380	-3.956065e-38
81	0x0027e7b1	3.6647e-39
82	0x01321106	3.270565e-38
83	0x0124fb38	3.0302283e-38
84	0x01bbbaa8	6.896079e-38
85	0x80a7912a	-1.5388603e-38
86	0x80174e8d	-2.140395e-39
87	0x013dce24	3.4861716e-38
88	0x00712bd8	1.0393139e-38
89	0x8160b9e4	-4.1275672e-38
90	0x810a6808	-2.5421236e-38
91	0x80aa91b2	-1.56643e-38
92	0x013bc96c	3.449099e-38
93	0x809a2fbd	-1.4159792e-38
94	0x00ce2a67	1.8933323e-38
95	0x8016e714	-2.103276e-39
96	0x81537ae6	-3.8842755e-38
97	0x802cc7ca	-4.112433e-39
98	0x808407b3	-1.2125047e-38
99	0x810506f6	-2.4433236e-38
100	0x0092da46	1.3486284e-38
101	0x8062c06a	-9.068904e-39
102	0x015f3118	4.0993854e-38
103	0x00763ef3	1.085917e-38
104	0x01685804	4.2674818e-38
105	0x001507e0	1.93137e-39
106	0x0084e308	1.2203729e-38
107	0x810309b8	-2.4067873e-38
108	0x016bc04d	4.3300652e-38
109	0x81839340	-4.8333093e-38
110	0x8065b3f7	-9.339944e-39
111	0x81348332	-3.3154907e-38
112	0x8157b62c	-3.9619965e-38
113	0x811e52f2	-2.9079527e-38
114	0x00212999	3.045494e-39
115	0x0104ee86	2.4415703e-38
116	0x013253d4	3.275358e-38
117	0x0113d9f5	2.7156012e-38
118	0x00a67e3d	1.5289978e-38
119	0x01336e56	3.295627e-38
120	0x00be1d09	1.745916e-38
121	0x00d19aac	1.9249105e-38
122	0x00102c34	1.485225e-39
123	0x00b681f6	1.6760682e-38
124	0x013d53d2	3.4773956e-38
125	0x007144a8	1.040204e-38
126	0x00609dac	8.87277e-39
127	0x8159db98	-4.0014156e-38
128	0x0110d5a0	2.660189e-38
129	0x005cafe8	8.511969e-39
130	0x00aa0e28	1.5617113e-38
131	0x013a5b6d	3.42284e-38
132	0x8099031d	-1.4051948e-38
133	0x80a50e76	-1.5158044e-38
134	0x00b26c6f	1.6385617e-38
135	0x00ccc516	1.8805142e-38
136	0x8046c6c9	-6.499795e-39
137	0x01a5bddc	6.088386e-38
138	0x8088ab79	-1.255114e-38
139	0x00ae59a9	1.601154e-38
140	0x808f79ec	-1.3176213e-38
141	0x8015b6b8	-1.994093e-39
142	0x8045f85c	-6.425744e-39
143	0x002364b5	3.250369e-39
144	0x0131bd84	3.2645736e-38
145	0x80491ef2	-6.715092e-39
146	0x8061e249	-8.989219e-39
147	0x01a80062	6.1714e-38
148	0x807536cb	-1.0764409e-38
149	0x80807763	-1.1797771e-38
150	0x01fac47c	9.211744e-38
151	0x807591c5	-1.0797045e-38
152	0x00d54ba6	1.9588098e-38
153	0x005c7b65	8.493131e-39
154	0x802d1a7a	-4.142095e-39
155	0x807a40a9	-1.1227126e-38
156	0x80fe90ae	-2.3378117e-38
157	0x800e68d2	-1.3233e-39
158	0x001d5322	2.693052e-39
159	0x802fd16e	-4.391398e-39
160	0x80691927	-9.65175e-39
161	0x810d7696	-2.598269e-38
162	0x80154dc7	-1.956447e-39
163	0x000b3f41	1.032882e-39
164	0x0097be9d	1.3935539e-38
165	0x006f3bc6	1.0215183e-38
166	0x001ac599	2.458608e-39
167	0x80604152	-8.83964e-39
168	0x8035901b	-4.918977e-39
169	0x018f577e	5.265545e-38
170	0x018a9e8b	5.092069e-38
171	0x010038bc	2.3550592e-38
172	0x00681627	9.558838e-39
173	0x016c956a	4.3453554e-38
174	0x807d7c07	-1.152393e-38
175	0x01240e69	3.0132382e-38
176	0x80c212bf	-1.7822811e-38
177	0x01a9e10a	6.240371e-38
178	0x00e4c8d2	2.1010534e-38
179	0x013c2830	3.455898e-38
180	0x801d640b	-2.699118e-39
181	0x0069fbdf	9.733081e-39
182	0x8037a863	-5.111358e-39
183	0x80f3304b	-2.233335e-38
184	0x00ad4426	1.5911988e-38
185	0x01a240fe	5.960266e-38
186	0x8059c203	-8.242957e-39
187	0x00b0699f	1.6200937e-38
188	0x802a4ee6	-3.885394e-39
189	0x818a2d56	-5.075825e-38
190	0x004fe255	7.336197e-39
191	0x01b18f73	6.522537e-38
192	0x8027374b	-3.60142e-39
193	0x8021f44d	-3.11821e-39
194	0x008a63f4	1.2709155e-38
195	0x8138168a	-3.3811634e-38
196	0x009fce33	1.4675814e-38
197	0x81a818f1	-6.174924e-38
198	0x8061d69f	-8.985035e-39
199	0x802efc7d	-4.315009e-39
200	0x01b9cb48	6.824996e-38
201	0x8005327a	-4.77285e-40
202	0x002daa7f	4.19376e-39
203	0x80f96345	-2.290265e-38
204	0x8141dacb	-3.5605478e-38
205	0x007088b4	1.0334615e-38
206	0x019a6567	5.671617e-38
207	0x8024a64c	-3.365734e-39
208	0x80c296ea	-1.7870224e-38
209	0x011be761	2.863501e-38
210	0x0058f3b5	8.168949e-39
211	0x8091bf63	-1.3384804e-38
212	0x805fe9b0	-8.808203e-39
213	0x0068a8e1	9.611474e-39
214	0x011c675e	2.8726837e-38
215	0x81633c36	-4.1736514e-38
216	0x00b278e6	1.6390089e-38
217	0x01626c9e	4.1587573e-38
218	0x0012f816	1.742035e-39
219	0x81886189	-5.0098466e-38
220	0x80b3eb4c	-1.6522962e-38
221	0x820a4d9b	-1.016091e-37
222	0x803db231	-5.665888e-39
223	0x0014a61a	1.896296e-39
224	0x01971ef8	5.551308e-38
225	0x01a0f01d	5.9119263e-38
226	0x005863bd	8.117303e-39
227	0x808a1af0	-1.2682962e-38
228	0x80cffa94	-1.9099838e-38
229	0x81650625	-4.2065066e-38
230	0x808d1650	-1.2956809e-38
231	0x00100218	1.470119e-39
232	0x009e9ed2	1.4566982e-38
233	0x0081aaf9	1.1908112e-38
234	0x81662aa4	-4.227492e-38
235	0x8097f2dc	-1.3954281e-38
236	0x00fd79ac	2.3278028e-38
237	0x8177467c	-4.5417305e-38
238	0x817206d2	-4.4453273e-38
239	0x80ac89ec	-1.5845182e-38
240	0x805d4b54	-8.567724e-39
241	0x8123c0d3	-3.0076716e-38
242	0x001a0af9	2.391659e-39
243	0x804f843f	-7.302445e-39
244	0x002b34ad	3.967823e-39
245	0x00bb818d	1.7219712e-38
246	0x8076e32f	-1.0918087e-38
247	0x81446fda	-3.6079764e-38
248	0x0196f432	5.54517e-38
249	0x00467a5a	6.472376e-39
250	0x807310ca	-1.0567105e-38
251	0x80065968	-5.83086e-40
252	0x80526322	-7.566073e-39
253	0x810c19db	-2.573249e-38
254	0x801fb573	-2.911992e-39
255	0x80870d8d	-1.2402653e-38

fc_mu.bias f4 [16]
0	0x18d3b4d8	5.4724827e-24
1	0x2197f2f8	1.0296471e-18
2	0x9627efc8	-1.3565814e-25
3	0x20c8f2d8	3.4042018e-19
4	0x9b241e95	-1.3575644e-22
5	0x1b0846f9	1.1272589e-22
6	0xaa1d02fb	-1.3945435e-13
7	0x95b538d8	-7.3195e-26
8	0x165be008	1.7761371e-25
9	0x9b26f580	-1.3810523e-22
10	0x2183b0c8	8.923699e-19
11	0x9688df0c	-2.2112747e-25
12	0xa3a6f4b8	-1.8101398e-17
13	0x259911c0	2.6553297e-16
14	0x1fc2ddc4	8.2529076e-20
15	0x25063370	1.1640075e-16
